tudui_method1.pth (torch, 9023 bytes, 2 tensors)

weight f4 [64, 3, 3, 3]
0	0x3d826ca6	0.06368379
1	0x3d4a4968	0.049386412
2	0xbd517278	-0.051134557
3	0x3dd3d96e	0.10344206
4	0x3e299beb	0.16563384
5	0xbd46e6c8	-0.048559934
6	0xbc5fd990	-0.013662711
7	0x3d44a530	0.048009098
8	0x3d8fddea	0.070247486
9	0x3cb7ff08	0.022460476
10	0x3e0649df	0.13114117
11	0xbe228160	-0.15869665
12	0xbd6f5af0	-0.058436334
13	0x3e1aecc9	0.15129389
14	0x3c9ffd68	0.019530013
15	0x3d494fe4	0.049148455
16	0xbdb32a45	-0.08748297
17	0xbc736810	-0.014856353
18	0xbdd779d0	-0.10521281
19	0xbe2ce73d	-0.16885085
20	0x3cbf22a0	0.02333194
21	0xbe00ae5e	-0.12566516
22	0x3e139e33	0.14415817
23	0x3d58e8f4	0.052956536
24	0xbd388204	-0.045045868
25	0xbc100360	-0.008789867
26	0xbe2cb3a9	-0.1686541
27	0x3dcca88a	0.09993084
28	0x3e059f4b	0.13049047
29	0xbe0a0589	-0.13478674
30	0xbe3bc259	-0.18335856
31	0xbe115953	-0.1419423
32	0x3e328ad1	0.17435767
33	0xbcc7b588	-0.024378553
34	0x3d0c91ac	0.03431861
35	0x3d4071a8	0.04698339
36	0xbcb54018	-0.022125289
37	0x3d5cc58c	0.053899333
38	0x3d9a8e6a	0.075466946
39	0x3d73cf94	0.059524134
40	0xbd4da8e4	-0.050209895
41	0xbe244e72	-0.1604555
42	0x3e02bad9	0.12766589
43	0xbdd88a8a	-0.10573299
44	0xbdc2eafa	-0.095174745
45	0x3dbb10ca	0.09134062
46	0xbdf20117	-0.11816614
47	0xbc86f648	-0.016474858
48	0xbe22b098	-0.15887678
49	0xbcafd448	-0.021463528
50	0xbcd74bb0	-0.026281208
51	0x3e1c24fd	0.15248485
52	0x3de5b5da	0.11216326
53	0xbe3c9280	-0.1841526
54	0x3e230e41	0.15923406
55	0x3e33f657	0.1757444
56	0x3e222847	0.15835677
57	0xbdb149bc	-0.08656642
58	0xbd882662	-0.06647946
59	0x3d927a6a	0.07152255
60	0xbd7dc254	-0.061952904
61	0x3e1b1349	0.15144075
62	0xbe07d82c	-0.13266057
63	0x3e324eab	0.17412822
64	0x3dd036e6	0.10166721
65	0x3cb9b558	0.02266948
66	0xbe02588a	-0.12729087
67	0xbd7b3b24	-0.061335698
68	0x3d88181a	0.06645222
69	0x3e44d5a3	0.19222121
70	0x3ca1ef48	0.019767419
71	0xbd3494d4	-0.044087246
72	0x39955200	0.0002848059
73	0x3e1b23c1	0.15150358
74	0x3e28528b	0.16437738
75	0x3d8185e6	0.06324367
76	0x3d73111c	0.05934249
77	0x3e2263f1	0.15858437
78	0xbe331a88	-0.1749059
79	0x3d950d86	0.0727797
80	0x3dad5c66	0.08464889
81	0xbd3c6808	-0.04599765
82	0xbe248363	-0.16065745
83	0xbe1a77da	-0.15084782
84	0xbe1737de	-0.14767405
85	0x3d59f840	0.053215265
86	0xbd63ea34	-0.055643275
87	0xbd88fbd8	-0.066886604
88	0x3e1702eb	0.14747207
89	0xbd063f24	-0.03277506
90	0xbcc6e368	-0.024278358
91	0x3e17bb4f	0.14817546
92	0x3ac76580	0.0015212744
93	0x3dd2b9da	0.102893546
94	0xbe072979	-0.13199414
95	0xbd87f156	-0.06637828
96	0x3e436ebb	0.19085209
97	0x3d8fbfc2	0.07018997
98	0xbd87c2f2	-0.0662898
99	0x3d8b6b62	0.06807591
100	0x3e06c641	0.13161565
101	0x3d6faba4	0.0585133
102	0x3dc0d2b6	0.0941519
103	0x3dc892ea	0.09793647
104	0x3ae51380	0.0017477125
105	0x3dd7e28a	0.10541256
106	0x3dc0509e	0.093903765
107	0xbe2b7a6b	-0.16745917
108	0x3e350237	0.17676626
109	0x3e26af89	0.16277899
110	0xbdca55c9	-0.098796435
111	0x3e0ee517	0.13954578
112	0x3e311aed	0.17295428
113	0x3db1567a	0.08659072
114	0x3bc3bf80	0.0059737563
115	0x3e1fece7	0.15617715
116	0xbde7723f	-0.113010876
117	0x3da447a2	0.080214754
118	0xbd8c17cc	-0.068404764
119	0xbe445254	-0.1917203
120	0xbdfb95cb	-0.1228443
121	0x3d866c2a	0.065635994
122	0xbd766980	-0.060159206
123	0x3c4c20a0	0.01245895
124	0xbd428d8c	-0.04749827
125	0x3e2ba055	0.1676038
126	0xbd1ee1b4	-0.038789466
127	0xbca56268	-0.020188525
128	0xbdc1f16e	-0.09469877
129	0xbd8438b6	-0.06456129
130	0xbdd66f3c	-0.10470435
131	0xbdfa0b9b	-0.12209245
132	0xbe3f9ad9	-0.18711413
133	0xbe0cccc6	-0.1374999
134	0x3e0f2d13	0.13982038
135	0xbc473290	-0.012158051
136	0xbd0be7cc	-0.034156606
137	0x3e386b8f	0.1800978
138	0x3dddf15e	0.10837053
139	0xbe2a9e79	-0.16662015
140	0xbde039ae	-0.109485015
141	0xbc88c260	-0.016694248
142	0xbd7d1f14	-0.061797217
143	0x3d7f43a4	0.062320367
144	0x3d144e20	0.03620732
145	0x3e2dfa49	0.16990007
146	0xbe33ed8f	-0.1757109
147	0x3ba5f420	0.0050645024
148	0xbe31a268	-0.1734711
149	0x3d9e35e2	0.07725121
150	0xbe112bb0	-0.14176822
151	0xbdba1871	-0.09086693
152	0xbda2866c	-0.07935795
153	0x3bbd7c60	0.005782649
154	0x3e22b207	0.15888225
155	0x3de3b9de	0.11119436
156	0x3e2f1111	0.17096354
157	0xbd98ddef	-0.074642055
158	0xbe3a96c8	-0.18221581
159	0x3e305cb9	0.17222871
160	0xbd0ea7b8	-0.034827918
161	0x3e076de5	0.13225515
162	0x3a6b8300	0.0008984059
163	0xbdaa15e8	-0.083049595
164	0x3d14fd40	0.03637433
165	0x3e239fe3	0.1597896
166	0x3e036481	0.12831308
167	0x3e2fbba9	0.1716143
168	0xbdf8d74a	-0.12150438
169	0x3e3f686d	0.18692179
170	0x3e3f06bd	0.18654914
171	0xbe2cd050	-0.1687634
172	0x3ce97688	0.028498903
173	0x3d6601fc	0.056154236
174	0xbddee5e6	-0.108836934
175	0x3e067a19	0.13132514
176	0xbe08a865	-0.13345487
177	0xbdc29b38	-0.09502262
178	0x3def5b62	0.11687352
179	0xbd6932b8	-0.056933135
180	0x3d92b992	0.07164301
181	0xbdf9ec5f	-0.12203287
182	0x3e31ded5	0.1737016
183	0x3d370f80	0.044692516
184	0xba80ba80	-0.0009821206
185	0xbd5040a4	-0.050842896
186	0x3e2037fd	0.15646358
187	0x3cef75c0	0.029230952
188	0x3c8072d8	0.015679762
189	0x3e046a41	0.12931158
190	0x3d1ba934	0.03800316
191	0x3e1b0f93	0.1514266
192	0xbdb5057d	-0.088389374
193	0xbe1e180d	-0.15438862
194	0xbdf5cf17	-0.1200239
195	0xbdb56c4b	-0.08858546
196	0xbddd91e6	-0.108188435
197	0x3e205267	0.15656434
198	0xbe179ef1	-0.14806725
199	0xbe0be8e9	-0.13663067
200	0x3e0f2fc1	0.1398306
201	0xbde8d610	-0.11368954
202	0x3dc09af2	0.094045535
203	0x3e385909	0.18002714
204	0xbdec1675	-0.11527721
205	0xbe2e81e7	-0.17041741
206	0xbd452ad8	-0.048136562
207	0xbe0cccd8	-0.13750017
208	0xbd85e9c2	-0.065387264
209	0xbe190218	-0.14942205
210	0x3d8b0686	0.067883536
211	0x3dd39432	0.103310004
212	0xbd0a2708	-0.03372863
213	0x3e3ce5a7	0.1844698
214	0xbdd809d7	-0.10548752
215	0xbd9f59a8	-0.077807724
216	0xbe1f8544	-0.1557818
217	0xbdc0f770	-0.09422195
218	0xbc965730	-0.018352121
219	0x3e167941	0.14694692
220	0x3e29f607	0.16597758
221	0x3dd59d16	0.104303524
222	0xbd8c5424	-0.06851986
223	0xbe293876	-0.16525444
224	0xbdf3fe68	-0.119137585
225	0xbd768624	-0.06018652
226	0x3df2005e	0.11816476
227	0x3d13b840	0.036064386
228	0x3df3e916	0.11909692
229	0xbd4dfcac	-0.050289795
230	0x3da9b306	0.08286099
231	0x3d885d96	0.06658475
232	0x3e05ad8b	0.13054483
233	0xbdfcbf40	-0.123411655
234	0xbe2cd9c4	-0.16879946
235	0x3d865cd2	0.06560673
236	0x3e44d079	0.19220151
237	0xbd2b5918	-0.041833013
238	0x3d87a336	0.06622927
239	0x3d0c359c	0.034230813
240	0x3dc58d3e	0.096460804
241	0x3c29a4c0	0.010354221
242	0x3e024e8f	0.1272528
243	0xbd3c0864	-0.04590644
244	0xbe17dd8f	-0.14830612
245	0x3bf8f340	0.007597357
246	0xbe12df06	-0.14342889
247	0x3de4bf06	0.11169247
248	0x3d606f78	0.054793805
249	0x3e3f0893	0.18655615
250	0x3d78e3a4	0.06076397
251	0xbdafd972	-0.08586396
252	0xbdeac3a9	-0.114631005
253	0xbe295ac2	-0.16538528
254	0x3dcd9336	0.10037844
255	0xbe2c3489	-0.16816916

bias f4 [64]
0	0xbe04c0a4	-0.12964112
1	0xbe08227c	-0.13294405
2	0x3c969a28	0.018384054
3	0x3d95ea96	0.07320134
4	0xbe3aafa9	-0.18231072
5	0x3d6b33f0	0.05742258
6	0xbe049467	-0.12947236
7	0xbd858688	-0.065198004
8	0xbcd45ad0	-0.025922209
9	0xbdbb2e88	-0.091397345
10	0xbdf17ace	-0.11791001
11	0x3df58906	0.11989026
12	0x3d12b5bc	0.035817847
13	0xbd8d74ac	-0.06907019
14	0xbd6dd7e8	-0.058067232
15	0xbdc23fb5	-0.094848074
16	0x3d56111c	0.05226241
17	0x3c6ce6a0	0.014459282
18	0xbe0953de	-0.13410899
19	0x3df0ff92	0.11767496
20	0x3e286d93	0.16448049
21	0xbe14ae96	-0.14519724
22	0x3dcab55e	0.09897874
23	0x3dcb7b7e	0.09935664
24	0x3ccdf5a8	0.025141552
25	0x3d267f90	0.040648997
26	0xbc7c2a20	-0.015390903
27	0x3e11c919	0.14236869
28	0xbd518c24	-0.05115904
29	0xbd9fefbc	-0.078093976
30	0x3c9adf50	0.018905312
31	0xbd6b77b4	-0.057487205
32	0x3e0ccfdf	0.13751172
33	0xbdebe4d8	-0.11518258
34	0x3e333bcf	0.17503284
35	0xbe0936c4	-0.13399798
36	0x3d82bc7a	0.06383605
37	0xbd0329ec	-0.0320224
38	0xbdc5a695	-0.096509136
39	0x3d9becf2	0.07613553
40	0xbdf80f2d	-0.121122696
41	0xbe1602b3	-0.14649467
42	0x3e2535b1	0.16133763
43	0xbb8bdba0	-0.0042681247
44	0xbdd3e968	-0.10347253
45	0xbe2a812e	-0.1665084
46	0x3d3ed0f0	0.046585977
47	0xbde8273c	-0.11335608
48	0xbda15237	-0.07877009
49	0xbe2f9109	-0.1714517
50	0x3d2da630	0.042394817
51	0xbd85470c	-0.06507692
52	0xbe3a7096	-0.1820701
53	0x3cd8fab0	0.026486725
54	0x3da693de	0.08133672
55	0x3d220490	0.039555132
56	0x3d887396	0.06662671
57	0xbe21cf61	-0.15801765
58	0xbddb1686	-0.106976554
59	0x3cf95588	0.030436292
60	0xbdc1a6b6	-0.09455626
61	0x3c9e3498	0.019312188
62	0x3e436175	0.19080146
63	0x3e139eab	0.14415996
