tudui_1.pth (torch, 587967 bytes, 10 tensors)

weight f4 [32, 3, 5, 5]
00000000: de41 e13b ff96 833d 855f f83c 270a afbd
00000010: 99d4 653d 8079 5a38 3e44 d53d 969f 5b3d
00000020: e389 aeba c0fa 983c a8bb d23d 5eaf bc3b
00000030: 1291 023e 7a4d 4e3c dc1b ad3c 2204 e0ba
00000040: fb7a 3b3d 3e52 053d 2418 a3bc 46b2 e73d
00000050: 604e a3ba b727 ee3d ad43 e3bc 7389 0abd
00000060: ce7c 4d3d 77a9 e8ba 63df 41bd a365 ae3d
00000070: 20d4 bd3d db24 cbbd 65b1 563d 2e48 e0bc
00000080: 6d16 b53d ce55 b7bd 3743 54bd f236 24bb
00000090: 396f 6b3d d19f 6ebb 3a51 c23c 7bbe 65bc
000000a0: 464a 33bd e17c 16bd 0a03 d7bd 7df5 993d
000000b0: 22ca 0dbd 7aea abbd 109f 8bbb 3492 a9bd
000000c0: 9edf b6bd b83d 8c3d b8a9 26bd 3cf8 403c
000000d0: a344 a6bd 8de9 a7bd d7b2 743d d6c0 d0bd
000000e0: 3dff 123d aede 3a3d 8e3c 01bd 49f8 d5bd
000000f0: a0e5 1dbd 1560 08bd b9f8 bd3d 3932 b03d
00000100: b103 be3c fb89 873d b0bb b1bb c178 1a3c
00000110: 50b3 843d fa7c a6bd 8e0f e7bd 8471 ce3d
00000120: 1584 e0bd 0a76 febd e925 85bd db69 1b3d
00000130: 59b5 a93c 2a0c ad3d af92 52bd cc31 9cbc
00000140: 034a 1e3d 7327 1dbd 65f3 84bd ee9c a6bd
00000150: 1b57 233d 3719 6d3a c213 b3bd 51f4 3e3d
00000160: 8f95 edbd 3087 c6bd 4146 8fbd e521 0ebd
00000170: 2caf 2ebb 4172 873c 13d9 90bd 2b66 8abd
00000180: 5beb c0bc 99ed 493d 2020 7a3d 9920 ccbc
00000190: 45da abbd 70a9 adbd 97f1 bebd ffd8 9b3d
000001a0: 86a5 d5bc 9d6d 743d 7f53 82bd 0907 0d3d
000001b0: 6820 18bd 16ab 9e3c 4840 52bd dd52 b2bd
000001c0: d908 eabd 0caa 04bd fabf 8c3d aa02 19be
000001d0: b6e8 12be 97bc 83bd f63f 24bd 36c3 153c
000001e0: 1c24 87bd 32ee 89bd f09b 653d 6ab8 9abd
000001f0: c23f 26bc 73a0 0a3d fbcb d73d 06fe a7bd
00000200: 488b 78bd 85fa f33d 9bf0 9f3c 69cc e2bd
00000210: f008 a63d 5c83 acbc fa83 8cbd e90a bebd
00000220: 534b 1b3d d042 bf3d 71fa cc3d f704 49bd
00000230: 0337 dcbd 0ae3 fbbd 4c6f 96bd a735 803d
00000240: 49a4 20bd bf65 57bc 85c3 343d ffda a4bd
00000250: 274e 0e3d f084 ecbc 7aa9 653c d2be c1bc
00000260: 5628 943d 20cf d93d 9f44 a1bd e5db e03d
00000270: 53b0 5f3d 1da8 9f3d 2950 8ebd d667 b73c
00000280: 8150 74bd 6c8e babd ce0c 073e 9d05 43bd
00000290: ea20 703c e5b1 bdbd 7a88 513c 3620 ce3d
000002a0: 9198 e8bd a129 983d 2181 db3c 994c bb3c
000002b0: ae53 f03c a106 a0bd 71e2 593c 1b1a 9fbb
000002c0: d8f0 213c 0cd4 253d 8142 90bd 5257 c3bd
000002d0: cee7 e63d 1a17 5fbc 67a1 ff3d da0f b13d
000002e0: 54e5 553d a08e 213c 8a7b 73bd 142a 9a3d
000002f0: 0cb4 a33b 620e b8bd ab5f 8d3d 9257 a73c
00000300: c7d4 2ebd 9eda c2bc 2cda a73c 8978 e6bc
00000310: aeb1 4a3d eb9e 90bd 247e b4bb 9492 c1bd
00000320: 4f30 ec3c 6a7f 5d3c 9051 6abb 9909 bfbd
00000330: 2e8e 803d ad8f c9bd 806f f1b9 2f10 b13d
00000340: 69e4 5c3d 9a40 9abd 3aea 213d e3ff 953d
00000350: 17f4 783d 8062 0b3c eb88 853d b5c2 00be
00000360: b7ba 4bbd 796b e939 9fb4 91bd f291 703d
00000370: fa2a 2abd deea 97bd 39c7 573c 7eb0 08bd
00000380: 897a fcbd 3be2 febc 1824 cfbd bf6e cf3c
00000390: f694 d8bd 3751 2d3d 557c 413d c367 e1bc
000003a0: 40ed 993b dd5d 823d a07e 60bd 0f51 86bd
000003b0: ddad c6bd b640 a3bc 99ce a33d 47f8 c3bd
000003c0: fb0c ebbd b49a ecbd aeba cb3b 5b4c e5bd
000003d0: 76a6 b9bd 0eaf 923c efcd a5bd 70b5 a7bd
000003e0: 7522 8bbd 9c5e 473d 1e32 79bd 8618 e13c
000003f0: 9956 0d3d c62a e63c 41bd a13d 6543 c3bc
0.006874307 0.064252846 0.030318985 -0.08546858 0.056110952 5.2088406e-05 0.10413407 0.05361899
-0.001331624 0.018674254 0.10289699 0.00575821 0.12750652 0.012591714 0.021131448 -0.0017091075
0.04577158 0.032549135 -0.019908972 0.113133 -0.0012459271 0.11628669 -0.027742231 -0.033822488
0.05016785 -0.00177507 -0.04733218 0.085154794 0.09268975 -0.09919139 0.05241527 -0.027378168
0.08842168 -0.08951913 -0.051821914 -0.0025057164 0.057479117 -0.0036411176 0.023720372 -0.014022465
-0.043772005 -0.036740188 -0.104986265 0.07517526 -0.034616597 -0.08394332 -0.004260905 -0.08279839
-0.0892937 0.068477094 -0.0406892 0.011777934 -0.0811856 -0.08198843 0.059740867 -0.101930305
0.035887945 0.04562252 -0.03155189 -0.10447747 -0.038549066 -0.033294756 0.09275956 0.08603329
0.02319512 0.066181146 -0.0054239854 0.009428204 0.06479514 -0.08129306 -0.11282264 0.10080245
-0.10962693 -0.12424858 -0.065013714 0.03794275 0.020716356 0.08449586 -0.05140942 -0.019066714
0.0386448 -0.0383677 -0.06491736 -0.08135401 0.039877992 0.000904459 -0.08744003 0.046619717
-0.11600792 -0.09693754 -0.06995822 -0.034700293 -0.0026654704 0.016533973 -0.070726536 -0.06757768
-0.023549726 0.049298856 0.061065793 -0.024917888 -0.08391241 -0.08479583 -0.09323423 0.07609748
-0.026079904 0.059674848 -0.06363582 0.034430537 -0.03714028 0.01936869 -0.051330835 -0.08707211
-0.11427469 -0.03238873 0.06872554 -0.14942423 -0.14346585 -0.06432455 -0.04010006 0.00914078
-0.06598684 -0.06734885 0.056056917 -0.075547054 -0.010147037 0.033844423 0.10536953 -0.08202748
-0.060679704 0.11913017 0.01952391 -0.110741444 0.081071734 -0.02105873 -0.0686111 -0.09279425
0.03791363 0.09338915 0.100087054 -0.049077 -0.1075268 -0.12299164 -0.07345447 0.06260233
-0.039219175 -0.013146817 0.044131774 -0.08049583 0.0347425 -0.028871983 0.014017457 -0.02365056
0.07234256 0.10635209 -0.078744166 0.109794416 0.054611515 0.07795737 -0.06948883 0.02238838
-0.059647087 -0.09109196 0.13188478 -0.047612775 0.014656285 -0.09262446 0.012788886 0.100647375
-0.11357225 0.07429815 0.026794972 0.022863673 0.029336777 -0.07813764 0.013298617 -0.004855407
0.009884082 0.040485427 -0.070439346 -0.095381394 0.11274682 -0.013616348 0.12481957 0.086456016
0.052220657 0.009860665 -0.059443988 0.07527557 0.0049958285 -0.08987118 0.06903013 0.020427499
-0.04268339 -0.023785885 0.020489775 -0.028133648 0.049485855 -0.07061561 -0.005508201 -0.09451786
0.02883163 0.013519147 -0.0035754181 -0.093280025 0.062771186 -0.09841857 -0.00046050176 0.08645665
0.053928766 -0.07531853 0.039530016 0.07324197 0.060779657 0.008507371 0.06520256 -0.12574275
-0.049738612 0.00044521297 -0.07114529 0.058732934 -0.041544892 -0.07417844 0.013170057 -0.03337144
-0.12328059 -0.031113734 -0.10114306 0.025321363 -0.10575287 0.04231378 0.047237713 -0.027515298
0.004697472 0.06365559 -0.05480826 -0.065584294 -0.097011305 -0.019928318 0.0799839 -0.095688395
-0.11477085 -0.11552945 0.0062173223 -0.11196204 -0.09064953 0.017905738 -0.08095919 -0.08188903
-0.067936815 0.04867421 -0.06083881 0.027477514 0.034506414 0.028096568 0.078974254 -0.023835847

bias f4 [32]
00000000: 0d28 bbbd a983 123e 757e c03d 41de f7bd
00000010: c87e b6bc 139b f9bc 8f67 bcbd 8005 0a3d
00000020: 90ef 06be 78d3 8c3d 710d 5c3e fd61 193d
00000030: 0670 d43d d2ba cbbd b664 09bc 0677 fe3d
00000040: 9fc5 53bd 6891 803b 73aa b2bd 877b acbd
00000050: 688b 033e 148e a0bd 0a6c 8f3d a5b8 abbd
00000060: 860b cabd 17cb fd3d e50b 74bd b293 d83d
00000070: 18ac 1dbe 1deb 043e 0ba8 2dbe f1ec d4bd
-0.091384985 0.14308037 0.0939912 -0.121029384 -0.02227725 -0.030469453 -0.0919944 0.03369665
-0.13177323 0.06876272 0.21489502 0.037446965 0.10372929 -0.099477425 -0.008385828 0.12425046
-0.051702138 0.003923584 -0.08723917 -0.084219985 0.12846148 -0.07839599 0.07003029 -0.083848275
-0.09865479 0.12392252 -0.059581656 0.10575046 -0.1539768 0.12980314 -0.16958635 -0.103967555

weight f4 [32, 32, 5, 5]
00000000: f32c 27bc 8a55 4c3c d0bb 00bc 387d 383a
00000010: bacb f53c e6a7 103d 852b af3c 8702 bdbc
00000020: 93a7 c63c fdc8 063d 8f66 83bc 12b3 d9bc
00000030: df3c 9f3c c846 ddbc cff2 b2bc 402a 093d
00000040: 4de9 c3bb afb9 32bb 36ce 1a3d efa3 873c
00000050: c22c 6bbb b2e4 943c ec1f 023d d98a b0bb
00000060: 6052 ca3b c3e3 5a3c caab b33c 618b 633c
00000070: 256e f13c 7912 7a3c 769e 4f3c 349b eebc
00000080: b533 a73c a4f3 1ebd a352 d5bc 93d6 a53c
00000090: 8860 d9bc f6b5 2dbd 1b11 56bc 1e9f 083c
000000a0: 31bc c13b 489d 923c 9a81 af3b 7c88 f43c
000000b0: c3ed 2abc aa58 1fbc c23b 66bb b05f 213d
000000c0: 8f61 4f3d 2b63 273d 6286 95bc 0f6b b93b
000000d0: df85 763c a95a c83a cb2d 62bb b934 03bd
000000e0: e89d 003c f6a1 88bc 07a9 8cbc 693b c63c
000000f0: 6a8e fc3c 6a37 f03c 3b57 b6bc 8769 3c3c
00000100: fbf6 0fbc c1d6 1f3c 65fd f03c 24aa 83bc
00000110: f1dd ddbc 37b4 5b3c 831e b3bb 2d39 b13c
00000120: 3a6d 38bb f135 a03b 4e49 34bc b53c 373c
00000130: 00a1 173d 3ec5 0bbb bf8a f3bc e524 b33c
00000140: 3d0a 263d c02f 823b c1d9 f2bc 52b8 b53c
00000150: e743 833c 2817 61bc 810f 283d f104 aebc
00000160: bf37 7b3c 3dc7 cd3c aaff 213d 74c7 2b3d
00000170: 1b34 143c 3322 7cbc e60a b9bc 30ff bcbc
00000180: 5223 253d a6f3 97bc c81f 273d 4237 c0bc
00000190: 7497 c6bc 76b0 8dbb 7bf6 263d 35a3 1b3d
000001a0: 3ec7 23bc d201 933c f6ff babb c002 0e3d
000001b0: 6ecf 9b3b 1cc1 ff3c fa20 06bd b9af 40bc
000001c0: a738 00bb 7d4d 033c 4e51 6ebc 51ae d93c
000001d0: f2f0 8dbc 19ed c43b 503f 233c accc 4dbb
000001e0: a90e 4b3c c2b7 a83c d1da 00bc 2edf 17bd
000001f0: 25d8 eebc 69b6 97bb b9cc 8b3b 73c9 8e3c
00000200: 19f2 bebc 6884 4b3c 3c34 c4bc 71ca 923c
00000210: b4dd 2e3d 694a ba3a 95a4 c13c 84b4 48ba
00000220: 986c 163d c319 493c e586 b2b9 2835 0cbc
00000230: 4cc3 d23c 5ddd e53c f530 933c a1b5 c33c
00000240: e7a2 81bc 7a27 bc3c e4b8 0cbd 0e2d 203a
00000250: 6d21 01bd 542a f0bc b1e4 a33b 5ba2 d4bc
00000260: 2ce9 013d a723 ef3c f59a 9e3c a8fd 8dbc
00000270: 12ed da3c 490e 9c3c 0629 503c d50b 163d
00000280: 6bb7 76bb 0edf c13c b9c1 393a 70c6 0f3d
00000290: 6657 db3c b10d 54bb 32cd 1b3c 485e e1ba
000002a0: f5fa 98bc c605 acbc fd5b 113d 63ae 2dbc
000002b0: 86ca eb3c 0030 ea3b 6612 debb ec18 dcbc
000002c0: 03c6 b5bc 30e5 19bc f2ad 493c cb92 d2bc
000002d0: 3d56 113d 7904 753c 7a37 a6bc ac29 09bc
000002e0: 736c a2bc b675 733c cf1e 6bbb adda 153d
000002f0: f029 1b3d 51d0 b43a 837d 143d eb7c 1b3d
00000300: 511a 573c b985 be3c ec9a 72bc 650f 85bc
00000310: 4c79 293d 6b49 263d bc65 0f3d dd34 b93c
00000320: 7209 083d 3a34 a83c eecb 1c3d a120 a6bc
00000330: d067 b836 89b3 bbbc 41a8 283c 265f f3ba
00000340: c4ff 903c b890 c0bb 4807 183d 7c22 643c
00000350: 1565 a43c cafa 853c ed6c b8bc b36b c4bc
00000360: 4691 bbbc 1fdf c33c ebcb a03b f92d 10bc
00000370: aaf9 013d 5207 133d 0f71 e53c 8e74 adbc
00000380: 54c0 7cbc 8b09 aabb 63fd 6dbb 24b8 3fbc
00000390: 882d 24bd 857b 24bd 9810 10bc e534 403c
000003a0: 3a77 703c 5b54 563b c099 343b 458b c6bc
000003b0: db54 32bc e962 08bc bcd7 0dbc bd2f 81bc
000003c0: 8d78 d93c 8636 c0b8 45ac 1ebb 67b8 823c
000003d0: 3311 843c fd41 723b 9dd8 153d f93d 42bc
000003e0: aa09 a9bc 6265 233c d110 09bd 6062 ccbc
000003f0: 8080 d7bc e5e5 afbc 87dd 1ebd 1122 bbbc
-0.010203588 0.012471566 -0.007857278 0.0007037702 0.030004371 0.03531637 0.021383056 -0.023072494
0.024249827 0.03290652 -0.016040115 -0.026574645 0.019438205 -0.02701129 -0.021844296 0.03348756
-0.0059787394 -0.002727132 0.037794314 0.016557662 -0.0035884832 0.018175457 0.031768724 -0.0053876457
0.0061743706 0.013359967 0.021932501 0.013888211 0.029471466 0.015263193 0.012672057 -0.029126741
0.020410398 -0.038806573 -0.02604038 0.020243919 -0.026535287 -0.04240986 -0.013065602 0.008338718
0.0059123267 0.017897263 0.005356026 0.029850237 -0.010432663 -0.009725729 -0.0035130833 0.039397895
0.05063015 0.04086606 -0.018252555 0.0056585143 0.015046566 0.0015285808 -0.0034512158 -0.032032702
0.007850148 -0.016678791 -0.017170442 0.02419825 0.030829627 0.029323298 -0.022258392 0.011499769
-0.008786912 0.009755791 0.029417703 -0.01607234 -0.027083369 0.013409666 -0.0054662838 0.021633709
-0.0028141276 0.004889243 -0.011003805 0.011183907 0.037018776 -0.0021327282 -0.029729245 0.021868179
0.040537108 0.0039729774 -0.029644849 0.022182617 0.01602359 -0.013738431 0.04103041 -0.02124259
0.015333115 0.025119418 0.03955046 0.04193826 0.009045626 -0.015389013 -0.022588205 -0.023070902
0.040316887 -0.018548798 0.040801793 -0.023463849 -0.02424214 -0.0043240143 0.040762406 0.037997443
-0.0099962335 0.017945204 -0.0057067825 0.03467059 0.004754952 0.031220011 -0.032746293 -0.011760646
-0.0019565017 0.00801408 -0.014545752 0.026572378 -0.017326806 0.0060097096 0.009963825 -0.0031402512
0.012393632 0.020595435 -0.00786467 -0.037078075 -0.0291558 -0.0046298993 0.004266348 0.017430043
-0.0233088 0.012421705 -0.023950689 0.017918797 0.0426919 0.001421285 0.02363805 -0.00076562935
0.036724657 0.0122742085 -0.0003405131 -0.008557595 0.02572789 0.028059656 0.01796768 0.023890318
-0.015824748 0.022968043 -0.034356013 0.00061102293 -0.031526018 -0.029317059 0.0050016274 -0.025956323
0.03171651 0.029191805 0.019360999 -0.017332867 0.026724372 0.01904978 0.012705093 0.036632378
-0.0037645947 0.023665931 0.0007086057 0.035101354 0.026775073 -0.0032356794 0.009509372 -0.0017194236
-0.018674353 -0.020998847 0.035488117 -0.010600659 0.028783094 0.0071468353 -0.0067770956 -0.026867352
-0.022189146 -0.009393021 0.012309538 -0.025704762 0.035482634 0.01495468 -0.020290125 -0.008371752
-0.019827103 0.014859607 -0.0035876518 0.0365855 0.03788179 0.0013794993 0.03625251 0.037960928
0.013128833 0.023257123 -0.014807444 -0.016242692 0.041375443 0.04059736 0.03500913 0.022608215
0.033212133 0.020532716 0.03828042 -0.02027923 5.4957127e-06 -0.022912757 0.010294021 -0.0018567785
0.017700084 -0.005876627 0.03711632 0.013924237 0.02006773 0.016354937 -0.022512877 -0.023977136
-0.02289642 0.023910103 0.0049071214 -0.008800023 0.03173224 0.035895653 0.028008012 -0.021173742
-0.015426714 -0.005189126 -0.003631436 -0.011701617 -0.040082484 -0.04015686 -0.008793019 0.011731361
0.014676863 0.0032704088 0.0027557462 -0.02423633 -0.010884489 -0.008324363 -0.008657392 -0.015769834
0.02654674 -9.165429e-05 -0.0024211567 0.01595707 0.016121482 0.0036965602 0.03658353 -0.011855596
-0.020634491 0.009972902 -0.033463303 -0.024949253 -0.02630639 -0.021471927 -0.038785484 -0.022843393

bias f4 [32]
00000000: 05e6 01bd c67d 163d 2219 ab3c 21f0 bfbb
00000010: 6e68 af3b f541 85bd 6a05 8a3c e391 07bd
00000020: f883 efbc 7cc1 85bc 8761 763c f91b 06bd
00000030: 287d e4bc a81f ce3c 548d a4bc a51f d93c
00000040: cc8a a4bc 716f 7dbd 348f 0cbd d58e 293d
00000050: 6a49 983c 6afc 173c b79e 0c3d 2df3 143d
00000060: ec76 7bbd 35dd ab3c ff4b 843d 7943 943c
00000070: 058c 2a3c c0f0 c23c bf33 9abc b793 54bb
-0.031713504 0.03674104 0.020886008 -0.005857483 0.005353025 -0.06506721 0.016848285 -0.033098113
-0.029237732 -0.016327612 0.015037901 -0.03274152 -0.02789171 0.02516158 -0.020086922 0.026504347
-0.020085715 -0.061873857 -0.034316257 0.04139598 0.018589694 0.009276489 0.03433105 0.036364723
-0.06139271 0.020979503 0.064598076 0.01809858 0.01040936 0.02379644 -0.018823503 -0.0032436678

weight f4 [64, 32, 5, 5]
00000000: 3efe a53b f917 063d ee95 11bc 3e8b ad3c
00000010: 34b2 4abc b6a3 13bd fc16 fabc 69b0 70bc
00000020: acf1 80bc b192 b13c 79f0 473c 1216 01bd
00000030: bc2f 053d bcdd 133c d71a a93c d8bb fbbc
00000040: 755b be3c f9dc 2a3c 92ee f33c 1ee3 e7bb
00000050: 6614 44bc 4316 aa3c 6ef2 a5bb 54cc aebc
00000060: ac3c f73c 6fef c0bc 8841 eb3a 80ab 6c3c
00000070: 8620 293c 1c83 6dbc 88e2 d0bb 070c 9ebc
00000080: 610c 4c3c e7b5 ef3c 87a3 a63c 93ac 01bc
00000090: 92fc b9bc 5ec7 33bc 6f73 90bc c8ab 17bc
000000a0: 6467 1bbb 1eeb 96bb d280 0dbd 45f9 c43c
000000b0: e0f1 edbb ff4b 8f3b 6fd7 94bc 8ed1 6dbc
000000c0: 871d 07bd 029c ddbc 74c0 323b 0fe6 f0bc
000000d0: b0ae da3c a8a8 d5bc caef cf3c 8cb0 0f3d
000000e0: 52e8 e73c 1169 89bc 160b de3b 6957 df3c
000000f0: 83d6 053d c3fb 8f3c fe91 193d 13ee dcbc
00000100: 259b 34bb e1c9 e7bb a120 0b3d 6771 c9ba
00000110: ea0a 3b3a cb24 efbc 6c7b bf3c 395a 3abc
00000120: 4a35 c03c 5a9d a53c 23a9 3dbc 9079 a2bb
00000130: e77a 143b 342f b53c c760 a8bc 3d11 0c3d
00000140: 3e15 8d3b 8b94 e03b d8be 77ba af6d b0bb
00000150: 1500 e5bb 4a2c 0437 c08e 95bc aca3 e43c
00000160: 9981 7ebc b107 b23b d3da 073d 586c 2a3c
00000170: a865 f63b 98ad 4abc 4506 b1bc 43fb b13c
00000180: e039 303c d8d1 3bbc 7d75 c7bc e152 b83a
00000190: d3bb 553a f6f3 243b b5e5 263b 5cc1 c73c
000001a0: 5c72 5d3c 492e 0fbd aa4f e73c fafe 583c
000001b0: 51ac 01bd f4a3 e4bc 27c1 d23c 2455 99bc
000001c0: c583 29bb f78b f6bc bcd8 933c f228 b9bc
000001d0: 57bd fbbc d0e1 06bd a914 3cbc 6378 12bd
000001e0: 8163 f9bc 7ada ad3c 4cb8 fb3b 11e4 04bb
000001f0: b7d6 4ebc 29e2 86bc 5407 9d3c 62ad ac3c
00000200: 791a b0bb 2b2d 183d 1911 043c 7fc9 1bbb
00000210: b1c2 aebc 3560 01bd 646c cf3c 2ff7 a63c
00000220: 6398 4d3c f7ee 9aba b384 093d b8a9 c3bb
00000230: 404a 3d3c e2da d83c ac11 a73c 08cb e83c
00000240: 1181 13bb 22d6 c1bb 780b 0ebd f702 c7bc
00000250: 811e d8bc 991d 18bd d35f f5bc 67f7 9cbc
00000260: 5e35 8dbc a42e a4bc f2c6 4e3c 6fa0 99bc
00000270: 867d ccbc 98a6 1b3c 02ef 423c 5a97 e03c
00000280: 68b4 fb3b 8c87 ef3c 0e59 b73a 6eb5 803b
00000290: 92cd b33c e65d 7fbc a2ee 81bc 661b 033c
000002a0: 7649 babc c0d2 543c 5c46 b13c 7c33 a13c
000002b0: ea8d 02bc 4945 e33c 3856 b1bc 18ac 7a3c
000002c0: 0d75 acbb 5c31 423c 1110 1fbc 2f15 15bc
000002d0: a3ac 11ba bc6c 053d 2eb6 cbbb 0348 bfbc
000002e0: b63a f73c 074a 8cbb 1cf5 cdbb 4839 07bd
000002f0: 5ff5 c13c 8c3a 1ebd 82d1 4abc ca80 883a
00000300: 0c4c da3b 17c2 003c 3d38 1fbc f4e5 573c
00000310: 48d5 27bc 4bc2 283c a1ba 33bc f079 bc3c
00000320: 5758 dc3c 56e5 52bc 6338 ad3c 6888 cb3a
00000330: b63b 153d 6894 97bb 278d 59bb 4581 a2bc
00000340: 7216 1d3d 58fc a2bc 92a1 0a3d ac50 1f3c
00000350: f50b 9abb 44bd f1bb 1c77 d53c 921f a03b
00000360: a617 ed3c f89a bcbb cc76 ab3c 69fa d6bc
00000370: 202d a2bb 20dc 0c3d 4f5a 0abd 9ef8 d9bc
00000380: 3ced 2f3c 9f58 06bd 8dea b93c 5310 cf3c
00000390: 9ae2 803c f2c1 023d bad2 a53c a916 0fbd
000003a0: b800 ca3c 20b7 8bbc 9172 893c ebb4 903b
000003b0: 7336 09bd 1ef1 813c 13b4 ecbc 5502 eebb
000003c0: 7110 b7ba a213 af3b be3a d63c dd06 003c
000003d0: 1a78 0dbd 5c44 0cbc df24 a4bc 0c8a 8abc
000003e0: 4c11 fbba 83b5 c5bb fcec 0a3d 54f3 aabb
000003f0: 3bb8 9ebc 7d5b a13c 5181 aa3c 0b3b e23c
0.0050657084 0.032737706 -0.008885844 0.02118456 -0.0123715885 -0.0360448 -0.030528538 -0.014690497
-0.015740238 0.021676393 0.012203329 -0.03151519 0.032516226 0.009025034 0.020642681 -0.03072922
0.02323697 0.010428661 0.029776845 -0.007076635 -0.011967754 0.020762568 -0.0050643003 -0.021337666
0.030180298 -0.02355167 0.0017948607 0.014445186 0.010322696 -0.014496591 -0.006374661 -0.019292844
0.012454123 0.029261542 0.020341648 -0.00791468 -0.022703443 -0.010972826 -0.017633168 -0.009257264
-0.0023712749 -0.004605665 -0.03454668 0.024044642 -0.0072614998 0.004373073 -0.018169133 -0.014515294
-0.032987144 -0.02705193 0.0027275356 -0.029406575 0.026694626 -0.026081398 0.025382895 0.035080478
0.028309021 -0.016773732 0.006776224 0.02726336 0.032675277 0.017576104 0.037492745 -0.026968991
-0.0027558294 -0.0070736264 0.033966664 -0.001536888 0.000713511 -0.029192349 0.023374282 -0.01137405
0.02346291 0.020216633 -0.01157597 -0.004958339 0.0022656263 0.022117235 -0.02055396 0.034196127
0.004305511 0.006853645 -0.000945074 -0.005384169 -0.006988535 7.878125e-06 -0.018256545 0.027910076
-0.015533828 0.005433046 0.03316767 0.010401808 0.0075194426 -0.01237049 -0.021609435 0.021726256
0.010755986 -0.011463605 -0.024348015 0.0014062786 0.0008153293 0.0025169826 0.0025466506 0.024384193
0.013516035 -0.03495625 0.028236229 0.013244385 -0.031658474 -0.02791021 0.025726868 -0.018717356
-0.0025865894 -0.030096037 0.018047683 -0.022602532 -0.030729933 -0.032930195 -0.011479535 -0.03575934
-0.030442955 0.021222342 0.007681882 -0.002027754 -0.012624434 -0.016465263 0.019168533 0.02107877
-0.0053742495 0.03715245 0.008060717 -0.0023771224 -0.02133307 -0.03158589 0.02532024 0.020381538
0.012548539 -0.0011820485 0.033573817 -0.00597116 0.011553347 0.026471559 0.020394169 0.028417125
-0.002250735 -0.005915419 -0.034678906 -0.024293406 -0.026381733 -0.0371376 -0.02995292 -0.01916094
-0.017237362 -0.020041771 0.012620674 -0.018753259 -0.024962198 0.009500168 0.011897804 0.02741592
0.007681418 0.029239438 0.0013988332 0.003927878 0.02194861 -0.015586352 -0.01586086 0.008002138
-0.022740107 0.0129897 0.021639995 0.01967787 -0.007968405 0.027742999 -0.021647558 0.015299819
-0.005262977 0.0118525885 -0.00970842 -0.009099289 -0.0005557036 0.0325744 -0.006216786 -0.023349768
0.030179363 -0.0042812857 -0.006285323 -0.033013612 0.023676572 -0.038630053 -0.012379052 0.0010414359
0.0066618975 0.007858775 -0.009717998 0.013177384 -0.010243721 0.010300229 -0.010969789 0.023007363
0.026897592 -0.012872061 0.021145051 0.0015528323 0.036433898 -0.0046258457 -0.0033195706 -0.019837031
0.038351484 -0.019895718 0.03384549 0.0097238235 -0.0047011324 -0.0073772985 0.026057772 0.004886576
0.02894194 -0.0057557784 0.02093067 -0.026242452 -0.004949227 0.034389615 -0.03377753 -0.026607808
0.010737713 -0.03279936 0.02269485 0.025276339 0.015733052 0.031923242 0.020242084 -0.03493372
0.024658546 -0.017055094 0.016778262 0.0044160984 -0.033499192 0.015862044 -0.02889446 -0.0072634616
-0.0013966692 0.0053429166 0.026151057 0.007814136 -0.034538366 -0.00856122 -0.020037113 -0.016911529
-0.0019154935 -0.006033601 0.033917412 -0.0052169953 -0.019374957 0.019696945 0.020813616 0.027616045

bias f4 [64]
00000000: 1f63 86bb 4493 053a c7bf 0bbd b9a9 c0bc
00000010: ed02 943b e50d 333c bee9 b13c 9953 e2bc
00000020: 98e4 3e3d 3c50 383b f728 91bc f932 e43a
00000030: e0e3 1ebc 3d9a e63c b880 12bd 5857 db3b
00000040: c454 e83c e35b 0f3d 0a6d 8bbc f8a9 633c
00000050: 3b73 1d3d 4b72 09bd abf1 bdbc 4223 95bc
00000060: 5c1d 933c ea29 f9bc 8009 78bc 33d0 9bbc
00000070: deb7 aaba 2533 8d3a 1ae9 b1bc 5a87 063d
00000080: 3f4d 44bd 9615 4f3c 882f c7bc 1e21 643b
00000090: a155 713b f3be df3c 8d99 503c 2e66 e3b9
000000a0: 8815 a13c feff b33c 5d85 78bc 7dc0 c13b
000000b0: 2d19 a43c cff5 163d c443 19bd ceaa 58bc
000000c0: c79a d0bc a1b8 2c3c a481 f93b 46a9 d4bc
000000d0: b6ea 20bd c459 2cbd 1fa8 c63c d9c9 8e3b
000000e0: 2226 9a3c f879 82bc 9367 5fbc 77e6 8bbc
000000f0: 59df 77bc 5ae9 303a d41d 9c3a a7fc 1fbd
-0.0041011716 0.00050954917 -0.03411844 -0.02351843 0.0045169503 0.010928606 0.021717902 -0.027627753
0.046604723 0.0028123995 -0.017719729 0.001741021 -0.009697884 0.028149718 -0.035767287 0.006693762
0.028360732 0.03499974 -0.017019767 0.013895504 0.03843997 -0.033556264 -0.023186525 -0.018205289
0.017958336 -0.030415494 -0.015138984 -0.019020176 -0.0013024767 0.0010772689 -0.021717597 0.032843925
-0.04792523 0.012639424 -0.024314657 0.0034809778 0.003682472 0.027312731 0.012731922 -0.00043372944
0.019663587 0.021972653 -0.015168515 0.005912839 0.020031536 0.036855515 -0.037418142 -0.013224317
-0.025464429 0.010542066 0.0076143313 -0.025959622 -0.039286338 -0.042077795 0.024250088 0.004357558
0.018817011 -0.0159273 -0.013635534 -0.017077668 -0.015128934 0.0006748639 0.0011910745 -0.039059307

weight f4 [64, 1024]
00000000: 1c01 03bd 7497 2b3c 57ee ba3c b792 8ebc
00000010: d3cb 39bc 549b 663b 98f0 6abb 2f24 9b3c
00000020: 730a e13b 0337 94bc ecc3 383c fa54 0b3c
00000030: ff95 cbbc 31cd 00bd e915 f9bc d046 02bd
00000040: ca93 cc3b a123 afbc c86d e0bc 56a1 d13c
00000050: 5d8b 523c 1578 a9bc 5286 40bc 5f45 b73c
00000060: d263 dfbc 8913 c0bc 54a9 8fbc 06d6 47bc
00000070: 13b0 58bb c890 c7bc c00d 09bb 2685 d43c
00000080: de43 853c e4ff 983c dbda cb3c fb4f b83b
00000090: 60d7 643c ace2 07bd 7c4a 86bc fb1f 76bc
000000a0: 2421 67bc dcec 7cbc b838 cbbc cddd a83c
000000b0: 8656 63bc 8467 323c a7fa c9bc e3f3 763c
000000c0: 7621 b9bc 5790 e4bc d734 0fbc cc3b b73c
000000d0: 63fb 3e3c 8069 3cbc d62c f7bc 6922 d83c
000000e0: 5cf3 b63c 9cff e8bc d1e4 41bc f3c1 cebc
000000f0: 18ba febc 6058 c5bb 5245 e43c bc44 f13a
00000100: 4b5a b5bc 267e 7abb 657a 073b 370b a6ba
00000110: 9f09 9d3c 50c1 cbbc 9edb 5b3c 320f 00bc
00000120: 0c19 01bd 5cdd 8a3c 84f6 223b 9d2f 793c
00000130: e765 f4bc dfcc ff3b bb3f dfba 92db d13c
00000140: c3d8 e03c f2a9 c53c ae8d 823b 88e1 88bb
00000150: 0ef4 aebb 066c 023d 1cb3 78bc de0d 90ba
00000160: 6d6e c93c e657 c9ba c36e 27bc ebd2 20bc
00000170: 7192 b43c 5f5f d3bc c514 2abc cf44 ee3c
00000180: c90e bbbc a6d6 b8bc 24b5 6a3b 7025 8a3c
00000190: b563 37bc 7195 9a3b 8bee 3bbb abb0 8e3c
000001a0: b707 f4bb b150 d2bc 2270 e2bc 4899 8b3c
000001b0: 9ce9 bdbc 94f2 7bbc bcc1 973c 9aea b43c
000001c0: f4b8 063d 7517 42bb ea30 003d d335 c43b
000001d0: 3dda 02bc fd57 023d b676 e5bc 94cb 16bb
000001e0: ce30 59ba e12f d9b9 0187 03bc 82e7 b6bc
000001f0: 702c e23c 2e9e 983c 374a a8bc 7b78 8e3c
00000200: 9f8c 03bb b66d fdbb e2f3 d4bc fb20 bfbc
00000210: ab73 1d3c 7da8 f63c f392 5b3c dc11 8abc
00000220: e6fd 8a3c bbe0 c93c 5fa0 a23c a601 f2bb
00000230: c688 8cbc d635 173c c96c 183c b0d1 883b
00000240: 52d0 90bc 2586 2cbb a4df 75bb 467b 98bb
00000250: 108c 66bc 16f9 213b 6c85 fa3b 6247 903c
00000260: 439b 0dbc 9329 0ebc 437a fc3b e3b6 94bb
00000270: cd84 44bc 859c 3ebc 2aaf 8bbc ae42 b23c
00000280: 534a e83c dd20 bd3c 05b6 23bc 83d3 97bb
00000290: 794c 3fbc b3b9 b83c bb7e f2bc 94db 003d
000002a0: 99d4 7bbc 85cf dcbb b909 aebc d1f2 353c
000002b0: 1d8e 9fbb 0fc8 cc3c bffb 75bb 34f3 cdbc
000002c0: af81 2cbc 07cf 87bc f58a dfbc db6a 033d
000002d0: 3f15 7bbc 6957 efbb c693 75bc 13f5 f23c
000002e0: 8e55 51bc 1aec 06bd bcfb 4e3b 632b 4cbb
000002f0: 816f 153b 560f 8d3c ef04 20bc e723 30bc
00000300: c752 fe3c f9a5 e8bc 749d bcbb 97ea 013d
00000310: d817 2c3c 22af 893c fdb5 8ebc 334e e03c
00000320: be9f 1f3c 2bb6 413c 8ee6 563c 4eb9 b03c
00000330: b716 e23b a830 eabb 072d 1cbc 1ee2 8ebc
00000340: 6b3a ad3c 4d42 e53b 8434 22bc 333a 3c3c
00000350: f8bc c6ba 644e 91bb ade6 103d 0387 cbbb
00000360: 805a c7bb 1250 7fbc 6c61 8fbc 2822 8d3c
00000370: 8a7f d53a 211e 59bc 8c88 0bbc e439 a5bc
00000380: 3198 dd3c 3930 97bc 1ea2 b6bc b244 56bb
00000390: dbbb 06bd ea9b ebbc 3610 92ba c457 a7bc
000003a0: 7db3 9dbc 73ae 8639 39e2 bf3c fafd 233c
000003b0: 1a7c 1b3b ec1d e1bc b7c1 d8bc ac9b af3c
000003c0: 2304 e9bb b90c 6a3c 1980 403c 66ab ac3c
000003d0: 0167 8e3c e88f 85bc 9d88 31bc 34b3 9a3b
000003e0: a2e0 213c b3bd 883c c4ed 283c d24c 11b9
000003f0: fd5d e33c d652 2fbc 9027 fcbc 6a0b 553c
-0.03198348 0.010473121 0.022818727 -0.017403943 -0.011340099 0.0035187798 -0.0035848971 0.018938152
0.0068677007 -0.018092638 0.01127718 0.008504147 -0.024851797 -0.031445686 -0.030405955 -0.031805813
0.0062432038 -0.021379294 -0.027396098 0.025589626 0.01285061 -0.020687142 -0.011750774 0.022371946
-0.027269278 -0.023446815 -0.017536797 -0.012197023 -0.0033063933 -0.02436103 -0.0020912737 0.025942396
0.016267713 0.018676706 0.024884632 0.005624769 0.013967365 -0.033175156 -0.016392939 -0.015022273
-0.014107022 -0.015437331 -0.024807319 0.020613575 -0.013875609 0.010888938 -0.024655653 0.015072796
-0.022598963 -0.027900858 -0.008740625 0.02236738 0.011656615 -0.011499763 -0.030172747 0.026383596
0.02233284 -0.028442197 -0.011834339 -0.025238967 -0.031094596 -0.006022498 0.027865086 0.0018407325
-0.022137782 -0.0038222163 0.0020672318 -0.0012668137 0.019169627 -0.024872452 0.01341906 -0.007816123
-0.031518027 0.016951256 0.0024866173 0.015209106 -0.029833747 0.007806405 -0.0017032543 0.025617395
0.02744711 0.024128888 0.0039841747 -0.004177276 -0.005339152 0.0318413 -0.015179422 -0.0010990461
0.024588788 -0.0015361279 -0.010219279 -0.009815912 0.022042485 -0.025802312 -0.010380928 0.029085545
-0.022834199 -0.02256329 0.0035813535 0.016863555 -0.011193206 0.004717522 -0.0028676118 0.017418226
-0.0074472087 -0.025673242 -0.02764136 0.017040864 -0.023182683 -0.015377659 0.018524997 0.022084523
0.03289123 -0.0029616032 0.031296648 0.0059878617 -0.007986602 0.031822193 -0.028010707 -0.0023009526
-0.00082851655 -0.00041425138 -0.008027793 -0.022327188 0.02760908 0.018630113 -0.0205432 0.017391434
-0.002007283 -0.007734026 -0.025995199 -0.023331156 0.009610097 0.030109638 0.013401735 -0.01685422
0.016966771 0.024643293 0.019851862 -0.0073854504 -0.017155062 0.009229144 0.00930328 0.0041753873
-0.01767746 -0.0026325074 -0.0037517333 -0.004653367 -0.014071479 0.0024715117 0.0076452997 0.017612163
-0.008642974 -0.008676904 0.0077050044 -0.0045384034 -0.011994553 -0.011633997 -0.017051298 0.021760311
0.028355753 0.02308696 -0.009992127 -0.0046333685 -0.011675947 0.022549486 -0.029601445 0.031459406
-0.015370511 -0.0067386054 -0.02124487 0.011105255 -0.004869236 0.02499774 -0.0037534086 -0.025140382
-0.010528966 -0.01657821 -0.02728794 0.032084327 -0.01532489 -0.0073041213 -0.014988845 0.029657876
-0.0127767455 -0.032940008 0.003158315 -0.003115379 0.0022802057 0.017219227 -0.009766801 -0.010750747
0.03104533 -0.028399454 -0.0057560746 0.031717863 0.010503732 0.016807143 -0.017420763 0.027381038
0.009742675 0.011823217 0.013116492 0.021572735 0.0068996805 -0.0071469136 -0.00953222 -0.017441805
0.02114602 0.006996429 -0.009900216 0.011488485 -0.0015162518 -0.0044343937 0.03537624 -0.006211163
-0.0060837865 -0.015583055 -0.017502509 0.017228201 0.001628862 -0.013251812 -0.008516442 -0.020169206
0.02705011 -0.018455612 -0.0222941 -0.0032694754 -0.032893997 -0.028760869 -0.0011143747 -0.020427592
-0.019250626 0.00025688446 0.023423301 0.010009283 0.0023725093 -0.027480088 -0.026459558 0.021436535
-0.007111089 0.01428526 0.011749291 0.021077823 0.0173831 -0.016303971 -0.010835794 0.0047210697
0.009880217 0.016692018 0.010310594 -0.00013856895 0.027754778 -0.010700902 -0.030780584 0.01300321

bias f4 [64]
00000000: eb93 05bc 26f9 c93b c67b 0d3c 2d5e ee3c
00000010: 3857 b73c a3ae 1a3c e98e c5bb 61a3 30bd
00000020: 577a bebc b8d1 11bc 6461 abbc 82d4 ae39
00000030: f67e f23b 893b f5bc 0421 6abc 415a 183d
00000040: 0fa4 8f3c 87d5 af3c 8293 dfbb b25e 893b
00000050: 8316 10bb ade9 223c a5f5 1abd 9baa 75bb
00000060: 1641 92bc a039 3dbb f87d 7cbc 3766 8bbc
00000070: 24eb 85bc fbf7 853c 776f 003d 11f5 c93c
00000080: 5b1f 153d 7fca 113d 2ebe 6bbd 37eb b23c
00000090: cd3d 37bc 84ec 0fbc 4e98 47bb aa41 583b
000000a0: 31bd 01bc d0ff 7abc 20cf 973c c509 3bbb
000000b0: 417c 9d3b 1cf0 ce3c 4877 02bd 6d21 da3b
000000c0: 0c45 e7bc 7e2c 123d 8f2d 0d3d 635e 933c
000000d0: 4b9d e43c afe6 d9bc e95f 2abd b885 1d3c
000000e0: 368d bbbc b64c f9ba ad52 cebc 1562 013c
000000f0: 0b6a 3bbc c3c1 d43c 72d2 ddbc 516f 20bd
-0.008152942 0.006163734 0.008635467 0.02909764 0.022380456 0.009441051 -0.006028999 -0.04312456
-0.023251696 -0.0089000985 -0.020920463 0.00033346197 0.007400389 -0.029935615 -0.014290098 0.037195448
0.017534284 0.021464122 -0.006823004 0.0041921968 -0.0021986074 0.009943408 -0.03783192 -0.0037485722
-0.017853301 -0.0028873459 -0.015410893 -0.017016513 -0.016347475 0.016353598 0.0313563 0.02465299
0.036406856 0.035593506 -0.057554416 0.021840675 -0.011184168 -0.008784417 -0.003045577 0.0032998123
-0.007918642 -0.0153197795 0.018531382 -0.0028539759 0.004806072 0.025260977 -0.031852037 0.0066568167
-0.028231166 0.035686962 0.034467276 0.017989343 0.027907034 -0.026599256 -0.041595373 0.009614401
-0.022894483 -0.0019020054 -0.025185907 0.00789692 -0.011438857 0.025971299 -0.027077887 -0.03916866

weight f4 [10, 64]
00000000: 81f6 d4bd 2c1d d83b e586 603d 37a6 3cbd
00000010: 48c7 82bc e523 cabd 593b a0bd 513c 353d
00000020: 03ce 11be 5d0f 69bd 7154 5e3d f48f 84bd
00000030: 0a81 483d b9f9 0e3d 25d1 4c3d d00b 09be
00000040: 85a9 f03d 9c9f 3b3d ca52 a53d 3868 38bd
00000050: 7e4e 013e 5630 55bd 2d07 0c3d bfaf ea3d
00000060: 11ba 993d adde 023e 4bd4 9d3d 6add ccbc
00000070: f3b7 d4bc 7246 84bd ba81 1ebd 2b8b 6d3d
00000080: accb 0abd 2df8 d8bd a19a 013e ad40 47bd
00000090: ab95 673d 5858 f3bd 9502 0b3c 5180 debd
000000a0: c360 e33d 965f dabd 00e0 11be a4a7 b638
000000b0: 98ac e83c 01e8 83bd edd1 b63d e0ba 303d
000000c0: 7743 bd3d f39c fcbc f883 18bc 74b9 7fbd
000000d0: 4972 ff3d 86a5 75bd 314a 043d 8e98 833d
000000e0: 3f35 bf3d 1eb4 cbbc 56a8 933d 29ba a4bd
000000f0: b355 f73d 0ad5 c4bc 162a 883d 8410 0d3e
00000100: 20f5 7d3c 48d8 99bd 9411 26bd a38e b13d
00000110: f2d3 c2bd f33f cabc 3065 09be 289f 16bc
00000120: 2b96 08be 7304 94bd 47a5 27be 2ebf cebd
00000130: 7614 c73d e304 093e d0f0 853a 8395 383d
00000140: 75a4 013e 7ddd 2d3e 3331 8fbb 7cf8 e53c
00000150: e792 bbbd c687 b9bd 59d1 acbd b288 a33d
00000160: 6a9d 623d 2740 8cbc 2138 26be 073c 88bc
00000170: 185c 113e ecbf 0bbd f1bc 8a3d d00f dabd
00000180: 7d5d 2bbe 9486 2d3d 09ba ff3c 108c b7bd
00000190: 518c 0b3c 22c4 2f3d 9ef8 20bd 693c 603c
000001a0: 4301 763d 0a18 7b3d 903b 303e e4d0 aabd
000001b0: 2d16 f2bd ba21 103e 8ded be3d 955d 08bd
000001c0: 521f acbd e850 d3bd f546 91bd daf6 19bd
000001d0: 2cd5 133d a8f7 d3bd 5635 023e 6a10 11be
000001e0: d25f db3c b3c6 94bd 5431 8cbd 701b 4bba
000001f0: 263b 2abe b180 03be 2566 cd3d b6e4 bfbd
00000200: 2277 57bd fb9b 0e3e 325c f93c bcde 4bbd
00000210: 7057 003e 8a67 cf3d 7c48 f63d e7e0 4d3d
00000220: 8560 d63c 915f 98bd 4367 76bd 1dcf e2bc
00000230: c2de 8c3d 3077 6bbd 4a44 12be 5397 0b3d
00000240: c15f 0ebe 1731 0dbd c3de dfbd cb6d 8abd
00000250: 1295 91bd ed8c 163e f962 adbc d740 e6bd
00000260: c14d 8bbd b53e e2bd 8b1e 2c3e 9126 b43d
00000270: a0a4 603d 611e e63d a6b2 98bd 3869 27bd
00000280: e8bd fb3d cf64 d8bc cb14 c6bd c431 1cbd
00000290: 6435 d43d f7ef a5bc 30cb 9dbc fa78 13be
000002a0: 0fdd 873d 1612 1f3d 3ed4 c4bd d7cb ee3b
000002b0: 0ce2 f03c 3458 d53d 0c3e f13d bd65 d9bd
000002c0: b156 efbd e0a1 9a3c b452 b13d 9c25 963d
000002d0: fb93 3b3d 19df f4bd 8199 b53d 4168 67bd
000002e0: 7d0d 3a3d c572 073e ec42 de3d a4e1 203c
000002f0: a6d6 f83d 4d31 3e3d 5e9e 1fbc 4fe8 bcbc
00000300: 2bbd 173d 3274 49bd a6e7 a43d d359 05be
00000310: 58c7 afbd 4886 823d 3bfd a33d 2964 11bd
00000320: 52bb f53d c659 54bc c8d1 88bd 287f 353d
00000330: c6d5 333d 7985 95bd d430 5bbd 419d 06be
00000340: daef 63bc 37d8 e0bd 85f8 a83d 2eb0 e6bd
00000350: c193 813d 7738 c13d deb9 863d b647 e5bd
00000360: 461b bdbd af6f e4bc 4a6b 413d 2707 dcbb
00000370: 0171 8d3c 3829 433d 1ef3 09bd d0ff dbbd
00000380: 18f5 c7bd 6eff 8fbd af3e fc3d 690e e9bd
00000390: f443 02be 4ee4 90bc 1e9e d2bd df45 243c
000003a0: c136 0ebe 3432 7b3d 2c31 973d 8489 f23d
000003b0: dd4d 123d 96ae 8b3d a3b2 bdbd d143 c3bc
000003c0: 47fc 53bd b7a8 0abe 8984 9dbb 5915 c2bd
000003d0: 7e1d 613c cfd4 6cbd ad6a cfbd 5407 f1bd
000003e0: 4bc3 ff3d d010 84bc e886 973d 649d 80bd
000003f0: c8a8 7abc 6e39 943d cc88 a7bd cfba 17be
-0.103985794 0.0065952744 0.054816145 -0.046056952 -0.015964165 -0.098701276 -0.0782382 0.044246975
-0.14238743 -0.056899417 0.05427975 -0.064727694 0.048951186 0.034906123 0.050004143 -0.13383412
0.11751083 0.045806512 0.080724314 -0.045021266 0.12627599 -0.05204805 0.03418653 0.11459302
0.075061925 0.12780257 0.07706507 -0.025007922 -0.02596662 -0.06458749 -0.038697936 0.05799405
-0.033885643 -0.10594211 0.12656642 -0.048645664 0.05653922 -0.118820846 0.008484502 -0.10864318
0.1110244 -0.10662763 -0.14245605 8.709662e-05 0.028402612 -0.064407356 0.08926759 0.043146968
0.092413835 -0.030836558 -0.009308808 -0.06243272 0.1247297 -0.05997231 0.032297317 0.06425582
0.09336328 -0.02486616 0.07209842 -0.0804332 0.12076893 -0.024027366 0.06648652 0.13775831
0.015500337 -0.075119555 -0.040544108 0.08669784 -0.095130816 -0.024688696 -0.13417506 -0.009193219
-0.13338535 -0.07227411 -0.16371642 -0.100950584 0.097206995 0.1338077 0.0010218862 0.04506446
0.12660392 0.16979022 -0.0043698787 0.028072588 -0.09158879 -0.090591 -0.084383674 0.07985057
0.055325903 -0.017120434 -0.16232349 -0.016630186 0.14195287 -0.034118578 0.06774319 -0.10647547
-0.16734882 0.04236467 0.031216638 -0.08962262 0.008517341 0.042911656 -0.0392996 0.013686278
0.060059797 0.061302222 0.17210221 -0.08340624 -0.11820636 0.14075366 0.09322653 -0.03329237
-0.084044114 -0.10318166 -0.07093612 -0.03758893 0.03609197 -0.10349971 0.12715659 -0.14166418
0.02677909 -0.07264461 -0.06845346 -0.0007747924 -0.16624126 -0.1284206 0.10029248 -0.09369795
-0.05260385 0.1392669 0.03043947 -0.049772963 0.12533355 0.101271704 0.12025544 0.05026331
0.026169071 -0.07440103 -0.06015707 -0.02768665 0.06878425 -0.057486713 -0.14283863 0.03407986
-0.13903715 -0.034470644 -0.1093116 -0.067592226 -0.07108511 0.14702196 -0.021165358 -0.11242836
-0.0680194 -0.11047117 0.16808526 0.087964185 0.0548445 0.11236263 -0.074559495 -0.04087183
0.12292081 -0.026415257 -0.09671935 -0.038133398 0.10361746 -0.020256026 -0.019261926 -0.14401618
0.066339605 0.038835607 -0.096107945 0.007287483 0.029404663 0.10417214 0.117794126 -0.10615108
-0.11686457 0.018876016 0.086583525 0.07331392 0.045795422 -0.11956615 0.08867169 -0.05649591
0.04542302 0.13227375 0.10852608 0.009819422 0.12150316 0.046433736 -0.0097423475 -0.023059992
0.03704564 -0.049183078 0.08051996 -0.13022546 -0.08582944 0.06373268 0.08007284 -0.03549591
0.11998619 -0.012960857 -0.066806376 0.04431072 0.043905042 -0.073008485 -0.053513363 -0.13145925
-0.013912166 -0.1097874 0.08250526 -0.11264072 0.0632701 0.09434598 0.0657842 -0.111953184
-0.092337176 -0.027885286 0.04722146 -0.00671472 0.017265799 0.04764673 -0.03367912 -0.10742152
-0.09763545 -0.07031141 0.123166434 -0.11379702 -0.12721235 -0.01768699 -0.10284065 0.010026424
-0.13888074 0.061327174 0.07382426 0.11842635 0.035718787 0.06820409 -0.09262588 -0.023836048
-0.051754262 -0.13540922 -0.004807059 -0.09476728 0.013739942 -0.057820138 -0.10127769 -0.11768976
0.12488421 -0.016121298 0.07398778 -0.0628002 -0.01529903 0.07237516 -0.08180389 -0.14817356

bias f4 [10]
00000000: ac55 18bd 6ed2 cabc 3375 c53c dd99 6abc
00000010: 6b13 533d 2fc7 973d 5d76 f73d c07a fe3c
00000020: c3a2 1d3d aa02 c9bd
-0.037191078 -0.024758544 0.024103737 -0.01431891 0.05153219 0.07411038 0.12083123 0.031064391
0.0384853 -0.09814961
