tudui_4.pth (torch, 587967 bytes, 10 tensors)

weight f4 [32, 3, 5, 5]
000000 cb 94 c2 3c bb 4e b2 3d a2 27 47 3d 74 9f a5 bd
       0.02375259 0.08706423 0.04862178 -0.08087054
000010 cf e5 72 3d cf 50 c0 3c 5d 5c 0e 3e 3e 2a ad 3d
       0.059301194 0.023476033 0.13902421 0.08455323
000020 bf 99 2f 3c 27 4b c9 3c 7a 4f fc 3d ab 6d 28 3d
       0.010717808 0.024571968 0.123198465 0.041120213
000030 87 b2 24 3e f4 be 07 3d bc af 17 3d 8e a9 8a 3b
       0.16083728 0.03314109 0.037032828 0.0042316383
000040 55 3f 83 3d d0 13 37 3d ae 43 5a bc 50 f0 fd 3d
       0.06408564 0.04469663 -0.0133218 0.123993516
000050 8e 1b 9e bb eb 17 f8 3d 30 c1 11 bd 1f 12 40 bd
       -0.004825062 0.12113937 -0.03558463 -0.04689228
000060 8f ee 41 3d 3e 5c 0e bc bf 85 51 bd ff 1e a0 3d
       0.047346648 -0.008688984 -0.05115294 0.07818412
000070 15 d8 93 3d 0c 53 fa bd fa 02 3e 3d a2 ae c8 bc
       0.07218949 -0.12222871 0.046389557 -0.024497334
000080 bb aa b5 3d 29 63 dd bd 47 8b 9d bd 5b 91 39 bc
       0.08870455 -0.10809929 -0.07692581 -0.011326159
000090 ad 30 7a 3d 9e c4 70 ba bf cf 73 3c 64 aa e1 bc
       0.061081577 -0.00091845717 0.0148810735 -0.027547069
0000a0 36 5a 83 bd 6e d0 46 bd e5 74 fb bd 70 a2 5a 3d
       -0.06413691 -0.048538618 -0.12278155 0.05337757
0000b0 98 ea 54 bd 93 b1 d9 bd 91 0c b1 bc 18 4f e8 bd
       -0.05198154 -0.10629573 -0.021612437 -0.11343211
0000c0 01 0d fe bd f8 4b 37 3d e0 5a 40 bd b4 03 e4 3b
       -0.12404824 0.044750184 -0.046961665 0.0069584493
0000d0 4b bd b6 bd ce e8 cd bd be 95 23 3d cb d3 da bd
       -0.089228235 -0.100541696 0.039937727 -0.106849276
0000e0 b3 1d 1a 3d b9 13 3a 3d e9 39 40 bd d8 b8 00 be
       0.03762598 0.045428965 -0.046930227 -0.12570512
0000f0 d6 86 35 bd 4f f9 ea bc c7 fa c7 3d 02 21 a8 3d
       -0.044318043 -0.028683333 0.09764629 0.08209421
000100 b7 d9 60 3c 78 0d 5f 3d 38 26 24 bc a3 74 3c 39
       0.013723782 0.054456204 -0.010018878 0.00017972528
000110 b4 38 55 3d 3a ed bd bd cd 7d fd bd c2 79 c0 3d
       0.05205603 -0.09273763 -0.1237751 0.093982235
000120 f6 ea 02 be 9f 7b 16 be 81 53 a5 bd 33 13 9d 3d
       -0.12784943 -0.14695595 -0.08072568 0.076696776
000130 2e fc 68 3d e9 54 f4 3d 7e ee 3b bc 31 b2 a6 3c
       0.056881122 0.11930258 -0.011470435 0.02034864
000140 53 97 5f 3d c9 2d 0d bd 20 81 80 bd eb 7a 92 bd
       0.054587673 -0.034467492 -0.06274629 -0.07152351
000150 fb 97 66 3d c7 4e 89 bc a2 b7 ef bd bb 91 b6 3c
       0.056297284 -0.016761197 -0.11704947 0.022286287
000160 8d 8b ff bd c7 03 be bd ba c8 ef bd fc 09 b2 bd
       -0.12477789 -0.09278064 -0.117082074 -0.086933106
000170 4f c6 2e bd e6 4a 4a ba 28 79 91 bd 93 46 cc bd
       -0.04266959 -0.0007716849 -0.07103187 -0.099743985
000180 ce 9b 54 bd d3 d8 0e 3d c7 ee 7c 3d 07 85 74 bc
       -0.0519064 0.03487475 0.061751153 -0.014924294
000190 8c e8 82 bd 71 bd 90 bd 8a 39 a4 bd 34 61 c8 3d
       -0.06392011 -0.07067383 -0.08018787 0.09784165
0001a0 f7 db 07 bb 2b 9d 8a 3d cf be 8e bd f8 50 e2 3c
       -0.0020730474 0.06768259 -0.069699876 0.0276265
0001b0 fb ec 0c bd 8d 2f ef 3c 37 7c 80 bd 2c 58 e4 bd
       -0.03440569 0.029197479 -0.06273692 -0.1114963
0001c0 75 2c 08 be ac 9c 0e bd 77 6c a2 3d 9b 26 39 be
       -0.13298209 -0.034817383 0.07930844 -0.18081133
0001d0 ea 39 39 be 86 78 b9 bd 2a 83 36 bd 4a 86 b1 3c
       -0.18088499 -0.09056191 -0.04455868 0.02167048
0001e0 1c d7 96 bd c2 bc 93 bd a9 05 81 3d c6 cd 65 bd
       -0.073652476 -0.07213737 0.06299908 -0.056104444
0001f0 38 73 93 3c f2 b6 61 3d 0e 77 fb 3d ba 88 85 bd
       0.017999277 0.05510611 0.12278567 -0.06520219
000200 27 e9 1a bd 01 ed 14 3e 09 c4 18 3d 55 ee d2 bd
       -0.037820008 0.14543535 0.03729633 -0.102993645
000210 9a 77 b6 3d e5 f8 e6 bb 0f be 46 bd 74 b5 b5 bd
       0.08909531 -0.0070487135 -0.048521098 -0.088725
000220 2b 12 06 3d 83 9d c2 3d 29 6f e9 3d eb 68 c8 bc
       0.03273217 0.09502699 0.11398155 -0.024464091
000230 37 3e fc bd 3c b6 11 be 7a 27 a7 bd 47 a2 93 3d
       -0.12316554 -0.14229673 -0.081618264 0.07208686
000240 f2 a5 6c bc df d5 fd bb e9 1f 5a 3d 99 fc 77 bd
       -0.014443861 -0.0077464427 0.05325309 -0.06054363
000250 af 8e 82 3d 79 85 0a 3c e4 13 84 3c d0 ed c5 bc
       0.06374871 0.008454674 0.016122766 -0.02416125
000260 75 10 a5 3d 34 e7 d3 3d 07 aa ae bd 56 ed ef 3d
       0.080597796 0.10346833 -0.08528524 0.1171519
000270 1c 87 7f 3d f2 cf cf 3d 50 46 83 bd 4c be a4 3c
       0.06238471 0.10147084 -0.064098954 0.020110272
000280 16 91 74 bd 46 04 b1 bd 1b aa 1e 3e 12 60 37 bd
       -0.059708677 -0.08643393 0.15494578 -0.044769354
000290 ed 3b 96 3c e5 b1 da bd c6 c4 ac 3b fa 2b c9 3d
       0.018339122 -0.10678462 0.0052724807 0.09822841
0002a0 e9 83 0a be ea 18 89 3d 9e f8 8a 3c 75 e4 6d 3c
       -0.13526882 0.06694205 0.016964253 0.0145198
0002b0 4e ae 82 3c 29 32 db bd 06 0a 07 bc c3 71 b1 bb
       0.015952256 -0.10702927 -0.008242136 -0.005415173
0002c0 59 1f ab 3b 9c 86 2d 3d 64 71 a5 bd 57 54 de bd
       0.005222243 0.0423647 -0.08078268 -0.1085593
0002d0 7e e8 f2 3d 74 21 17 bc 05 ec 12 3e ad 3e b2 3d
       0.118607506 -0.009224284 0.14347847 0.08703361
0002e0 1a da 38 3d c2 f0 37 3c ac ac 66 bd 8c e3 c1 3d
       0.045129873 0.011226835 -0.056317016 0.09467229
0002f0 8e 91 9f 3b 18 67 b7 bd e3 a1 73 3d 84 0c 67 3c
       0.0048696464 -0.089552104 0.05948056 0.014102105
000300 9a 40 3e bd 0c dd 3b bd 42 b4 4c 3c 35 4e ff bc
       -0.046448328 -0.045865104 0.012494149 -0.031165222
000310 94 54 3a 3d ea 73 a6 bd 2d ad fc bc 22 ae e7 bd
       0.045490816 -0.081275776 -0.030844295 -0.1131251
000320 0f 24 af 3c 14 30 9e 3a ac dc 38 bc 97 1a e0 bd
       0.021379499 0.0012068772 -0.011283081 -0.109425716
000330 35 ae 3f 3d 6b fe cb bd de 27 8d bb f7 32 c1 3d
       0.046796996 -0.09960636 -0.004307731 0.09433549
000340 4e 48 44 3d 29 2f b0 bd e8 3a 17 3d 9e ae 91 3d
       0.047920518 -0.08602745 0.03692141 0.07113384
000350 a1 e3 94 3d 5b b7 a9 3b 3d e2 82 3d a2 7e 0b be
       0.07269979 0.0051793284 0.06390808 -0.13622525
000360 de 00 6d bd 0b d1 ac bb e3 d2 ba bd 8b 28 57 3d
       -0.057862155 -0.0052739433 -0.09122255 0.0525289
000370 a3 20 36 bd ba c0 a0 bd 45 20 4c 3b 5c f2 60 bd
       -0.04446472 -0.0784926 0.0031147164 -0.054918632
000380 1f 0f 0e be 1c d4 1d bd 6f ab d9 bd c8 76 96 3c
       -0.13872956 -0.03853236 -0.106284015 0.018367186
000390 71 32 f0 bd e0 89 2c 3d 00 b6 5d 3d e3 d6 ad bc
       -0.11728371 0.042123675 0.054128647 -0.02122063
0003a0 65 24 3e 3c eb 75 88 3d e4 2b 43 bd dd ee 78 bd
       0.011605357 0.06663116 -0.04764928 -0.060774673
0003b0 87 d3 c1 bd 57 5c 47 bc 52 1d ac 3d 91 e1 ca bd
       -0.09464174 -0.012168012 0.0840403 -0.09906305
0003c0 e2 e5 0a be 7a b2 0e be 34 4e 89 bc 39 db 10 be
       -0.13564256 -0.13935271 -0.016760923 -0.14146127
0003d0 19 50 f1 bd 46 d3 c0 bb 36 11 e0 bd 22 65 eb bd
       -0.117828555 -0.0058845608 -0.10940783 -0.11493899
0003e0 c6 40 cd bd 6a 13 e9 3c 19 5e 5a bd ce c5 1c 3d
       -0.1002212 0.02845164 -0.053312395 0.03827458
0003f0 35 7e 32 3d a5 92 02 3d f0 1c c2 3d 52 80 06 3b
       0.04357739 0.031878132 0.09478176 0.0020523262

bias f4 [32]
000000 08 b8 20 be 62 1a 67 3e d7 49 cf 3d 89 f3 ca bd
       -0.15695202 0.22568658 0.10121506 -0.09909732
000010 53 bb 34 bc b4 b1 a2 bd 34 23 b7 bd 3e d7 6a 3c
       -0.01103099 -0.079440504 -0.08942261 0.014333544
000020 a5 df 49 be 73 cf 39 3d c8 ae aa 3e fd 90 a2 3c
       -0.1971422 0.045363855 0.33336473 0.019844526
000030 84 f0 28 3e e9 32 09 be 83 84 39 bd bb 36 3b 3e
       0.16498 -0.13398327 -0.04529239 0.18282597
000040 4e ab e3 bd 92 b3 16 bd e3 1e 3a be 6d 49 29 be
       -0.11116658 -0.036792345 -0.18175845 -0.16531916
000050 c2 91 2d 3e ca 21 06 be 52 cc c0 3d 12 ad fe bd
       0.16950133 -0.13098827 0.09413971 -0.12435354
000060 69 68 34 be b2 cd e4 3d fb e2 f2 bd e2 53 de 3d
       -0.17617954 0.11172046 -0.11859699 0.10855843
000070 0f 42 40 be 3e b9 1f 3e ef 12 88 be a1 5c dd bd
       -0.187752 0.15598008 -0.26576945 -0.10808683

weight f4 [32, 32, 5, 5]
000000 9d 84 82 bc 2c 77 ae 3b 93 6e 8c bc d5 7d ba bb
       -0.015932376 0.005324265 -0.01714257 -0.00569127
000010 88 09 c2 3c f8 bb 05 3d 0d b7 91 3c 08 19 e5 bc
       0.023686185 0.032649964 0.01778748 -0.027966037
000020 a2 c2 c4 3c 01 84 05 3d 47 da 6d bc 7d 2a bb bc
       0.02401859 0.03259659 -0.014517373 -0.022847408
000030 ad 5d c5 3c 11 33 9e bc d1 4d 89 bc 75 e8 25 3d
       0.02409252 -0.01931146 -0.016760739 0.04050489
000040 96 a0 17 3b 1c 2f d4 3b 56 68 4e 3d 75 ca de 3c
       0.0023136488 0.0064753424 0.05039247 0.027196148
000050 14 97 db 38 91 7f b9 3c a5 73 10 3d d9 e7 32 3b
       0.00010470874 0.022643836 0.035266537 0.0027298837
000060 2e c9 63 3c 3d 42 e1 3c 80 00 19 3d 6c b4 c0 3c
       0.013902945 0.027497405 0.037353992 0.023523532
000070 09 44 1b 3d 54 e8 d9 3c 08 bb b2 3c e9 4d a5 bc
       0.03790668 0.02660004 0.0218177 -0.020178752
000080 38 82 8d 3c f2 df 38 bd 12 83 df bc ca 39 8b 3c
       0.017274007 -0.045135446 -0.027284179 0.01699533
000090 7b 17 f4 bc 7d 1c 5b bd 87 7c c9 bc e5 64 cb 3a
       -0.029796353 -0.053493965 -0.024595512 0.001551774
0000a0 d7 6d 5d 3c fe 5d ee 3c c6 17 2c 3c 58 fe 0a 3d
       0.013514957 0.029097553 0.010503715 0.033933967
0000b0 3a 04 e1 bb 97 da 0a 3a 32 d2 12 3c 4e 97 3b 3d
       -0.006866959 0.00052968547 0.008961247 0.045798592
0000c0 76 c5 67 3d 29 3b 48 3d 4c 5e 95 bc 1a 30 8f 3b
       0.056584798 0.048884545 -0.01823344 0.004369748
0000d0 57 55 26 3c 95 d5 4e 3a 38 0b 04 bc 18 20 06 bd
       0.010152183 0.00078901026 -0.008059315 -0.03274545
0000e0 fc 6b ac 3b 0c b0 b2 bc f4 df 87 bc 76 5e af 3c
       0.005261896 -0.021812461 -0.016586281 0.021407347
0000f0 4e 8e 05 3d 47 18 02 3d bc 6a ab bc 08 c1 88 3c
       0.032606415 0.031761434 -0.020924918 0.016693607
000100 ab a4 15 bc fa 71 a9 3c 60 fe 23 3d 82 85 ef bb
       -0.009133498 0.020684231 0.040037513 -0.0073096165
000110 0d 7f 6a bc 2b ae a6 3c b8 d8 ae 38 b0 24 d0 3c
       -0.014312518 0.020346722 8.3373336e-05 0.025408119
000120 12 e8 14 bb 94 23 48 3c 8e 4b c4 bb 15 3e dd 3c
       -0.0022721332 0.012215514 -0.005990452 0.027007142
000130 b2 cd 5c 3d 5c f9 3d 3c 16 12 93 bc 04 ad 0e 3d
       0.053907104 0.011595096 -0.01795296 0.03483297
000140 5c 41 60 3d 6b d5 9f 3c 16 e2 90 bc 17 62 07 3d
       0.05474983 0.019510945 -0.017685931 0.03305253
000150 78 26 e2 3c 66 80 20 bb f6 d2 5c 3d 69 63 28 bc
       0.027606234 -0.0024490594 0.053912126 -0.0102776075
000160 57 6d c2 3c c1 06 05 3d 39 14 68 3d 20 32 70 3d
       0.023733778 0.032477144 0.05665991 0.058641553
000170 9a a1 b2 3c aa 10 92 bb 0c b3 38 bc 83 eb 1a bc
       0.021805573 -0.004457553 -0.011273157 -0.009455564
000180 2f 12 5a 3d 13 9b 08 bc 70 66 57 3d 98 b1 16 bc
       0.053239997 -0.008337754 0.052587926 -0.009197615
000190 ae ba 61 bc a3 2d d4 3b 92 d8 50 3d 0a f7 4b 3d
       -0.013777418 0.006475167 0.050987788 0.04979614
0001a0 af 47 9d ba 3e 9a 04 3d 71 31 0f 3c 22 86 43 3d
       -0.0011999513 0.03237366 0.008739815 0.04773534
0001b0 c6 63 8f 3c 7a e6 24 3d 6e 40 b2 bc 25 43 84 bb
       0.01750363 0.040258862 -0.021759238 -0.0040363246
0001c0 c7 0d 2a 3b 73 c1 54 3c 80 a5 26 bc b2 c2 01 3d
       0.0025948153 0.012985575 -0.010171294 0.031679817
0001d0 e4 ab 7c bc 95 39 d9 3b 2a 25 45 3c 73 77 9c ba
       -0.015421841 0.0066291788 0.012032786 -0.0011937454
0001e0 16 98 a4 3c 92 ce e4 3c dd 72 87 ba 33 e0 f1 bc
       0.020092051 0.027930532 -0.0010333915 -0.029525852
0001f0 57 c2 c0 bc 40 86 8e bb a1 82 a9 3b a3 f3 8d 3c
       -0.023530168 -0.0043495 0.005173043 0.01732809
000200 a6 fe bc bc 70 66 1a 3c 8f df ad bc 87 a5 be 3c
       -0.023070645 0.009423837 -0.021224765 0.023272289
000210 3c 6f 46 3d eb d7 01 3c 18 46 c9 3c 96 48 62 3b
       0.048445925 0.007925014 0.024569556 0.0034528128
000220 81 46 32 3d 1c 5c a6 3c a1 ef fc 3b ec 94 c7 bb
       0.04352427 0.020307593 0.0077189957 -0.006090751
000230 84 85 e1 3c 38 88 fd 3c c9 be 9e 3c b0 dd c8 3c
       0.027529486 0.030948743 0.019378083 0.024519771
000240 9d a7 a0 bc 90 99 99 3c de 86 1d bd 74 35 a4 bb
       -0.019611174 0.018749982 -0.038458697 -0.005011255
000250 47 d5 14 bd 6b 42 17 bd 2b 1d 36 3c 21 c8 a5 bc
       -0.03633621 -0.036928575 0.011115353 -0.02023703
000260 5a 61 15 3d 0b e6 0d 3d b3 1e d4 3c 86 89 e9 bb
       0.036469795 0.034643214 0.025893545 -0.00712699
000270 48 65 19 3d a7 41 ee 3c 14 cf b2 3c b6 79 3f 3d
       0.037450105 0.02908404 0.021827258 0.046746932
000280 02 1b dd 3b 66 05 0f 3d e5 7a 34 3c 24 c6 34 3d
       0.0067476043 0.034917258 0.011015628 0.044134274
000290 ee ca 12 3d ee 29 96 3b 2f 8e 90 3c 68 0a 84 3b
       0.03583806 0.004582635 0.017645923 0.004029561
0002a0 00 e9 54 bc 89 07 6f bc 9f 73 2c 3d 25 ae 96 bb
       -0.012995005 -0.014589199 0.042102452 -0.0045983964
0002b0 58 6a 0b 3d 0e 2b 4b 3c fb bc 58 ba d6 44 9f bc
       0.034036964 0.012400402 -0.00082679064 -0.019442003
0002c0 07 ae 72 bc 20 94 56 bb 7e 74 8d 3c ca b2 be bc
       -0.014811999 -0.0032742098 0.017267462 -0.023278613
0002d0 f0 6b 2b 3d 14 6b a8 3c e0 63 90 bc 21 0b e1 bb
       0.041850984 0.020558871 -0.01762575 -0.0068677817
0002e0 c5 75 a9 bc c9 d1 9b 3c 97 b3 d6 b8 c6 36 1e 3d
       -0.02068604 0.019020932 -0.000102377664 0.038626455
0002f0 38 9d 20 3d 6d c3 20 ba 28 d0 33 3d a6 f2 3a 3d
       0.039212435 -0.00061326363 0.043899685 0.045641564
000300 a8 64 9d 3c 8b c2 e4 3c ef 18 6c bc 89 5d 36 bc
       0.019213036 0.027924797 -0.0144102415 -0.011130699
000310 39 6b 39 3d f4 54 2c 3d 86 76 13 3d fe 5d b7 3c
       0.04526827 0.042073205 0.036001705 0.022383686
000320 f4 71 ff 3c e2 06 90 3c 50 83 17 3d e3 50 ae bc
       0.031182267 0.017581407 0.036990464 -0.021278804
000330 d6 74 6b 3a 21 c2 87 bc 1e 28 8e 3c 20 4b f6 3b
       0.00089819485 -0.01657206 0.017353114 0.00751628
000340 04 a0 ce 3c 22 6c c6 38 53 80 41 3d d6 69 bf 3c
       0.025222786 9.461517e-05 0.04724152 0.023365896
000350 da c1 d7 3c bf 12 92 3c 00 3b a5 bc a1 33 c9 bc
       0.026337553 0.017831204 -0.020169735 -0.024560751
000360 d5 8c c6 bc d7 57 a7 3c 13 f0 2a ba a2 60 37 bc
       -0.024237076 0.020427627 -0.0006520759 -0.011192473
000370 14 4e 02 3d bc e6 1e 3d bb 12 0c 3d 79 30 8e bc
       0.031812742 0.038794264 0.03419755 -0.017357098
000380 93 55 7a bc 50 b3 42 bb 8a e4 dc ba be a8 33 bc
       -0.015279192 -0.002970893 -0.0016852778 -0.010965524
000390 71 ae 2d bd 3f 1a 32 bd b9 5b 5a bc 90 66 b8 3b
       -0.04240269 -0.04348206 -0.013327532 0.005627461
0003a0 e6 8e db 3b 99 c1 9b bb ad 59 b1 bb 94 01 f0 bc
       0.0067003844 -0.0047533032 -0.0054123015 -0.029297628
0003b0 9b 9f 6b bc c8 d7 28 bc 45 42 35 bc e2 bd ad bc
       -0.014381315 -0.0103053525 -0.011063163 -0.021208707
0003c0 9b cf 1c 3d 52 0d 76 3c 84 fa 54 3c 60 63 ee 3c
       0.038283926 0.015017824 0.012999181 0.02910012
0003d0 ed 71 bb 3c b8 af fc 3b d3 f6 28 3d 2c e7 04 bc
       0.022881472 0.007711377 0.041251015 -0.008111756
0003e0 ad 28 87 bc 0b 8f 61 3c fe ba c7 bc 21 51 8c bc
       -0.016498888 0.013767014 -0.024381157 -0.017128529
0003f0 a9 05 c3 bc 49 59 8f bc bb 77 ec bc 63 c0 a2 bc
       -0.02380641 -0.01749863 -0.028865686 -0.019867128

bias f4 [32]
000000 83 d6 54 bd e4 fe e5 3c 02 ec 8c 3c bd 20 87 bc
       -0.051962387 0.028075643 0.017202381 -0.016495103
000010 b4 ba 99 bb f1 8b cf bd da cd 3e bc e7 16 88 bd
       -0.004691446 -0.101341136 -0.0116457585 -0.06644993
000020 7f 8d fe bc 1e ea 0c bd 56 20 dc 3c ec ba 2e bd
       -0.03107333 -0.03440296 0.026870888 -0.04265873
000030 ca 91 0b bd 4e 22 01 3d 94 14 97 bd 11 4a 38 3d
       -0.034074582 0.031526856 -0.07376972 0.04499251
000040 7f 1d 06 bc 77 1d cb bd 4d 2e 80 bd 53 c6 74 3c
       -0.008185743 -0.09917729 -0.06258831 0.014939862
000050 04 48 2b 3c 2b 7c 2f 3d 0b 6b fc 3c 22 e1 2d 3d
       0.010454182 0.042843025 0.03081276 0.04245103
000060 da 90 e2 bd d3 e7 16 3d 62 c2 82 3d f8 ca 39 3c
       -0.110627845 0.03684218 0.06384732 0.011339895
000070 cc b1 5d bc b0 a7 91 3c 79 98 23 bd 91 9c d1 bc
       -0.01353116 0.017780155 -0.03994033 -0.025587352

weight f4 [64, 32, 5, 5]
000000 fe e1 aa ba 6a 19 e0 3c 27 7d bf bb 08 59 ea 3c
       -0.0013037322 0.027355868 -0.0058437767 0.028606907
000010 09 b3 1b bc 43 51 15 bd 78 f6 07 bd e6 f7 7f bc
       -0.0095031345 -0.03645445 -0.033194035 -0.015623068
000020 ae db 8b bc 12 a9 64 3c aa 18 31 3c e4 db 16 bd
       -0.017072525 0.013956325 0.010809103 -0.036830798
000030 d1 66 d0 3c 63 c9 cf 3b 53 5b 85 3c 8f be 05 bd
       0.025439652 0.006341146 0.016278898 -0.032652434
000040 57 7e bd 3c 08 d6 30 3c e7 03 ef 3c 16 aa 0d bc
       0.023131533 0.0107932165 0.029176665 -0.008646509
000050 33 1f 57 bc 74 21 47 3c 3d ab 7b bc 27 59 04 bd
       -0.013129997 0.012153972 -0.015360651 -0.032311585
000060 3e b6 ac 3c 44 ea ab bc ea cd 65 3b 65 b7 56 3c
       0.021082994 -0.02098573 0.0035065361 0.013105248
000070 de ea 20 3c 19 b2 63 bc 52 7d 5f bb 58 c2 78 bc
       0.009821622 -0.013897442 -0.0034101796 -0.015183054
000080 db fd 62 3c 41 fa fa 3c 46 c1 b9 3c 6e 62 df bb
       0.013854469 0.030636908 0.022675168 -0.0068171537
000090 e7 da a7 bc 3a 4e 2a bc 23 5b 8f bc 28 35 10 bc
       -0.020490123 -0.010394627 -0.017499512 -0.008801736
0000a0 2f f5 b6 ba 7d 53 3d bb d1 89 0f bd c2 b0 c2 3c
       -0.0013958568 -0.0028888874 -0.03504354 0.023765925
0000b0 f4 ab 23 bc 58 a6 82 3b a4 9b 90 bc 30 67 77 bc
       -0.009989727 0.003987115 -0.01765234 -0.015100285
0000c0 44 62 02 bd 87 06 d3 bc cc 62 c0 3b 6a 71 fd bc
       -0.031831995 -0.025759948 0.0058711525 -0.03093787
0000d0 d4 3c f5 3c a3 ac bc bc 9e b7 ef 3c 70 7a 15 3d
       0.029936232 -0.023031538 0.02926236 0.03649372
0000e0 e5 95 d5 3c 88 08 26 bc 93 2d 8e 3c 86 d4 1c 3d
       0.026072452 -0.01013387 0.017355716 0.038288616
0000f0 74 c2 11 3d 90 d4 c2 3c b3 84 45 3d 07 c0 9a bc
       0.035585836 0.023782998 0.048222255 -0.018890394
000100 df e3 9a b9 a7 f1 c1 3b 60 a2 1b 3d bf 15 5b 39
       -0.00029542946 0.0059187 0.03799665 0.00020893569
000110 cf 8f 55 bb 88 19 05 bd d5 b1 b9 3c 02 3b 31 bc
       -0.0032586937 -0.03249505 0.022667805 -0.010817291
000120 87 8c e1 3c b6 db bb 3c 0f 3d 38 bb f5 36 1b bc
       0.027532829 0.022931915 -0.0028112566 -0.009473552
000130 30 4c 80 bb b4 03 ab 3c bf c9 67 bc bd 2d 1a 3d
       -0.0039153323 0.02087579 -0.014147221 0.037641276
000140 ed 42 b4 ba 0f 7a b8 3b d5 27 ec 3b 15 cc f3 3b
       -0.0013752856 0.005629785 0.007206897 0.0074401
000150 66 03 da 3a e2 cf d9 3b f1 fb 5c bc c6 43 06 3d
       0.0016633093 0.006647096 -0.013487802 0.032779478
000160 90 b6 68 bc 7d 10 26 3b 4e 99 f2 3c f1 d7 16 3c
       -0.014203683 0.0025339418 0.029614117 0.009206758
000170 e5 5b 03 3c ac b6 51 bc c6 35 ad bc f9 6a a1 3c
       0.008017515 -0.0127999 -0.021143805 0.019704329
000180 70 aa 18 3c 30 46 55 bc f6 43 e0 bc cf 5b a0 3a
       0.009317979 -0.013017222 -0.027376156 0.0012234392
000190 ba f3 d2 39 ab a4 65 3b 4a 16 d1 3b b7 16 cf 3c
       0.00040235912 0.0035040777 0.006380831 0.025279386
0001a0 e1 16 73 3c 61 e7 07 bd 43 49 ec 3c 8d 9c 34 3c
       0.014836998 -0.033179644 0.028843528 0.011023653
0001b0 4d 5e 12 bd 86 3b f2 bc d7 6f c4 3c 38 89 a8 bc
       -0.035734463 -0.029569399 0.02397911 -0.020573243
0001c0 05 69 c0 ba 99 81 d2 bc f2 5e b3 3c 6b 55 a0 bc
       -0.0014679736 -0.025696563 0.02189586 -0.01957198
0001d0 3b ce eb bc 9e be 01 bd de 9f 34 bc 89 b7 1a bd
       -0.028784862 -0.031675927 -0.011024443 -0.03777269
0001e0 74 9a f6 bc 91 9f a0 3c 02 b5 c0 3b 79 5b 0b bb
       -0.030102946 0.019607337 0.005880953 -0.0021264239
0001f0 a4 b6 4d bc 56 65 ab bc 92 39 8b 3c a2 7c e4 3c
       -0.012555752 -0.020922344 0.016995225 0.02789146
000200 3a 4c a8 3b 0f bd 29 3d 42 ba 22 3c eb 95 98 bb
       0.00513604 0.041440066 0.009932103 -0.0046565435
000210 5e e3 c8 bc 5e 87 f3 bc bf 75 cf 3c 67 bc 97 3c
       -0.02452248 -0.029727634 0.0253247 0.018522454
000220 a6 b5 91 3c 29 60 1c 3c ba 79 3b 3d 72 71 cf 3a
       0.017786812 0.009544411 0.045770384 0.0015826656
000230 fb fa a3 3c 97 a8 10 3d c2 27 cd 3c 93 f3 dd 3c
       0.020017138 0.03531703 0.025043372 0.027093684
000240 67 9d 06 bc bb b8 be bb c0 c1 0d bd 18 81 e3 bc
       -0.008216239 -0.0058203614 -0.034608603 -0.027771518
000250 42 a0 f9 bc 5b 8f 1b bd 6b c1 01 bd d6 95 a8 bc
       -0.030471925 -0.03797851 -0.0316786 -0.02057926
000260 29 c4 57 bc 48 20 10 bc 64 6e a4 3c 7d d9 96 bc
       -0.013169327 -0.008796759 0.02007217 -0.018414253
000270 6e 79 a9 bc 5f 0c 90 3c 1c ca a8 3c 08 a5 fa 3c
       -0.020687785 0.017584024 0.020604186 0.030596271
000280 7d b3 95 3c 44 1f 17 3d f4 d5 8e 3b c1 e5 07 3b
       0.018274063 0.03689505 0.0043590013 0.002073631
000290 ab 99 94 3c 90 71 96 bc e8 4e 69 bc 6f 29 39 3c
       0.01813968 -0.018364698 -0.014240004 0.011301382
0002a0 f2 d5 93 bc a4 e2 86 3c 72 ce b3 3c e2 57 88 3c
       -0.018046353 0.016465493 0.021949027 0.016643468
0002b0 0e c5 34 bc 32 64 d5 3c c9 ea bf bc 96 fa 8c 3c
       -0.01103331 0.026048753 -0.023427384 0.017209332
0002c0 2c 49 aa bb 82 8e 24 3c 88 b8 17 bc c7 22 d1 bb
       -0.005196711 0.010043742 -0.009260304 -0.0063823196
0002d0 10 ca 74 3a 9d c6 16 3d 54 9d b3 38 16 58 90 bc
       0.0009337971 0.036810506 8.56469e-05 -0.017620128
0002e0 1c 05 18 3d c3 1d a1 3b ad da 96 ba 7c ee 04 bd
       0.037114248 0.004916878 -0.0011509262 -0.032454
0002f0 34 6e aa 3c ea 00 27 bd 62 64 57 bc af cd 81 3a
       0.020804502 -0.040772356 -0.013146492 0.0009903217
000300 33 9c 17 3c 73 42 50 3c 52 57 5c bb ac af 61 3c
       0.009253549 0.012711155 -0.0033621383 0.013774794
000310 2a d0 2d bc 59 06 4a 3c e8 59 22 bc 69 7b c8 3c
       -0.010608712 0.012330615 -0.009909131 0.024472909
000320 99 fc d1 3c 3a 71 5a bc 2b 06 a8 3c 1d 3e 8a 3b
       0.025633143 -0.013332659 0.020510754 0.0042188303
000330 43 42 14 3d 66 e6 83 bb 40 25 16 bb cc 05 b1 bc
       0.036196005 -0.0040252684 -0.0022910386 -0.02160921
000340 f7 46 20 3d 20 8c a3 bc 47 7c 07 3d 00 9c 41 3c
       0.039130177 -0.019964278 0.033077504 0.011816978
000350 31 6b 58 bb f8 f8 87 bb 95 04 d6 3c 1b 51 16 3c
       -0.0033022875 -0.0041495524 0.026125232 0.0091746105
000360 67 ea 09 3d 09 0a b0 bb e1 c3 ab 3c 40 d4 ee bc
       0.03367081 -0.00537229 0.020967426 -0.029153943
000370 ae 09 81 bb 6d bb 14 3d 1a 43 0d bd 25 d0 d7 bc
       -0.0039379215 0.036311556 -0.03448782 -0.026344368
000380 47 b5 2d 3c 94 a1 06 bd 7d e3 91 3c 7f 00 c7 3c
       0.010602302 -0.032868937 0.01780867 0.024292229
000390 8c ac ac 3c dc c9 1d 3d 31 28 bb 3c 2e b0 13 bd
       0.02107837 0.038522586 0.022846313 -0.03605669
0003a0 ed 40 dc 3c 2f 02 6c bc 2c 06 9f 3c 80 40 44 3c
       0.026886428 -0.0144048175 0.019412123 0.011978269
0003b0 58 09 10 bd 02 c8 46 3c 77 a6 06 bd 8c df 19 bc
       -0.03516516 0.0121326465 -0.032873597 -0.009391677
0003c0 d8 88 51 bb e5 14 b8 3a 63 11 d4 3c e2 cc 00 3c
       -0.0031972434 0.0014044313 0.025887197 0.007861348
0003d0 79 66 06 bd 90 7e dc bb 46 ff d1 bc 9e 0a a9 bc
       -0.03281257 -0.0067289546 -0.02563442 -0.020634945
0003e0 df 7b ca bb e9 0a 24 bc 0b 09 01 3d 4d ed 38 bc
       -0.0061793174 -0.010012367 0.031502765 -0.011287046
0003f0 41 49 9d bc 2b 7a e1 3c 67 94 d0 3c ce 17 cb 3c
       -0.01919997 0.027524075 0.025461389 0.024791624

bias f4 [64]
000000 fd 1d 43 bc 6b 6e 0d bb 24 aa 52 bd 04 83 1a bd
       -0.011909005 -0.0021580707 -0.05143179 -0.037722602
000010 51 d4 52 bc 3e e4 19 3c 2b 3a 06 3d 8f c9 18 bd
       -0.012868003 0.009392796 0.032770317 -0.037301596
000020 d2 1f 48 3d ca a6 ac 3b 8e 38 1b bd 09 00 73 bc
       0.04885847 0.0052689062 -0.03789573 -0.014831551
000030 3a 4e bc bc af 04 90 3c 0f 02 59 bd 99 79 1a ba
       -0.02298652 0.017580358 -0.05298048 -0.0005892753
000040 22 28 96 3c c9 7e 1b 3d ec 3b b1 bc 32 c6 26 bb
       0.018329684 0.03796271 -0.021635018 -0.0025447723
000050 20 2e 54 3d d7 45 10 bd 52 0d 24 bd 86 49 f1 bc
       0.0518018 -0.035222854 -0.040051766 -0.029454004
000060 2a 51 82 3c 07 4b 68 bd 26 18 2c bd 50 c3 b4 bc
       0.015907843 -0.056712177 -0.042015217 -0.022065789
000070 14 0e 56 bc e3 b0 da bb 4a 14 0d bd 73 27 0c 3d
       -0.01306488 -0.0066739186 -0.034443177 0.03421731
000080 b3 63 9c bd ea 99 32 3c 6b 5b 03 bd 9b 3e fd bb
       -0.076362036 0.010900954 -0.032069605 -0.0077284104
000090 23 01 71 3c a8 2d d9 3c b6 5a dc 3b 6c 2a 55 3b
       0.014709744 0.026511028 0.006724681 0.0032526506
0000a0 f5 94 9a 3c bb 78 d5 3b 41 4d c4 bc da 04 e8 bb
       0.018869856 0.0065146363 -0.023962619 -0.0070806565
0000b0 69 5f 82 3c 66 7b 01 3d ce 59 61 bd d8 b8 e4 bc
       0.015914636 0.031611823 -0.055017285 -0.027920172
0000c0 42 e8 2d bd c1 75 cf 3b a3 27 22 3a 59 54 0a bd
       -0.042457826 0.006331176 0.0006185716 -0.033771846
0000d0 65 48 3f bd 50 71 61 bd 9b 09 31 3c f5 02 06 bb
       -0.0466999 -0.055039704 0.010805513 -0.002044854
0000e0 07 46 c6 3b ca 74 ce bc 1c 14 9b bc 54 31 01 bd
       0.0060508284 -0.025202174 -0.018930487 -0.031541184
0000f0 d8 2c 23 bc c9 70 34 bc 89 5f b6 3b 35 2e 7d bd
       -0.009959422 -0.011013218 0.005565588 -0.061811645

weight f4 [64, 1024]
000000 e4 97 04 bd 3a 02 58 3c 72 83 cd 3c 85 d4 7b bc
       -0.032371417 0.013184125 0.025087092 -0.015370493
000010 a2 3a 5f bc d3 3f 9b 3b 92 01 f4 bb 5f f3 85 3c
       -0.013624819 0.004737833 -0.0074464763 0.0163514
000020 9e 9d d6 3b 0f af bc bc e8 95 03 3c ac 87 02 3c
       0.006549551 -0.023032693 0.008031346 0.007966917
000030 98 54 db bc af 58 18 bd aa 8e fa bc 30 48 0a bd
       -0.026773736 -0.03719395 -0.030585606 -0.03376025
000040 5c 5c 3f 3c f2 35 f2 bb 99 42 9b bc da 90 ae 3c
       0.011679735 -0.0073916847 -0.018952655 0.021309305
000050 e7 20 85 3c 3a 65 fd bb e6 9c f3 bb bd 05 e5 3c
       0.01625104 -0.0077330144 -0.0074344752 0.027956838
000060 f9 99 03 bd 73 fe 37 bd 7c a8 f6 bc af 85 56 bc
       -0.03212926 -0.044920396 -0.030109636 -0.013093396
000070 ce ce b1 bb 01 bf b5 bc a9 b0 8e b9 b8 df c8 3c
       -0.0054262644 -0.022185804 -0.00027215973 0.02452074
000080 9d 85 81 3c f4 1c ab 3c 1a c8 c9 3c b3 e7 6d 3b
       0.015810782 0.02088783 0.024631549 0.0036301434
000090 2c 46 b5 3b 26 4d 0d bd ce 49 a4 bc 00 df 98 bc
       0.005532047 -0.034497403 -0.020054724 -0.018661022
0000a0 90 81 a2 bc 59 5c 78 bc 37 a3 1d bd a7 89 5f 3c
       -0.01983717 -0.015158736 -0.038485732 0.013643659
0000b0 02 d7 9f bc f6 1e 3d 3b 57 3a f0 bc 15 20 54 3c
       -0.019511703 0.0028857565 -0.029324694 0.012947102
0000c0 af 20 ad bc 3f 3a ea bc b9 94 0c bc a8 1d ac 3c
       -0.021133749 -0.028592227 -0.00858038 0.021010235
0000d0 ae 98 3c 3c 3b b3 a1 bc 06 ae 21 bd cf 5a a9 3c
       0.011511011 -0.019738784 -0.039472602 0.020673184
0000e0 34 5e a0 3c 17 ca 15 bd 63 d3 ac bc b9 54 df bc
       0.01957617 -0.03656968 -0.02109689 -0.027262079
0000f0 c5 6d 0d bd 75 2a fb bb ed 37 ce 3c 19 8d 1b bb
       -0.034528513 -0.0076649734 0.025173152 -0.0023735224
000100 07 8a ad bc aa 73 9e 39 bc 50 e9 3b df 66 2e 3a
       -0.02118398 0.00030222285 0.00712022 0.0006652902
000110 a1 22 ca 3c d5 f2 44 bc 2f 06 98 3c 46 97 2b bc
       0.024674715 -0.012020786 0.018557636 -0.010473078
000120 c1 8c 1b bd 60 f4 3a 3c ef 6a 82 ba 54 a0 68 3c
       -0.03797603 0.011410803 -0.0009950082 0.014198381
000130 70 20 0b bd 41 f7 b4 3b db a2 bd bb f3 b2 b7 3c
       -0.03396648 0.005522639 -0.005787236 0.022424197
000140 75 ae dd 3c a2 1c ca 3c 84 cc 0a 3b 35 e5 a1 bb
       0.027060727 0.024671856 0.002117903 -0.0049406537
000150 48 35 28 bc 17 59 fb 3c 34 1d 94 bc 8e bf 94 bb
       -0.0102666095 0.03068213 -0.018080331 -0.0045394367
000160 34 d0 a4 3c 53 a1 a3 3a 25 16 2c bc 80 c9 0f bc
       0.02011881 0.0012483991 -0.010503327 -0.008776069
000170 33 82 9e 3c d6 64 ff bc cc 16 78 bc 20 55 e3 3c
       0.019349193 -0.031176012 -0.015142154 0.027750552
000180 3a 2d c4 bc 7d 84 af bc 14 3b 08 3c 0f c0 7a 3c
       -0.023947347 -0.02142548 0.008314867 0.015304579
000190 05 aa 07 bc f3 b3 3e 3c cd 5f fe ba 6b a7 94 3c
       -0.008280282 0.011639583 -0.0019407213 0.018146237
0001a0 e8 1e d9 bb 4f 7f f9 bc 65 c4 ee bc df 95 83 3c
       -0.0066259988 -0.030456213 -0.029146383 0.016062675
0001b0 c1 0b cd bc 4e 4d a6 bc 7a 8b 9d 3c 6b f8 ae 3c
       -0.025030019 -0.020300534 0.019231547 0.02135869
0001c0 be 13 00 3d 5d 0b 69 bb a4 49 fa 3c 24 56 b3 3b
       0.031268828 -0.0035559752 0.030552693 0.0054729152
0001d0 ef 9c 7c bb 71 51 04 3d 3d 87 15 bd bc 62 6e bb
       -0.0038545688 0.03230423 -0.036505926 -0.0036374768
0001e0 33 22 2a b9 60 7c c0 3a 42 01 52 bc 8b 74 a3 bc
       -0.00016225204 0.0014685504 -0.012817683 -0.019953033
0001f0 48 84 d4 3c 2a c7 86 3c e7 bb ae bc 3f 15 9c 3c
       0.025941983 0.01645239 -0.021329833 0.0190531
000200 ca b7 b8 bb 72 8b ea bb 5e 82 e5 bc 3d a9 d5 bc
       -0.0056371437 -0.0071577365 -0.028016265 -0.026081676
000210 1f 03 36 3c f0 58 05 3d 51 38 93 3c 18 e6 a0 bc
       0.011109143 0.03255552 0.01797119 -0.019640967
000220 d3 c1 99 3c 52 1e 85 3c 61 a3 a6 3c dc b1 e5 bb
       0.01876918 0.01624981 0.020341577 -0.007009728
000230 e2 ca 7b bc 12 fc 2a 3c a6 1c 40 3c f7 38 48 3b
       -0.015368195 0.010436075 0.01172558 0.0030551532
000240 49 35 69 bc ae d3 d6 ba 50 8f 47 ba e1 d5 7f bb
       -0.014233896 -0.001638999 -0.0007612603 -0.0039037394
000250 42 4d 88 bc ce 3d 02 3c 98 9b a3 3c 12 03 cf 3c
       -0.016638402 0.007949306 0.019971654 0.025270019
000260 44 cc 08 bc 6c ea ee bb 6d b6 17 3c 17 20 bd bb
       -0.008349482 -0.007291129 0.009259802 -0.0057716477
000270 a6 e5 84 bc a0 03 c8 bc 7f c6 e1 bc 7d 68 8d 3c
       -0.016222786 -0.024415791 -0.02756047 0.017261738
000280 20 bb fb 3c e9 3d e6 3c 2e e3 24 bc 35 41 13 bc
       0.030728877 0.028105693 -0.0100639295 -0.008987715
000290 eb d4 33 bc 53 b0 f6 3c 17 9a e2 bc b3 17 f8 3c
       -0.010976057 0.030113375 -0.027661366 0.030284738
0002a0 20 d1 78 bc 14 cd 52 bc c4 b4 a1 bc 1c 94 34 3c
       -0.015186578 -0.012866277 -0.019739516 0.01102164
0002b0 3f df 44 bc ce 00 60 3c a8 4a 4a bc b7 9f 01 bd
       -0.012016117 0.013672067 -0.012346901 -0.031646457
0002c0 19 8e ef bb e5 b7 64 bc 8f 07 c9 bc 05 4c 06 3d
       -0.0073106405 -0.0139598595 -0.024539737 0.03278734
0002d0 41 31 91 bc c3 96 73 bc 15 ae b7 bc c1 a3 d2 3c
       -0.017723681 -0.014867487 -0.022421876 0.02571285
0002e0 3b 01 b3 bc 43 bf 1e bd 6b 01 74 bb 5f 9f ed bb
       -0.021851173 -0.03875662 -0.003723229 -0.0072516645
0002f0 9d 36 ab b9 7f 9a 1a 3c 08 db d8 bc a5 ba 96 bc
       -0.00032656352 0.009436249 -0.02647163 -0.018399546
000300 0b ce fe 3c 75 89 e7 bc 28 ed fe bb 7c 5d ee 3c
       0.031104108 -0.028263787 -0.007779736 0.029097311
000310 66 a6 70 3c e6 e4 d9 3c 9d 22 6a bc ca ea 08 3d
       0.01468811 0.026598405 -0.014290479 0.033427037
000320 d9 6c 44 3c 3c db 09 3c ad e3 93 3c e6 93 c3 3c
       0.011988842 0.008414086 0.0180529 0.023874234
000330 bf ca 09 3c 9c 94 29 bc e1 6b 5d bc a3 f3 ac bc
       0.008410155 -0.010350373 -0.01351449 -0.021112269
000340 fc 9a 9d 3c 57 25 e0 3b a1 14 13 bc 78 ce 50 3c
       0.019238941 0.0068403888 -0.008977086 0.0127445385
000350 6c 79 26 bb f7 ee 13 bc be 80 24 3d 25 33 b5 bb
       -0.0025401963 -0.009029142 0.04016184 -0.0055297785
000360 d8 21 da bb fa 81 e4 bc 72 35 b2 bc f0 0c 90 3c
       -0.0066568665 -0.027894009 -0.021754 0.017584294
000370 99 ab 18 3b cc 92 7c bc 0c 00 92 bb a0 20 bc bc
       0.002329564 -0.0154158585 -0.004455572 -0.022964776
000380 0d e1 d3 3c 32 a4 a6 bc f0 7c 00 bd 14 af ae bb
       0.025864149 -0.020341966 -0.03136915 -0.0053309295
000390 67 cc 11 bd 9b 35 e2 bc 8b 96 85 39 d8 73 c7 bc
       -0.035595324 -0.027613452 0.000254799 -0.02434723
0003a0 ae 79 a8 bc 34 3d f0 bb 14 ee a5 3c 7d 9c 84 3b
       -0.020565834 -0.0073315147 0.020255126 0.004046975
0003b0 57 29 0b bb 49 c4 18 bd 86 69 06 bd ec a5 92 3c
       -0.0021234357 -0.037296567 -0.03281548 0.017901383
0003c0 52 da 70 bb 4a b0 6d 3c 8d c7 5a 3c 83 d5 99 3c
       -0.0036751223 0.014507363 0.013353241 0.018778568
0003d0 c3 d5 a6 3c 52 2f 88 bc 36 9d 96 bc 7d 83 c2 3b
       0.020365601 -0.016624127 -0.01838551 0.005936085
0003e0 5c 29 da 3b 55 7a 86 3c 33 ba fc 3b c0 b7 89 3a
       0.0066577625 0.016415754 0.0077126264 0.0010507032
0003f0 b4 55 e6 3c 09 f0 45 bc 1a 51 06 bd c4 0f 5a 3c
       0.028117038 -0.012081155 -0.03279219 0.013309423

bias f4 [64]
000000 60 fb 1f bb 1d d3 20 3a 6a 77 2a 3c 71 06 27 3d
       -0.0024411306 0.0006134974 0.010404447 0.040777627
000010 c3 b9 ec 3c ad 8b 49 3c c8 54 87 b9 c0 7c 62 bd
       0.028897172 0.012301368 -0.00025812373 -0.055294752
000020 41 be e4 bb 75 fc 8d bc 84 02 af bc 6a 69 60 3c
       -0.006980688 -0.017332295 -0.021363504 0.013697008
000030 f4 c9 ad 3b bd 71 1f bd d9 31 bb bc d6 f3 32 3d
       0.0053036157 -0.03892683 -0.022850918 0.04368957
000040 90 36 5c 3c d1 19 5a 3c e1 68 3e bc 15 b1 f8 3b
       0.013440743 0.013311819 -0.011621685 0.007589469
000050 c6 45 cb ba 8e 43 4d 3c 19 8f 3a bd 0b 9c 9b bb
       -0.0015508465 0.012528313 -0.045546625 -0.0047488264
000060 4c 43 8f bc 76 e0 e6 ba 5a 29 13 3b c1 a7 ed bc
       -0.017488144 -0.0017614502 0.0022455067 -0.029010655
000070 85 49 c2 bc 02 cf 8a 3c a3 5f db 3c d3 10 eb 3c
       -0.023716697 0.016944412 0.026779002 0.028694546
000080 8f c8 3c 3d 08 f1 01 3d aa 2f 94 bd 12 f2 a2 3c
       0.046089705 0.031724006 -0.07235654 0.019890819
000090 95 70 2b bc 6a c2 0a bc 40 49 ec bb 28 b3 0e ba
       -0.010463853 -0.0084692035 -0.0072108805 -0.00054435665
0000a0 2b 93 66 bc a2 0a 2c bc 48 b4 0d 3d 16 14 b7 3a
       -0.0140731735 -0.010500582 0.034595758 0.0013967778
0000b0 02 e4 3f 3c 12 5a b5 3c 2d 17 2d bd 3d 54 46 3c
       0.011712076 0.022137675 -0.04225843 0.012105045
0000c0 14 47 0e bd 84 c3 30 3d 4b b2 2f 3d e5 5d 64 3c
       -0.034735754 0.04315521 0.042894643 0.013938402
0000d0 bc 7d eb 3c 50 05 c8 bc 53 cb 85 bd 4d 33 70 3b
       0.028746478 -0.024416596 -0.06532922 0.0036651671
0000e0 53 d4 9c bc 26 e0 98 3b ae 76 df bc a8 3f cf 3b
       -0.019144213 0.0046653925 -0.02727827 0.006324727
0000f0 03 fb 31 bc 82 54 29 3d d0 7c 0c bd 73 09 43 bd
       -0.0108630685 0.04134036 -0.034298718 -0.047616433

weight f4 [10, 64]
000000 37 61 e2 bd ba cf dc 3c b8 19 20 3d e0 df 1a bd
       -0.110536985 0.02695452 0.039087027 -0.03781116
000010 d4 4e eb bb 80 15 de bd fb 7e d6 bd 13 c3 3e 3d
       -0.007181028 -0.108439445 -0.10473438 0.046572756
000020 02 69 46 be 2a 9a c1 bd 4a a8 9f 3d cc a4 aa bd
       -0.19375995 -0.094532326 0.077957705 -0.08332214
000030 74 20 69 3d b0 0b c4 3d 14 f3 8d 3d c4 b5 ee bd
       0.056915715 0.09572542 0.06931129 -0.11655763
000040 dd 88 1a 3e 56 14 d3 3d b7 7b d8 3d 70 05 01 bd
       0.15091272 0.10306613 0.10570472 -0.031499326
000050 6c d2 0e 3e 54 b3 7d bd 53 56 f7 3c dc 0c 11 3e
       0.13947457 -0.0619386 0.03019253 0.14165062
000060 e7 f6 f8 3d dc fb 07 3e 7a fe 97 3d a1 2c 16 bd
       0.12156468 0.1327967 0.074215844 -0.036663655
000070 85 07 76 3c d0 10 b4 bd f1 57 0f bd 1c 38 b7 3d
       0.015016441 -0.08792269 -0.034995977 0.08946249
000080 77 3b 42 bd 8b cf 0d be ba e1 1b 3e 7d f2 b6 bd
       -0.04741999 -0.13848703 0.15222827 -0.0893297
000090 5f 2b b2 3d 79 86 01 be e8 6c b2 3c 8d fb 05 be
       0.08699679 -0.12648953 0.021780446 -0.1308424
0000a0 fd 17 23 3e a2 1d e5 bd 5f f0 20 be e9 69 be bc
       0.1592712 -0.11187293 -0.15716694 -0.023243861
0000b0 ad fb 71 3d 71 5c 86 bd 91 49 0f 3e f5 99 ca 3c
       0.059077907 -0.065606005 0.13992907 0.024731616
0000c0 8b 9c b4 3d f3 07 4e bd 4f 2d a1 3b 72 89 aa bd
       0.08818921 -0.05030055 0.0049187313 -0.08326997
0000d0 f3 4e 24 3e c1 39 6f bd bf 05 26 3d 4e a9 81 3d
       0.16045742 -0.058404688 0.040532824 0.063311204
0000e0 9d 5f ad 3d 5f 56 3c bd ed 9b 71 3d be ce af bd
       0.084655024 -0.045980807 0.058986593 -0.08584355
0000f0 c9 ef 08 3e 84 de dd bc e0 e6 b5 3d 62 4c 37 3e
       0.13372721 -0.027083643 0.088819265 0.17900231
000100 77 41 65 3c cd 7e b5 bd cb 33 6a bd b7 2b 11 3e
       0.013992659 -0.08862076 -0.0571783 0.14176832
000110 5d 0a a7 bd 8f 30 a3 bc 3e c9 4d be 06 b8 2a 3a
       -0.081562735 -0.019920615 -0.20096299 0.0006512407
000120 c7 fd 3f be b5 a0 9f bd 4a ee 4d be 69 96 0c be
       -0.18749152 -0.07794324 -0.20110431 -0.13729252
000130 a6 83 e1 3d df 8f 30 3e a5 4c 1b 3d ab f8 b0 3d
       0.11011438 0.17242382 0.03791489 0.0864118
000140 bc 2d 37 3e ea 09 7e 3e d0 1c b8 bb f4 71 4d 3d
       0.1788854 0.2480847 -0.005618669 0.050157502
000150 71 30 d4 bd ea 60 d8 bd 8d dd d2 bd 70 74 09 3e
       -0.10360802 -0.1056536 -0.10296164 0.13423324
000160 ba 2f e1 3d de ab eb bb f5 f3 3d be 9d c2 f3 bc
       0.10995431 -0.007192119 -0.18550093 -0.029755885
000170 92 5a 47 3e 86 f3 06 bd 4b 39 a9 3d 54 79 d5 bd
       0.19468144 -0.032947086 0.08262881 -0.10423532
000180 bc 9a 65 be 81 22 46 3d b2 17 12 3d ba 27 0a be
       -0.22422308 0.04837275 0.03566713 -0.13491717
000190 aa 90 2e 3b 23 4d 85 3d 74 ed 9d bc 2e 77 bc 39
       0.002663652 0.06508853 -0.019278266 0.0003594695
0001a0 ce f3 fd 3d 9a 56 b3 3d c8 aa 5c 3e 8e 20 fb bd
       0.12400018 0.08756752 0.21549523 -0.12262069
0001b0 3f a6 10 be 48 b6 37 3e 7c f9 00 3e 80 84 fb bc
       -0.14125918 0.17940629 0.1259517 -0.03070283
0001c0 03 d9 a3 bd b1 b9 e9 bd 94 0f 94 bd af da 42 bd
       -0.08000376 -0.11412371 -0.07229534 -0.047571834
0001d0 11 49 2b 3d a6 77 fe bd 5b 7a 44 3e 53 2f 3e be
       0.04181773 -0.12425165 0.191873 -0.1857274
0001e0 d7 90 9e 3c 2a 2f d0 bd c9 0f cd bd 84 3b c2 3c
       0.019356174 -0.10165246 -0.100127764 0.02371002
0001f0 9f 30 4d be 54 94 16 be bf 78 0d 3e b0 73 c5 bd
       -0.20038079 -0.1470502 0.13815592 -0.09641206
000200 6f 91 4e bd 03 ee 2c 3e 92 c0 0f 3d a7 91 89 bd
       -0.050431665 0.1688767 0.03509576 -0.06717234
000210 a0 83 df 3d 49 3a f9 3d 64 a3 20 3e 19 db a1 3d
       0.10913777 0.1216932 0.15687329 0.07903118
000220 18 67 3e 3c e8 c0 73 bd 43 de 4b bd c3 64 36 bd
       0.011621259 -0.05951014 -0.049772512 -0.044529688
000230 4e 00 9f 3d 30 08 73 bd f3 8e 1e be eb 59 d6 3c
       0.0776373 -0.05933398 -0.15484218 0.026165923
000240 9a dc 24 be c0 4e 25 bd 2d 4b ed bd 15 5c d4 bd
       -0.16099778 -0.040358305 -0.11586604 -0.10369126
000250 3c f8 8a bd ab c2 4e 3e 75 a4 c4 3b 5a 2a 15 be
       -0.06785628 0.20191447 0.00600105 -0.14566937
000260 e2 75 cf bd 8c dc 0d be 93 d6 29 3e bf 18 fe 3d
       -0.10129906 -0.13853663 0.1658576 0.12407064
000270 05 43 83 3d f6 e0 04 3e 69 59 b5 bd f1 bc 25 bd
       0.06409267 0.12976441 -0.08854944 -0.04046339
000280 51 ad fe 3d b9 6d 04 bd eb 5f bc bd 5e 3f 45 bd
       0.12435401 -0.032331202 -0.091979824 -0.048156135
000290 42 25 f2 3d 69 a0 66 bc 09 1b 18 bd b9 42 26 be
       0.118235126 -0.014076331 -0.037135158 -0.1623639
0002a0 eb e0 50 3d ae 8e 28 3d 86 7d ec bd 9c e9 18 3c
       0.05099575 0.041151695 -0.11547379 0.009333041
0002b0 e1 b1 23 3d 70 79 02 3e 65 38 05 3e dd da f9 bd
       0.03996456 0.12741637 0.13009794 -0.12199948
0002c0 d9 ab 00 be c9 2b ba 3b 7d 43 c9 3d 59 a5 9f 3d
       -0.12565555 0.005681489 0.098273255 0.077952094
0002d0 d3 67 56 3d dd 3c 14 be 27 2e fc 3d 99 1b 6d bd
       0.05234511 -0.14476342 0.1231349 -0.057887647
0002e0 08 e2 0d 3d f8 ce 17 3e 22 57 fb 3d 1c b1 07 3a
       0.03463939 0.14825046 0.12272479 0.00051762327
0002f0 66 3a 1d 3e 6c 5d 90 3d 9f 52 bc bc 1d af 02 bd
       0.15354308 0.07049069 -0.022988616 -0.031905282
000300 92 06 12 3d 27 9b 52 bd 9d fe a5 3d 1a e9 10 be
       0.035650797 -0.051417496 0.08105204 -0.14151421
000310 3f 65 be bd 5b 66 3a 3d 37 78 d4 3d 58 08 21 bd
       -0.09296655 0.04550777 0.10374492 -0.039314598
000320 7b f7 16 3e 17 1c b6 3b 65 bf 6e bd c2 d0 8e 3d
       0.14742844 0.005557548 -0.058287997 0.06973411
000330 e1 94 74 3d c8 9c d8 bd ec 72 64 bd 10 0c 26 be
       0.059712294 -0.10576779 -0.05577366 -0.16215539
000340 34 ad 19 bd ca 53 2c be b0 80 b3 3d e1 49 f6 bd
       -0.037518695 -0.16828838 0.087647796 -0.1202581
000350 ac 8d ac 3d e5 aa d6 3d 01 54 c2 3d fa ca 0c be
       0.08425459 0.10481814 0.09488679 -0.13749304
000360 05 86 f2 bd f1 8f 1e bd f6 b2 ac 3d fc 41 5f bc
       -0.118419684 -0.038711492 0.084325716 -0.013626572
000370 8f 1c 50 bc 79 28 1d 3d 61 e3 37 bd d0 4d df bd
       -0.012702121 0.038368676 -0.04489458 -0.109035134
000380 f8 26 c6 bd 2f f9 90 bd 2e b1 0d 3e 9b eb b6 bd
       -0.096754014 -0.07078778 0.1383712 -0.08931657
000390 fa 6e 06 be a4 b7 b3 bc af 17 00 be f8 31 41 bb
       -0.13128272 -0.021938153 -0.12509035 -0.0029479247
0003a0 4e cd 27 be e1 e5 77 3d eb f0 9d 3d 50 61 1b 3e
       -0.16386911 0.060521964 0.07711967 0.1517384
0003b0 57 3a cc 3c 0c 9d 79 3d d7 15 fc bd 67 c8 33 bc
       0.024930162 0.060940787 -0.12308853 -0.010973073
0003c0 7a 80 89 bd 6c 15 0e be 13 af 96 3c 7e 51 ba bd
       -0.06713958 -0.1387536 0.018394029 -0.09097575
0003d0 5d 3c cc 3c e0 7a a1 bd 86 6c f4 bd af 5f e5 bd
       0.024931127 -0.07884765 -0.11934762 -0.11199891
0003e0 8d c8 17 3e 0c f0 09 bc 17 76 af 3d 0c 7a 86 bd
       0.14822598 -0.008419048 0.08567446 -0.06566247
0003f0 f2 c7 28 3b 3f ea b6 3d 8e 15 02 be 0b b7 39 be
       0.0025753942 0.08931398 -0.12703535 -0.18136232

bias f4 [10]
000000 e5 44 99 bd 2e c5 37 bd 77 d7 dc 3c 5b 86 11 3c
       -0.07483844 -0.04486578 0.02695821 0.0088821305
000010 84 c4 bd 3d 31 75 1e 3d ce 35 1a 3e cd 2a 46 3c
       0.09265998 0.03868598 0.15059587 0.012095165
000020 26 f6 56 3d e1 8a c6 bd
       0.05248084 -0.09694458
