tudui_0.pth (torch, 587967 bytes, 10 tensors)

weight f4 [32, 3, 5, 5]
000000 e0 de 16 ba a9 66 5d 3d 10 6e ab 3c a1 9e b5 bd
       -0.0005755257 0.054052982 0.020926505 -0.08868147
000010 9c be 5a 3d 74 9c 0f bc ab f4 ba 3d 2a ec 28 3d
       0.053404436 -0.008765329 0.09128698 0.04124085
000020 6e 2f bc bb cb 64 7f 3c bc c5 c4 3d 06 ab 9e bb
       -0.0057429587 0.015587996 0.09608027 -0.004842165
000030 8e f5 ef 3d 13 a9 03 3c d2 f8 93 3c 3b db b5 bb
       0.11716758 0.008035916 0.018062983 -0.005549816
000040 b5 bd 1d 3d 36 90 e7 3c 56 ee a9 bc 4d 7a e4 3d
       0.038510997 0.028267007 -0.02074353 0.111561395
000050 71 07 1a bb 82 7b e4 3d d5 b6 dc bc c7 24 f5 bc
       -0.002350297 0.1115637 -0.02694265 -0.029924763
000060 6f 4e 4f 3d 50 4d 3d 3a d2 54 40 bd 9c 49 b0 3d
       0.05061191 0.00072212983 -0.04695589 0.0860779
000070 35 6c cc 3d 7c 60 ba bd 77 b0 5c 3d 96 80 f0 bc
       0.09981576 -0.09100434 0.053879227 -0.02935819
000080 92 51 b1 3d eb c5 aa bd 07 6d 33 bd 3e e5 2b 3a
       0.086581364 -0.08338531 -0.04380515 0.0006557292
000090 bc 64 6b 3d 3a e1 72 bb 25 60 ef 3c 12 96 d6 bb
       0.057469115 -0.0037060515 0.02922065 -0.0065486515
0000a0 ba ed 1e bd 06 2a 0d bd c9 8f cc bd 33 c5 aa 3d
       -0.038800932 -0.034463905 -0.09988362 0.08338394
0000b0 8d 51 dc bc e0 31 a0 bd 85 2f cc ba 90 b3 98 bd
       -0.026894355 -0.07822013 -0.0015578127 -0.07456124
0000c0 77 49 a0 bd f5 ca 9b 3d bb 47 18 bd 27 c7 58 3c
       -0.07826512 0.0760707 -0.037177783 0.013231075
0000d0 c4 8f a2 bd e7 0a 99 bd ff 03 8b 3d 47 04 cc bd
       -0.07937577 -0.074727826 0.067878716 -0.09961753
0000e0 18 8c 0e 3d 25 bb 35 3d e1 98 d1 bc 09 08 c6 bd
       0.034801573 0.044367928 -0.025585594 -0.09669501
0000f0 79 2e 0c bd 35 94 03 bd 47 6c bf 3d e1 b3 bb 3d
       -0.034224007 -0.032123763 0.09346824 0.091651686
000100 f2 dc fc 3c fb 33 93 3d 4e 3a 1f bb bb 24 73 3c
       0.030867074 0.07187649 -0.0024296227 0.0148403
000110 a8 2f 95 3d 41 98 96 bd 5e b0 da bd 56 a3 d4 3d
       0.0728448 -0.07353259 -0.106781706 0.10382716
000120 5e ea cf bd 2c eb e8 bd 1e 56 6c bd f3 90 77 3c
       -0.10152124 -0.113729805 -0.057699315 0.015110242
000130 a2 ee 3c 3a f5 e3 82 3d da 24 94 bd 9b b2 23 bd
       0.000720719 0.063911356 -0.072335914 -0.039965253
000140 ab 5d e9 3c 2e dc 31 bd a4 04 93 bd 53 8d b4 bd
       0.028487047 -0.04342287 -0.071786195 -0.08816018
000150 07 59 05 3d e0 5e cf 3b 78 d4 a1 bd 36 ed 4c 3d
       0.032555606 0.0063284487 -0.07901853 0.05003091
000160 c2 19 ea bd c9 79 c2 bd f3 cb 56 bd c7 88 84 bc
       -0.11430694 -0.09495885 -0.052440595 -0.016178502
000170 81 db 12 3c ee b2 c1 3c c2 37 82 bd a3 6a 69 bd
       0.008963467 0.02364489 -0.06358291 -0.056986462
000180 7b f0 57 bc 1b f7 5b 3d 9f 6c 7f 3d f8 c3 b4 bc
       -0.013179894 0.053702455 0.06235945 -0.022066101
000190 72 11 9e bd bf 73 98 bd 6b 70 aa bd 29 08 aa 3d
       -0.07718171 -0.07443952 -0.08322223 0.08302338
0001a0 c1 e1 a3 bc 30 5b 98 3d 7f 50 32 bd 7c bd 56 3d
       -0.020005109 0.07439268 -0.0435338 0.0524268
0001b0 57 39 ae bc bb 06 0e 3d 24 9f d0 bc 64 6a 6e bd
       -0.021267576 0.034674387 -0.02546651 -0.05820693
0001c0 73 4c b9 bd 2a 7a 48 bc a0 59 b6 3d 14 d1 ee bd
       -0.09047785 -0.012236157 0.08903813 -0.11660972
0001d0 a1 f4 df bd 28 6a 15 bd 5d 95 95 bc fa e7 fa 3c
       -0.10935331 -0.03647819 -0.018259699 0.030628193
0001e0 b3 29 3c bd c5 27 41 bd 31 50 92 3d bd 0b 83 bd
       -0.045938205 -0.047157068 0.071442015 -0.06398723
0001f0 d0 a1 33 3b db 54 96 3c b8 95 be 3d 31 a4 c2 bd
       0.002740968 0.01835101 0.093059 -0.09503973
000200 82 d0 9a bd 9d 26 d4 3d 54 36 23 3c 32 96 ec bd
       -0.07559301 0.103589274 0.009961683 -0.11552085
000210 32 39 97 3d 40 13 ef bc a2 bc 9d bd 03 50 bc bd
       0.07383956 -0.029183984 -0.077019945 -0.091949485
000220 58 55 29 3d 62 22 bb 3d 3a fc c3 3d 7d 28 59 bd
       0.041341156 0.091374174 0.09569593 -0.05301713
000230 fd 6e cb bd 4d 17 e9 bd 8b 59 91 bd a7 39 77 3d
       -0.09933279 -0.113813974 -0.07097157 0.060357716
000240 06 da 29 bd 7b 21 93 bc de c3 20 3d 46 cc b9 bd
       -0.04146769 -0.0179603 0.039249294 -0.09072165
000250 be af b3 3c c5 41 24 bd a4 ec 02 3c c6 0f f8 bc
       0.021934386 -0.040101785 0.00799099 -0.030280959
000260 95 90 81 3d ea 68 d2 3d 79 89 a3 bd 48 3e d3 3d
       0.06326405 0.10273917 -0.07985205 0.103146136
000270 39 bd 3d 3d d9 a6 85 3d 4c ad 99 bd 07 a0 a6 3c
       0.046323035 0.06525964 -0.07503757 0.020339979
000280 7c 81 80 bd 6b 8c c6 bd 21 21 f8 3d c8 b9 4f bd
       -0.06274697 -0.09694751 0.12115694 -0.050714284
000290 37 4e 54 3c e0 ee b9 bd 00 1a 3b 3c 7d 02 c7 3d
       0.012958101 -0.09078765 0.011419773 0.097172715
0002a0 01 de e0 bd 63 a6 9c 3d 1b 6a f2 3c ee 0b c3 3c
       -0.10979844 0.07648923 0.02959161 0.0238094
0002b0 37 49 f7 3c 45 b7 92 bd 65 77 9e 3c 68 30 8a bb
       0.030186279 -0.07163862 0.019344041 -0.0042171963
0002c0 79 9f 25 3c 39 c9 1e 3d 7f 1d 88 bd 03 2c b6 bd
       0.010108822 0.03876612 -0.06646251 -0.08895113
0002d0 68 03 e6 3d b0 7b 7d bc 9f 82 f3 3d d6 9b b3 3d
       0.112311184 -0.015471384 0.11890148 0.08769958
0002e0 65 95 69 3d fd cd 47 3c 4b ad 73 bd bd d9 90 3d
       0.05702724 0.0121951075 -0.059491437 0.0707278
0002f0 92 ac 01 3c 80 2a af bd 8a 02 9a 3d a2 2a c3 3c
       0.007914679 -0.08553028 0.075200155 0.02382404
000300 39 9b 27 bd 92 f0 75 bc 40 1c e2 3c ce f6 b6 bc
       -0.040919516 -0.01501097 0.027601361 -0.022334483
000310 b5 51 5c 3d 45 15 87 bd 2e 21 95 3b 1f 09 ae bd
       0.05378886 -0.06595854 0.0045510745 -0.084978335
000320 0c f7 01 3d 62 83 83 3c 05 cd 29 bb 22 1f b3 bd
       0.031729743 0.01605386 -0.0025909555 -0.087461725
000330 ad a1 90 3d 88 97 c6 bd 09 0e c5 b9 d6 cf a9 3d
       0.07062087 -0.09696871 -0.00037585225 0.08291595
000340 79 2b 68 3d 9b 1d 8e bd 5e cc 31 3d dc 4a 99 3d
       0.056682084 -0.069392405 0.04340779 0.074849814
000350 cd d7 6e 3d e6 8a 4e 3c de 47 90 3d 46 06 f4 bd
       0.058311272 0.012606358 0.070449576 -0.11915259
000360 b3 50 3b bd d1 9f 4a 3b 55 57 7f bd 08 aa 86 3d
       -0.045731258 0.0030918012 -0.062339146 0.065754
000370 02 12 12 bd 96 9a 8e bd 46 3f 95 3c 38 7e c1 bc
       -0.035661705 -0.06963079 0.018218648 -0.023619756
000380 0b c9 e9 bd c2 14 0d bd 2b b3 d4 bd 07 d5 bb 3c
       -0.11415299 -0.034443624 -0.10385736 0.022928728
000390 a8 f0 de bd d7 39 25 3d d7 70 37 3d 97 7c f0 bc
       -0.10885745 0.040338363 0.044785347 -0.029356284
0003a0 48 27 88 3b c6 bc 7c 3d 91 43 69 bd 00 b9 87 bd
       0.0041550733 0.061703466 -0.056949202 -0.06627083
0003b0 c1 0c c7 bd df 79 92 bc 51 63 a5 3d 17 89 c4 bd
       -0.097192295 -0.017880378 0.08075584 -0.0959646
0003c0 13 ef e5 bd 92 31 e6 bd c0 4b 3e 3c c0 1f dc bd
       -0.112272404 -0.112399235 0.01161474 -0.10748243
0003d0 52 b4 b2 bd c2 5d bf 3c 71 c7 99 bd b2 2e 99 bd
       -0.087257996 0.023360137 -0.075087436 -0.074796095
0003e0 15 b3 7c bd 1f 2b 5e 3d 0e a3 89 bd 37 0f b1 3c
       -0.061694223 0.054240342 -0.06720553 0.0216137
0003f0 a4 d1 eb 3c 82 60 b1 3c ac a6 96 3d 10 d2 ee bc
       0.028786488 0.021652464 0.07356009 -0.0291529

bias f4 [32]
000000 c7 81 8d bd 47 17 0f 3e 38 d0 d9 3d 42 1d 04 be
       -0.06909519 0.13973723 0.10635418 -0.12901786
000010 e8 c8 27 bc 41 0d 4f 3c f5 6d de bd b0 ad 88 3d
       -0.010240771 0.012637437 -0.108608164 0.06673753
000020 12 50 b8 bd 94 b9 d2 3d d1 db 35 3e 5e 00 84 3d
       -0.08999647 0.102893025 0.17759635 0.064453825
000030 d0 da b2 3d fe 1f a2 bd 8e d9 c6 3b b7 90 c3 3d
       0.087331414 -0.07916258 0.006068415 0.095490865
000040 2e a9 e2 ba 2f 95 e7 3c 1e 3b 07 bd a9 63 6c bd
       -0.0017292851 0.028269378 -0.033015363 -0.05771223
000050 46 2b 04 3e 81 9a 3d bd 56 e3 95 3d f3 d5 9a bd
       0.12907133 -0.046289925 0.073187515 -0.07560339
000060 f8 ed 66 bd 7e 28 08 3e 5b 61 3c bd cc af 02 3e
       -0.05637929 0.13296697 -0.045991283 0.12762374
000070 e2 ac 01 be 39 47 0f 3e f7 11 f8 bd 76 43 b6 bd
       -0.12663606 0.13992013 -0.121128015 -0.08899586

weight f4 [32, 32, 5, 5]
000000 0e f7 2b bc 19 05 4f 3c 8b bf e9 bb 79 1d 93 3a
       -0.010495914 0.012635493 -0.0071334294 0.0011223993
000010 4c 8e f9 3c 28 cb 02 3d f7 69 94 3c 04 c5 d5 bc
       0.03046336 0.031932026 0.018116934 -0.026094921
000020 13 8e ac 3c 6e 8b f3 3c d8 5b b1 bc 70 bb 07 bd
       0.02106384 0.029729571 -0.02165024 -0.03313774
000030 f1 0a 50 3c 13 bc 09 bd 61 1d e4 bc e0 6a e0 3c
       0.012697921 -0.033626627 -0.02784604 0.027394712
000040 bb 75 53 bc 5c fb 24 bc ac 4c f8 3c 80 89 1e 3c
       -0.012906487 -0.010069694 0.030309997 0.009676337
000050 16 d4 fb bb d7 8b 55 3c 1e 39 d5 3c f3 55 3e bc
       -0.0076851947 0.013033829 0.026028212 -0.011617172
000060 78 0f 4d 3a c9 fe 2f 3c e8 50 a7 3c 99 e6 5a 3c
       0.00078224344 0.010741898 0.020424321 0.013360643
000070 7b f8 ec 3c bb f5 5d 3c 01 d5 7f 3c b8 7b c8 bc
       0.028927078 0.013547356 0.015614749 -0.024473056
000080 ac 13 df 3c 6a 44 02 bd b3 75 aa bc ee 9f b6 3c
       0.02723106 -0.031803526 -0.020808076 0.022293057
000090 9e 6c c0 bc 45 76 1b bd 34 a9 0e bc 1b bc 38 3c
       -0.023489293 -0.037954587 -0.008707333 0.011275317
0000a0 89 f0 3b 3a 9b 4b 41 3c 98 f2 82 39 28 39 d2 3c
       0.00071693264 0.011797811 0.0002497628 0.02566202
0000b0 02 83 71 bc 3f 7b a9 bc 35 ef 87 bc 92 79 d8 3c
       -0.014740707 -0.020688651 -0.016593555 0.026425157
0000c0 6c 1e 1d 3d ba 25 ee 3c 90 03 7c bc b3 1b 11 3c
       0.03835909 0.029070724 -0.015381709 0.008856702
0000d0 35 21 9a 3c d0 6b 90 3b 01 7f 8b 39 94 da 03 bd
       0.018814662 0.0044073835 0.0002660677 -0.032190874
0000e0 b1 7c fe 3b 8f 25 88 bc b8 d1 91 bc d1 65 c7 3c
       0.007766329 -0.016619472 -0.017800197 0.024340542
0000f0 69 28 e4 3c a4 d5 d2 3c 44 a7 d2 bc d9 12 fe 3b
       0.0278513 0.025736637 -0.025714524 0.0077537117
000100 c1 6b 37 bc fb 47 a8 3b 53 83 c6 3c fd 69 ac bc
       -0.011195124 0.005135534 0.024232542 -0.021046633
000110 d4 b5 04 bd 13 3f 21 3c b9 1f 00 bc b1 83 99 3c
       -0.032399967 0.009841698 -0.007820063 0.018739553
000120 fb 0e b7 bb f4 d3 9a 3a 16 f3 59 bc 88 57 0d 3c
       -0.0055865026 0.0011812435 -0.013302585 0.008626826
000130 15 7e 0c 3d 6c a9 9d bb f2 de 03 bd 6d e6 9b 3c
       0.03429993 -0.0048114564 -0.03219504 0.019030774
000140 0a 6f 1d 3d 19 ff e8 3a 6f f0 00 bd 04 c2 aa 3c
       0.038435973 0.001777622 -0.031479295 0.020844467
000150 79 8f 66 3c ab 98 82 bc 09 d1 1c 3d 20 e6 c0 bc
       0.0140722925 -0.015941938 0.03828529 -0.023547232
000160 a0 6d 5f 3c ff 9a be 3c 8f b5 14 3d 78 28 1d 3d
       0.0136369765 0.023267267 0.03630596 0.038368672
000170 e6 65 ca 3b 4e fe 90 bc a8 07 cd bc a7 b8 d2 bc
       0.006176698 -0.017699387 -0.025028065 -0.025722815
000180 75 f6 16 3d 18 ea b5 bc f6 ae 17 3d f9 8f e0 bc
       0.036856133 -0.022206351 0.03703209 -0.027412402
000190 d8 7b df bc 1d 39 f7 bb 02 74 1a 3d 71 3e 0e 3d
       -0.027280733 -0.00754465 0.03770829 0.034727518
0001a0 ca ff 46 bc 16 48 7f 3c da 56 09 bc 90 da 02 3d
       -0.012145946 0.0155811515 -0.008382523 0.03194672
0001b0 ac 70 ff 3a 84 4c f3 3c 60 c0 01 bd 77 68 28 bc
       0.0019488535 0.029699571 -0.031677604 -0.010278813
0001c0 65 b4 0f b9 bb 78 20 3c a0 c8 4a bc 99 f3 f7 3c
       -0.00013704745 0.009794409 -0.012376934 0.030267524
0001d0 13 5c 52 bc a3 68 2b 3c 81 a7 63 3c da e3 14 3a
       -0.012839335 0.010461959 0.0138949165 0.00056797045
0001e0 5b 50 77 3c 6f 45 c5 3c fe 70 85 bb bf 88 0a bd
       0.015094842 0.02408096 -0.0040723076 -0.033821817
0001f0 b2 35 d7 bc 3d 2e 13 bb 32 0d e2 3b 5f 15 a6 3c
       -0.026270721 -0.002245798 0.0068985457 0.020273862
000200 9d b2 a8 bc 8d 61 87 3c f1 73 de bc 0f 99 61 3c
       -0.020592982 0.016526008 -0.027154895 0.013769402
000210 76 8f 1d 3d 92 36 35 bb 84 15 b1 3c 5c d6 96 bb
       0.038466893 -0.0027650935 0.021616705 -0.0046031903
000220 0a 19 03 3d 61 a8 e9 3b fb 89 b0 bb 2b 43 3e bc
       0.0320063 0.007130668 -0.0053875423 -0.011612694
000230 04 d3 d0 3c 2f 3f e4 3c b7 2c 92 3c 13 ca c0 3c
       0.025491245 0.02786216 0.017843587 0.023533856
000240 2a b4 6e bc b7 55 e3 3c 6d 76 e8 bc 53 f6 e4 3b
       -0.014569322 0.027750833 -0.028376782 0.006987372
000250 b0 8b d2 bc 5f 64 be bc d2 a2 37 3b 27 ad e7 bc
       -0.025701374 -0.02324122 0.0028020632 -0.028280808
000260 33 d7 ef 3c 5e bc da 3c d1 cd 88 3c e1 0a a5 bc
       0.02927742 0.026701149 0.016699703 -0.020146789
000270 d1 30 c1 3c 8c 3b 82 3c c8 d9 21 3c 4f b5 09 3d
       0.023582848 0.015897535 0.009878583 0.033620175
000280 60 bc c9 bb 7c 2d aa 3c b0 69 0e bb 9f 77 05 3d
       -0.0061564893 0.020773642 -0.0021730475 0.032584783
000290 82 e2 c6 3c 4f 97 90 bb d1 c9 04 3c 07 59 47 bb
       0.02427793 -0.0044125686 0.008104757 -0.0030418055
0002a0 ff c2 a1 bc 97 89 b5 bc b8 fb 0f 3d a7 47 34 bc
       -0.019746302 -0.022160335 0.035152167 -0.011003411
0002b0 d2 3f e6 3c 24 05 d1 3b 3d 25 00 bc b3 19 ed bc
       0.028106604 0.0063787866 -0.007821378 -0.028942918
0002c0 83 9a c1 bc 7f 44 25 bc b9 83 3b 3c 15 07 d8 bc
       -0.023633247 -0.0100871315 0.011444979 -0.026370564
0002d0 7c 73 06 3d 03 03 5a 3c 0d f2 ac bc 53 04 1a bc
       0.03282498 0.013306382 -0.021111513 -0.009400445
0002e0 b1 62 a8 bc 3b 5e 2d 3c 94 0e eb bb 8c 20 0a 3d
       -0.020554872 0.010581548 -0.0071733687 0.033722445
0002f0 b9 d6 0e 3d 2b 79 4b ba 5d 79 f7 3c 65 e0 03 3d
       0.034872744 -0.0007761891 0.030209238 0.03219642
000300 4f 71 04 3c 90 16 97 3c 0d 7e 97 bc 7c 04 bf bc
       0.0080836555 0.018443376 -0.018492723 -0.023317568
000310 c3 66 0c 3d 67 55 0c 3d f8 fe eb 3c 81 39 8e 3c
       0.03427769 0.034261134 0.028808102 0.017361404
000320 7a 27 ed 3c ab 68 86 3c be 84 0a 3d 25 c5 c9 bc
       0.028949488 0.016407331 0.033818 -0.024630139
000330 db 7b 89 bb 6b c6 de bc 89 01 cf 3b c6 f6 bf bb
       -0.004195673 -0.027194222 0.0063173217 -0.005858275
000340 cc 9e 64 3c 67 4a 21 bc 22 1b 0a 3d 88 54 37 3c
       0.013953876 -0.009844399 0.033717282 0.011189587
000350 f7 29 97 3c f3 3b 7c 3c bb 59 c2 bc 32 d7 dd bc
       0.018452628 0.015395152 -0.023724427 -0.027080152
000360 c8 5e cb bc 53 dd ba 3c 30 73 8a 3b 90 2b 22 bc
       -0.024825469 0.022810614 0.004225157 -0.009898081
000370 02 87 dc 3c 4e a6 ff 3c 18 53 c2 3c 30 b3 c8 bc
       0.026919845 0.03120723 0.023721263 -0.024499506
000380 94 c2 97 bc 77 f0 28 bb 9f 63 17 ba 20 fe 02 bc
       -0.0185254 -0.0025778094 -0.00057750376 -0.007995158
000390 6f 8d 13 bd 89 0b 14 bd 64 d4 0f bc 5c 9b 47 3c
       -0.036023553 -0.036143813 -0.008778665 0.012183037
0003a0 77 71 81 3c cc c4 90 3b 92 d2 86 3b 8e 0f e6 bc
       0.015801175 0.0044179913 0.0041144574 -0.028083589
0003b0 db 12 72 bc cf 2a 43 bc 62 d3 46 bc 06 69 95 bc
       -0.014775003 -0.011912062 -0.0121353585 -0.018238556
0003c0 09 54 99 3c ea 11 0e bc fe cf 2e bc 88 23 08 3c
       0.018716829 -0.008671263 -0.010669706 0.008309253
0003d0 05 67 26 3c 7b 13 5a bb de 6f eb 3c 44 25 a1 bc
       0.010156398 -0.0033275771 0.028739866 -0.01967109
0003e0 52 26 e5 bc 7a 5d 65 3b c7 d3 0d bd 17 d2 cb bc
       -0.027972374 0.0034998343 -0.034625795 -0.024880452
0003f0 47 17 d5 bc c6 f5 b3 bc ba e2 27 bd f9 72 8a bc
       -0.026012076 -0.02196778 -0.040987708 -0.016900526

bias f4 [32]
000000 30 3c 89 bc 50 ee 2e 3d f8 8f eb 3c 91 81 e9 3b
       -0.016752332 0.04270774 0.028755173 0.007126041
000010 3f d0 27 3c f4 ec 1f bd b2 f2 18 3d 36 25 be bc
       0.010242521 -0.039044335 0.037340827 -0.023211103
000020 7d 56 e9 bc ab 3c 0b ba 43 d9 b1 3c 04 b2 e7 bc
       -0.028483624 -0.00053114694 0.021710044 -0.028283127
000030 ec b7 cd bc 4c 19 b9 3c fa fc f4 ba 1f 77 71 3c
       -0.025112115 0.02259507 -0.0018691116 0.014737873
000040 5f ff cc bc 88 10 d6 bc ef 37 68 bc 95 22 1c 3d
       -0.025024114 -0.02613093 -0.014173492 0.038118917
000050 25 ac 8a 3c 53 12 42 3b 85 6a 28 3d 80 64 02 3d
       0.016927788 0.0029612973 0.04111721 0.031834126
000060 c2 94 2c bd 46 03 35 3c 5e be 9c 3d e0 fe bc 3c
       -0.042134054 0.011048144 0.07653497 0.023070753
000070 a2 dd 03 3d 7a dc 06 3d 10 0f 1b bc e6 d9 9d 39
       0.032193787 0.032925107 -0.00946404 0.0003010772

weight f4 [64, 32, 5, 5]
000000 e7 7e be 3b 33 ca 05 3d 68 3a 48 bc 2b 81 8a 3c
       0.005813468 0.032663535 -0.012220956 0.016907295
000010 3f fd 74 bc 10 e2 0e bd f6 55 ec bc 22 92 69 bc
       -0.014952957 -0.03488356 -0.028849583 -0.014256032
000020 28 8c 81 bc 54 90 bb 3c cc 5a 60 3c 85 87 eb bc
       -0.015813902 0.02289597 0.013693523 -0.028751144
000030 38 a2 0d 3d 9e fd 14 3c 6b a9 aa 3c ce de fb bc
       0.034578532 0.00909367 0.020832738 -0.03074589
000040 e2 8d c1 3c ba 14 26 3c a9 01 eb 3c b6 50 14 bc
       0.023627225 0.010136778 0.028687315 -0.009052446
000050 85 d2 3b bc 14 12 bb 3c 79 45 39 bb ab 1d 9e bc
       -0.011463766 0.022835769 -0.0028270169 -0.019301256
000060 a7 de 01 3d f9 b2 cc bc 91 29 64 3a ed b3 80 3c
       0.03170648 -0.024987685 0.00087037036 0.015710795
000070 cc ed 3f 3c 11 7c 65 bc f1 2b 0d bc bd 60 b3 bc
       0.01171441 -0.0140066305 -0.0086164335 -0.021896714
000080 6c 31 40 3c df 82 ef 3c 09 29 a1 3c 4e 41 16 bc
       0.011730533 0.029237209 0.019672887 -0.009170843
000090 26 68 c9 bc 9d bf 3b bc e6 ba 8a bc 87 18 13 bc
       -0.024585795 -0.011459258 -0.016934823 -0.008978016
0000a0 41 fb 19 bb 36 c5 a6 bb be 09 0a bd 6e 9b d1 3c
       -0.0023495706 -0.0050894273 -0.033700697 0.02558681
0000b0 92 7d ab bb 4e c7 8a 3b 61 7f 9a bc 34 f1 6f bc
       -0.005233475 0.0042351848 -0.018859567 -0.01464491
0000c0 6c 72 09 bd c9 5a e2 bc 72 15 bc 3a 0b 24 f4 bc
       -0.033556387 -0.02763118 0.0014349653 -0.029802343
0000d0 10 4e e8 3c 48 ca be bc 14 23 dd 3c 88 fb 05 3d
       0.028357536 -0.023289815 0.026994266 0.032710582
0000e0 9b ce ca 3c fb cf a8 bc 88 47 90 3b 8d df c8 3c
       0.02475672 -0.020606985 0.0044030584 0.02452066
0000f0 80 3a 01 3d e1 50 6e 3c f8 92 0d 3d 94 64 de bc
       0.03154993 0.01454565 0.03456399 -0.027147569
000100 d5 31 0a bb 7b 5d 0c bc ca 3a 0a 3d 30 14 cd 38
       -0.002108683 -0.008567209 0.033747472 9.778922e-05
000110 3c 32 c4 3b 56 5d c5 bc d6 14 bc 3c 80 8f 3f bc
       0.0059874337 -0.024092358 0.022959154 -0.011691928
000120 df cc bc 3c 5b 86 a8 3c a6 23 55 bc 5f f5 70 bb
       0.023046909 0.020571878 -0.0130089875 -0.0036767346
000130 1e 0d 3b 3b 5d 4e a6 3c c0 b3 c7 bc c0 37 02 3d
       0.0028541754 0.020301038 -0.024377704 0.03179145
000140 1d d7 a5 3b b2 7a dc 3b d9 16 62 bb d2 4d 1c bc
       0.005061044 0.0067284936 -0.0034498482 -0.009540038
000150 c3 28 19 bc 7b 39 08 ba 05 81 96 bc 1e 3c e2 3c
       -0.009348097 -0.00051965535 -0.018372068 0.027616557
000160 16 bd 85 bc 89 2a b5 3b 21 05 0a 3d 04 9d 33 3c
       -0.016325515 0.005528752 0.033696298 0.010962728
000170 c9 1d 07 3c 80 e7 41 bc 46 43 b0 bc 49 00 bc 3c
       0.008246847 -0.011834979 -0.021516453 0.022949355
000180 ed 56 4a 3c fb ee 15 bc 20 0c b4 bc 63 c0 30 3b
       0.012349826 -0.009151216 -0.021978438 0.002697014
000190 45 15 22 3a 8b 11 30 3b 0b db fb 3a 80 45 c7 3c
       0.0006182979 0.0026865925 0.001921506 0.024325132
0001a0 79 86 63 3c 82 1a 12 bd d2 0c e7 3c c3 e4 58 3c
       0.013887041 -0.03566981 0.028204355 0.013238135
0001b0 bc 47 fd bc ee 9e e3 bc 6f 1e d0 3c 97 0c 99 bc
       -0.030917995 -0.027785745 0.025405137 -0.018682761
0001c0 4f e2 58 bb a1 9d ff bc 0c cd 87 3c fb 3d bd bc
       -0.0033093875 -0.031203093 0.016577266 -0.023100844
0001d0 99 8d fb bc 19 e7 07 bd eb 9e 45 bc 81 d4 13 bd
       -0.030707167 -0.033179376 -0.012061815 -0.03609133
0001e0 b2 7a fa bc 7d fa b3 3c 23 a5 0e 3c 30 84 d4 ba
       -0.030576084 0.021970028 0.008706364 -0.0016213711
0001f0 38 dc 49 bc 45 19 7d bc 1b 81 a1 3c 67 62 9d 3c
       -0.012320571 -0.015447919 0.019714883 0.019211961
000200 a6 67 0b bc 61 2f 13 3d aa 69 09 3c a8 d2 c3 ba
       -0.008508598 0.035933856 0.008387009 -0.00149401
000210 36 38 b3 bc a2 6b 0b bd c3 07 c4 3c 2d 15 a7 3c
       -0.02187739 -0.034038194 0.023929482 0.02039584
000220 61 80 41 3c f8 ee 41 bb 5b a7 f8 3c da f3 0f bc
       0.011810393 -0.00295919 0.030353239 -0.008786166
000230 af 41 3e 3c 43 ad d9 3c 3d 3e af 3c 21 90 ef 3c
       0.01161234 0.026571875 0.021391982 0.02924353
000240 21 58 b9 ba 9b 31 86 bb ce e0 02 bd fe d9 a3 bc
       -0.0014140644 -0.004095269 -0.03195267 -0.020001408
000250 80 b5 b8 bc 32 9d 0c bd cb bc fc bc dc a1 a7 bc
       -0.022547483 -0.0343296 -0.030851742 -0.020462923
000260 c2 2f 99 bc 8d f4 c4 bc ea 52 18 3c 50 45 a6 bc
       -0.01869953 -0.024042392 0.009297112 -0.020296723
000270 de b2 dd bc 54 95 0b 3c 43 c6 21 3c 85 b0 d8 3c
       -0.02706283 0.008519489 0.009873929 0.026451359
000280 46 14 b5 3b 52 77 e7 3c a4 ce 7c 3b e4 49 cc 3b
       0.0055260984 0.028255139 0.0038575316 0.0062343944
000290 61 63 c3 3c c8 d5 75 bc 4f 33 80 bc 70 dd 18 3c
       0.023851098 -0.015004583 -0.015649466 0.009330139
0002a0 66 df b9 bc da cc 50 3c c7 e7 b8 3c e6 07 a8 3c
       -0.022689532 0.012744153 0.022571458 0.020511579
0002b0 ee 19 d6 bb 3d 99 e7 3c 3c 44 b3 bc 8e b1 62 3c
       -0.006533853 0.028271312 -0.021883123 0.013836278
0002c0 3b c1 d8 bb 4d b6 24 3c 48 d7 3a bc c0 6d 39 bc
       -0.0066148317 0.0100532295 -0.011403866 -0.01131767
0002d0 45 3a d9 ba 81 cb fc 3c 02 8e 10 bc eb c2 cf bc
       -0.0016573152 0.030858757 -0.00882292 -0.025361499
0002e0 a8 ff e8 3c bd c2 b2 bb 0e e9 cd bb 35 30 04 bd
       0.028442219 -0.0054553435 -0.006283886 -0.032272536
0002f0 32 4d d0 3c e9 bc 15 bd 9f 80 44 bc 8c 74 eb 3a
       0.025427435 -0.036557112 -0.011993556 0.0017963811
000300 87 25 e2 3b 49 d6 e5 3b 03 54 2e bc ed 39 4f 3c
       0.0069014463 0.00701407 -0.010640147 0.012648088
000310 40 d7 30 bc 86 dc 12 3c 8b b9 49 bc 26 db b1 3c
       -0.010793507 0.00896371 -0.012312303 0.021710943
000320 57 85 e0 3c 4c b8 48 bc ce 4f b3 3c 31 84 b2 3a
       0.027407331 -0.012250971 0.02188864 0.0013619718
000330 ca 7b 16 3d 86 0e 93 bb d7 e4 5d bb 8d 92 a4 bc
       0.03673915 -0.0044878153 -0.0033858323 -0.020089412
000340 d1 4e 17 3d 29 39 ac bc d5 24 0b 3d 19 64 16 3c
       0.0369404 -0.02102335 0.033970673 0.009179139
000350 92 95 b3 bb ca 7b 11 bc 13 21 cd 3c 27 38 a0 3b
       -0.0054804767 -0.008879611 0.025040185 0.0048895064
000360 ae c2 e9 3c 26 9d a9 bb a3 dd af 3c e0 a1 cc bc
       0.028535213 -0.0051762043 0.02146799 -0.024979532
000370 fd 39 91 bb 17 58 0e 3d d1 2a 05 bd c2 56 d3 bc
       -0.0044319616 0.034751978 -0.032511536 -0.025798205
000380 21 b5 45 3c 92 cc 08 bd a9 ab b3 3c 2a 2e ba 3c
       0.01206711 -0.03339822 0.02193244 0.02272709
000390 40 9d 59 3c 99 ab eb 3c f3 4c 9f 3c 96 33 11 bd
       0.01328212 0.028768348 0.019445872 -0.035449587
0003a0 fa 1f bc 3c 35 bc 8d bc 99 38 86 3c 7a ea 54 3b
       0.022964466 -0.017301658 0.01638441 0.0032488392
0003b0 70 62 04 bd 5e d8 89 3c 3b b0 e0 bc f9 b5 ce bb
       -0.03232044 0.016826805 -0.027427783 -0.006308314
0003c0 86 2d a4 ba 74 74 cd 3b b3 49 d4 3c c8 47 f5 3b
       -0.0012525774 0.006269986 0.025914049 0.0074853636
0003d0 ed e0 10 bd 2c 9b 0f bc ec b4 99 bc bf 29 86 bc
       -0.035370756 -0.008765023 -0.018763028 -0.016377328
0003e0 3c b6 94 ba e6 f5 ab bb 1f 60 04 3d e2 cf cd bb
       -0.0011345814 -0.0052478192 0.03231823 -0.006280885
0003f0 c5 3c 9e bc 49 4f 9e 3c 10 d7 a4 3c c5 79 d0 3c
       -0.019316087 0.019324915 0.020122081 0.02544869

bias f4 [64]
000000 0e 4e bc bb 7e 39 14 3a fa 14 d4 bc 7f af 8b bc
       -0.0057466095 0.0005654319 -0.025888909 -0.017051456
000010 97 52 69 3c 63 e8 ce 3b 35 fc 8d 3c 90 37 93 bc
       0.014240882 0.0063143237 0.017332176 -0.01797083
000020 3b 1d 2a 3d 1b e6 ca 3b 0c da dd bb 43 e1 f0 3b
       0.041531783 0.0061919815 -0.006770378 0.007351072
000030 f3 bc 0e bb 41 e1 05 3d fe 1c 0c bd 53 5d 1d 3c
       -0.0021780103 0.032685522 -0.034207337 0.00960477
000040 bc d0 09 3d ca 0b 16 3d 9e 09 17 bc f2 ec 7e 3c
       0.03364633 0.036632337 -0.0092186015 0.015559422
000050 53 4d 0f 3d b5 a6 02 bd 57 e1 81 bc 46 af ef bb
       0.03498585 -0.031897265 -0.01585452 -0.0073145954
000060 38 70 9e 3c 6e e4 cb bc eb 26 77 bb 76 30 7f bc
       0.01934062 -0.024889197 -0.0037712406 -0.015575519
000070 c1 82 54 3b 68 12 aa 3b 9b 74 7a bc 1a 4d 03 3d
       0.0032426568 0.0051901825 -0.01528659 0.03205595
000080 55 7b 2d bd ba a8 82 3c a0 ef ae bc c0 a8 1a 3c
       -0.042353947 0.015949596 -0.021354496 0.009439647
000090 55 c2 b4 bb b9 de ed 3c 0f be 73 3c e4 c1 4e ba
       -0.0055163302 0.029036867 0.0148768565 -0.00078871683
0000a0 65 2c b7 3c 06 be fe 3c b0 8f 97 bc 01 2d df 3b
       0.022360036 0.03109647 -0.018501133 0.006810785
0000b0 5a dc db 3c 63 47 14 3d d5 8f df bc da 21 fe bb
       0.02683847 0.036200892 -0.027290264 -0.0077555003
0000c0 0c 98 67 bc 99 0c 38 3c f6 b3 94 3c 20 de be bc
       -0.014135372 0.011233472 0.018152218 -0.023299277
0000d0 a6 59 06 bd fd ea 00 bd db 93 fa 3c 7b e0 15 3c
       -0.03280034 -0.031474102 0.030588081 0.009147759
0000e0 87 1c 55 3c 68 b1 4c bc 29 ce 59 bc 8a 45 e0 bb
       0.01300729 -0.012493469 -0.013293781 -0.006844227
0000f0 5b 7d ab bc ba 73 17 3b 8a 0e c1 bb 4a df f5 bc
       -0.020933798 0.002310975 -0.005891626 -0.0300137

weight f4 [64, 1024]
000000 f8 03 04 bd 08 d6 29 3c ad e2 a7 3c 87 11 9e bc
       -0.032230347 0.01036597 0.02049383 -0.019295467
000010 a4 9b 52 bc d0 77 e4 3a 7d 20 9b bb 52 d9 99 3c
       -0.01285449 0.0017430726 -0.0047340975 0.018780384
000020 47 94 ff 3b a4 a1 8a bc c6 02 60 3c 83 3f 0b 3c
       0.0077996585 -0.01692278 0.013672536 0.008499029
000030 dd d6 d3 bc f3 39 f1 bc 9a 66 f6 bc cf b9 fc bc
       -0.02585929 -0.029446578 -0.030078221 -0.03085032
000040 af 1b ae 3b d4 a2 a6 bc 40 eb ea bc 10 a8 d1 3c
       0.0053133587 -0.020341314 -0.028676629 0.025592834
000050 3b b0 3f 3c ab ae d4 bc 10 19 41 bc 3d b5 ba 3c
       0.011699731 -0.025962194 -0.0117857605 0.0227915
000060 10 5b cf bc 39 7e 65 bc d7 10 37 bc 7e 36 2e bc
       -0.025311977 -0.014007145 -0.0111734485 -0.010633109
000070 0d 3c 75 bb b9 08 c4 bc 70 01 ca ba a4 47 cf 3c
       -0.0037419826 -0.02392994 -0.0015411805 0.025302716
000080 38 7f 82 3c eb 72 92 3c 90 8f c7 3c c6 cd 9d 3b
       0.015929803 0.017877063 0.024360448 0.00481579
000090 72 b2 7a 3c 2d 6d 0e bd 7c 30 9b bc c7 3f 8b bc
       0.015301334 -0.034772087 -0.018944018 -0.016998185
0000a0 af a1 4a bc 86 c4 8e bc 46 a8 b2 bc 9b 32 b3 3c
       -0.01236765 -0.017427694 -0.021808755 0.021874717
0000b0 43 a6 4e bc 09 a5 33 3c f4 29 c2 bc f9 b9 65 3c
       -0.012612882 0.01096464 -0.023701645 0.01402139
0000c0 6e f4 bc bc 73 ff e6 bc 8b cf 22 bc 9f c9 b8 3c
       -0.023065772 -0.02819798 -0.009937177 0.022557078
0000d0 b4 32 26 3c c8 ab 37 bc f6 28 f3 bc 2f 60 d4 3c
       0.0101439245 -0.011210389 -0.029682618 0.02592477
0000e0 5e 36 b8 3c a2 c6 da bc a7 ab 15 bc 31 be c4 bc
       0.022486862 -0.026706044 -0.009135163 -0.024016472
0000f0 0f 69 fc bc 84 8b e5 bb 9e fe df 3c 00 d8 15 3b
       -0.030811815 -0.007005157 0.02734309 0.0022864342
000100 6a 5a c7 bc d7 76 df bb 2b 78 e6 ba 9f 80 79 bb
       -0.024335105 -0.0068195867 -0.001758342 -0.003807105
000110 fe 61 8c 3c f5 7e df bc 92 7c 42 3c 0b f2 12 bc
       0.01713657 -0.027282218 0.01187052 -0.00896884
000120 10 3d fd bc 18 ac 84 3c 80 8b 17 3b e4 87 73 3c
       -0.030912906 0.016195342 0.002312392 0.014863942
000130 f5 30 f6 bc 6e ea 13 3c 17 dd b9 ba d7 df d8 3c
       -0.030052641 0.00902806 -0.001418027 0.026473923
000140 94 1e ec 3c 06 0b ce 3c ed 19 90 3b 2e 11 6d bb
       0.028823175 0.02515174 0.004397622 -0.003617357
000150 12 46 47 bb 8c d4 04 3d e8 db 4d bc d2 f6 46 39
       -0.0030406755 0.032429263 -0.012564637 0.00018974699
000160 74 ab d9 3c b0 4d a3 ba e7 7f 15 bc 34 64 1f bc
       0.026571013 -0.0012459066 -0.009124733 -0.00972848
000170 85 b2 c6 3c 25 17 c1 bc 7e 77 f7 bb ea 5f fc 3c
       0.024255047 -0.023570606 -0.0075520864 0.030807454
000180 b6 f2 b0 bc 04 83 bf bc da 19 0a 3b 41 b4 8d 3c
       -0.021600109 -0.023377903 0.0021072538 0.017297866
000190 70 db 27 bc 0e c9 97 3a 79 aa 86 bb 60 c8 91 3c
       -0.010245189 0.0011580305 -0.0041096774 0.017795742
0001a0 8c db 17 bc 3b 03 d0 bc e1 7c e0 bc f0 94 8d 3c
       -0.009268653 -0.025392165 -0.027403297 0.017282933
0001b0 e9 46 b5 bc 67 37 80 bc 83 33 89 3c 89 a4 b7 3c
       -0.02212854 -0.015651418 0.016748196 0.022417324
0001c0 8c 18 03 3d e5 79 54 bb ee 44 f5 3c 70 f8 8b 3b
       0.03200583 -0.0032421288 0.029940095 0.0042715594
0001d0 85 49 06 bc ba 0b 05 3d 08 e9 dc bc c4 14 76 ba
       -0.008196239 0.032481886 -0.026966587 -0.00093872496
0001e0 cf 17 65 ba da 11 aa 3a 41 12 b4 bb 74 a9 aa bc
       -0.00087392045 0.0012975291 -0.00549534 -0.020832755
0001f0 01 fb de 3c 3a 50 a7 3c 17 f1 9b bc df d8 81 3c
       0.027219297 0.020423997 -0.019035859 0.015850483
000200 c2 6f 8a 39 46 33 b6 bb 86 fb be bc 80 d5 bd bc
       0.00026404677 -0.0055603115 -0.023313295 -0.023173094
000210 c4 b4 1b 3c 0a 4d e3 3c 3f b4 5e 3c f0 ee 6c bc
       0.009503547 0.027746696 0.013592779 -0.014461264
000220 52 b8 8f 3c 6a e9 ec 3c fb c2 ad 3c b3 f8 e7 bb
       0.017543945 0.028919894 0.021211138 -0.007079208
000230 ad 48 87 bc a3 2b 20 3c 63 f9 27 3c eb 6c 89 3b
       -0.016514147 0.009776029 0.0102523295 0.0041938922
000240 93 13 99 bc 5e d3 be ba b3 90 1c bb de 31 28 bb
       -0.018686092 -0.0014558842 -0.0023889958 -0.0025664489
000250 10 cf 63 bc b5 b3 35 3a c8 c6 97 3a c5 da 6d 3c
       -0.013904348 0.00069313805 0.0011579627 0.014517491
000260 83 43 16 bc f1 87 de bb 5a 6b 2f 3c 95 f1 33 bb
       -0.0091713695 -0.006791108 0.010706747 -0.0027457227
000270 1e cd 06 bc 93 f5 f4 bb e2 c6 4e bc b8 f8 c5 3c
       -0.008227615 -0.007475564 -0.01262066 0.02416645
000280 5e b6 c7 3c ae 54 9f 3c 55 a2 13 bc eb 31 b1 bb
       0.024378952 0.019449558 -0.009010871 -0.005407562
000290 f8 fc 5c bc dc 78 a2 3c a1 3a f6 bc c8 e3 eb 3c
       -0.013488047 0.01983302 -0.030057253 0.028795138
0002a0 1d a3 60 bc 65 44 9a bb 82 96 ac bc c1 b2 4a 3c
       -0.013710764 -0.0047078603 -0.021067861 0.01237172
0002b0 e3 f1 c6 bb 91 f6 e2 3c 29 bb 5f ba ac a6 c3 bc
       -0.0060713156 0.027705463 -0.0008534664 -0.023883186
0002c0 89 dc 28 bc 81 06 84 bc c3 7b e0 bc ac 58 04 3d
       -0.010306486 -0.016116383 -0.027402764 0.032311127
0002d0 f9 fa 71 bc e5 2c a6 bb 4e 05 4d bc ff cb fd 3c
       -0.014769309 -0.00507127 -0.012513472 0.030981062
0002e0 3e 5e 33 bc ad 1b ee bc 0e a2 bd 3b df 48 42 bb
       -0.010947762 -0.029065931 0.0057871407 -0.0029645485
0002f0 10 15 92 3b 99 cb a4 3c 90 41 c7 bb de 09 02 bc
       0.0044580773 0.020116614 -0.0060808137 -0.007936923
000300 91 96 f0 3c 54 4b f8 bc 17 4c a0 bb f8 51 fa 3c
       0.02936867 -0.030309357 -0.004891883 0.030556664
000310 d6 7d 03 3c 85 61 58 3c 2d 38 86 bc 12 2a d0 3c
       0.008025607 0.013206844 -0.016384209 0.025410686
000320 28 55 28 3c 62 a8 73 3c 7c 4d 49 3c a1 c9 c2 3c
       0.010274209 0.014871689 0.01228654 0.023777785
000330 85 c5 de 3b 12 48 ac bb 04 db f8 bb 1a 43 8d bc
       0.0067984485 -0.005257615 -0.007594468 -0.01724391
000340 a9 97 a4 3c fb a1 cb 3b 8a e2 21 bc 7a bd 3d 3c
       0.020091848 0.006214378 -0.009880671 0.011580819
000350 7d b4 18 bb f7 ca a8 bb 2d d5 01 3d c5 5b 82 bb
       -0.0023300939 -0.0051511484 0.03169744 -0.003978225
000360 02 0a 83 bb 99 e1 00 bc af e5 64 bc 21 79 9d 3c
       -0.0039989958 -0.007866287 -0.013970776 0.019222798
000370 e5 06 8b 3a 16 6b 39 bc 32 9b 01 bc 2e a3 a4 bc
       0.0010606913 -0.011317035 -0.007910537 -0.020097341
000380 23 01 e5 3c 22 8c 85 bc 06 0e 98 bc 7f 21 ff ba
       0.027954644 -0.016302172 -0.018561374 -0.0019464939
000390 9f 6c 05 bd d5 7a f4 bc 63 2b 6f ba 05 fc a2 bc
       -0.032574292 -0.029843727 -0.00091235916 -0.019895563
0003a0 df b8 92 bc 26 f1 50 3b ca 27 c7 3c ed e3 41 3c
       -0.017910419 0.0031882017 0.024310965 0.011834127
0003b0 fb 5b 3a 3b 46 75 d0 bc 46 ba d2 bc 16 4b ac 3c
       0.0028436172 -0.025446545 -0.025723588 0.021031898
0003c0 d1 62 b5 bb 24 59 6b 3c 53 e2 0f 3c b4 b9 bb 3c
       -0.0055354615 0.0143645145 0.008781987 0.022915699
0003d0 3c 59 89 3c 9b 72 52 bc 9a 1f 9d bb d4 cd c8 3b
       0.016766183 -0.012844707 -0.004795027 0.0061280522
0003e0 56 d2 3c 3c 1e 2a a8 3c 0f e9 61 3c 77 d7 9d 3a
       0.011524757 0.020527896 0.013788476 0.0012042363
0003f0 94 60 f8 3c 3f 2b 12 bc 02 42 e8 bc 30 c0 74 3c
       0.03031949 -0.0089214435 -0.028351787 0.014938399

bias f4 [64]
000000 5d 55 de bb 3a eb 73 3b 41 60 dc 3b 55 87 c9 3c
       -0.0067850784 0.0037219063 0.0067253415 0.024600664
000010 5c 2e 6e 3c af 1f e5 3b ae a3 1b bc b5 d7 22 bd
       0.01453742 0.0069923024 -0.0094994735 -0.039756496
000020 85 e0 dd bc 78 aa 03 bb 49 7c bb bc 07 d4 14 bb
       -0.027084598 -0.002009062 -0.022886412 -0.0022709386
000030 c8 65 cf 3b 25 ec f5 bc 1a 9e 2b bc a9 ee 02 3d
       0.006329272 -0.030019829 -0.010474706 0.031965885
000040 f0 50 a5 3c 0f 91 b3 3c 74 08 52 bb 39 6d 22 3b
       0.020180196 0.021919755 -0.0032048495 0.002478434
000050 cd c2 90 bb bf ce a5 3b 9e 90 12 bd 62 1a e9 ba
       -0.0044177533 0.0050600464 -0.03578245 -0.0017784352
000060 26 dc a1 bc e2 fd 47 ba eb 76 e5 bc 8f 61 3a bc
       -0.019758295 -0.0007629079 -0.028010806 -0.011375799
000070 55 89 6a bc d5 00 6c 3c 0c ef 0f 3d aa 2c a4 3c
       -0.014314969 0.014404495 0.035140082 0.020040829
000080 ff 76 fc 3c 48 6e 27 3d 13 e4 4f bd 32 31 d6 3c
       0.03081846 0.040876657 -0.050754618 0.026146505
000090 9a d5 80 bc f0 34 1c bc 5f 8c 73 bb 15 e0 3a 3c
       -0.015726853 -0.009534106 -0.0037162525 0.011405964
0000a0 19 9c 27 bc ee b2 96 bc af 35 82 3c e2 35 79 ba
       -0.010230088 -0.018395867 0.015894739 -0.00095066254
0000b0 dc 22 bf ba e4 16 cd 3c a3 6b 01 bd 78 d6 c8 3b
       -0.0014582532 0.02503533 -0.03159679 0.0061290823
0000c0 fa f0 aa bc 0f 4d 02 3d 72 5f e9 3c a8 65 9c 3c
       -0.02086686 0.03181177 0.028487895 0.019091442
0000d0 08 5a c0 3c 0f 4d c8 bc 73 22 0f bd 35 2a 4f 3c
       0.02348043 -0.024450807 -0.034944963 0.01264434
0000e0 78 46 b6 bc 2e 7c eb bb da cd b5 bc 51 c8 14 3c
       -0.022250399 -0.007186434 -0.022192884 0.009080962
0000f0 fb f5 90 bc 8e dd 9d 3c 81 b5 ce bc d4 b2 21 bd
       -0.017695418 0.019270685 -0.025233032 -0.039477184

weight f4 [10, 64]
000000 56 03 d0 bd c6 f9 ac ba 28 07 53 3d f9 c8 1b bd
       -0.10156886 -0.0013196997 0.051520497 -0.03803346
000010 fa df 36 bc 3b a3 b1 bd 92 80 ae bd e1 33 50 3d
       -0.011161799 -0.08673712 -0.085206166 0.050830726
000020 59 aa 01 be 18 47 44 bd 43 19 16 3d 0d a6 64 bd
       -0.12662639 -0.047919363 0.036645185 -0.05582242
000030 28 9c 4c 3d 5d d8 98 3c 08 e7 69 3d 25 1e 06 be
       0.04995361 0.018657858 0.057105094 -0.13097437
000040 7a 18 e6 3d 49 54 1c 3d cf 8a 9b 3d 65 3e 47 bd
       0.11235137 0.038166318 0.07594835 -0.04864349
000050 ac 98 fa 3d dc 85 8c bd 0f b5 27 3d 01 35 fd 3d
       0.12236151 -0.06861469 0.040944155 0.12363625
000060 92 5a 9f 3d 41 ef 06 3e a9 e5 a5 3d 50 77 db bc
       0.07780947 0.13177206 0.08100445 -0.026790291
000070 8c 91 16 bd c3 86 92 bd 83 ba 30 bd e5 7c 4b 3d
       -0.036759898 -0.0715461 -0.04314662 0.049679656
000080 30 9d 26 bd f7 ee c5 bd 42 cf 04 3e 41 b0 6b bd
       -0.04067725 -0.096647196 0.12969688 -0.057541136
000090 e2 c1 3d 3d ea 82 fb bd 80 4a 1c 3c dc 08 cf bd
       0.04632748 -0.12280829 0.009539247 -0.10109112
0000a0 62 fb e1 3d 4d f6 b9 bd 51 ba 0d be d6 7f 0c 3c
       0.110342756 -0.09080181 -0.13840605 0.0085754
0000b0 f6 b0 97 3c b9 39 95 bd 09 63 af 3d c4 c9 1b 3d
       0.018516999 -0.072864 0.08563811 0.038034216
0000c0 eb 56 e5 3d 16 fc 06 bd e5 47 c6 ba d9 61 8b bd
       0.11198219 -0.03295525 -0.0015127627 -0.06805772
0000d0 a5 05 f7 3d f0 2b 8d bd 04 ba ea 3c e0 fc 7c 3d
       0.120616235 -0.06893146 0.028653152 0.061764598
0000e0 bc c2 f9 3d de 7e e2 bc a2 ea ab 3d 07 1a 8c bd
       0.12195346 -0.027648386 0.08394362 -0.06840902
0000f0 0d 73 ef 3d ba d9 21 bc ab 93 74 3d 1c 53 fb 3d
       0.11691866 -0.00987857 0.05971114 0.12271711
000100 b6 a7 9b 3b 40 f9 57 bd 32 43 df bc 3c 47 84 3d
       0.0047502173 -0.052727938 -0.02725372 0.064588994
000110 06 f8 a7 bd e6 bd 1b bd 80 70 e9 bd 86 96 f4 bb
       -0.082016036 -0.0380229 -0.11398411 -0.007464233
000120 bd b1 ea bd d7 07 98 bd 3e 36 13 be a9 d2 cb bd
       -0.11459682 -0.0742337 -0.1437616 -0.099522896
000130 2c f5 c2 3d 98 cc fa 3d d0 69 36 bc b0 b3 01 3d
       0.09519419 0.122460544 -0.011133626 0.031665504
000140 3d 49 d3 3d 98 da 05 3e 64 ab 59 bb 14 d4 e9 3c
       0.103167035 0.13071668 -0.003321373 0.02854351
000150 3e cf 9b bd 96 a5 94 bd 09 cc b0 bd 92 a9 63 3d
       -0.07607888 -0.072581455 -0.086326666 0.055581637
000160 57 2d 00 3d 7f 96 9a bc 6a b2 04 be 79 d9 ad bc
       0.03129324 -0.01887059 -0.12958685 -0.021221863
000170 6f 69 ee 3d ee 0c c2 bc f3 10 62 3d b6 85 ca bd
       0.116412036 -0.023687806 0.055191945 -0.098887846
000180 9e a7 0d be 6f 69 15 3d aa 19 af 3c c9 7c 85 bd
       -0.13833472 0.036477502 0.021374542 -0.065179415
000190 bd f2 a6 3c ff 1f 14 3d 5b 42 16 bd 39 64 ff 3a
       0.020379419 0.036163326 -0.036684375 0.0019484825
0001a0 b7 ac 3c 3d e9 16 48 3d 8d 17 10 3e 81 a8 a4 bd
       0.04606315 0.048849974 0.14071484 -0.08039952
0001b0 b9 90 e0 bd 01 c5 03 3e cd b7 ad 3d b8 34 95 bc
       -0.10965104 0.1286812 0.08482323 -0.018213615
0001c0 89 35 bb bd 43 69 b4 bd bf a6 85 bd fa 27 90 bc
       -0.091410704 -0.088091396 -0.06525945 -0.017597187
0001d0 7b e2 2b 3d 31 ad e0 bd 83 16 d5 3d 14 09 e5 bd
       0.041964035 -0.10970534 0.104046844 -0.11183372
0001e0 7b fe c4 3c ea 58 3b bd 1b 1d 5d bd 58 8d 92 bc
       0.024047127 -0.045739092 -0.053982835 -0.017889664
0001f0 69 7c 0c be ba ac fa bd 82 33 af 3d 97 e8 a6 bd
       -0.13719334 -0.12239976 0.08554746 -0.08149832
000200 54 86 4a bd 2b cf ee 3d 5c 3a aa 3c e9 3f 23 bd
       -0.04944451 0.11660608 0.020779781 -0.03985587
000210 88 eb e6 3d b4 a2 c0 3d c6 04 e3 3d 59 61 34 3d
       0.11275393 0.09406033 0.11084895 0.04403815
000220 18 54 ae 3c 2d 00 8d bd ea ba a2 bd 46 8a b1 bc
       0.021280333 -0.06884799 -0.07945807 -0.02167238
000230 35 d4 86 3d 6d 19 66 bd a0 54 06 be c7 10 3f 3d
       0.06583444 -0.05617659 -0.1311822 0.04664686
000240 06 3d fb bd e4 2e b8 bc 68 a2 e3 bd e3 b7 66 bd
       -0.12267499 -0.022483297 -0.11114961 -0.05632771
000250 ef db a5 bd 52 06 e7 3d f8 77 c9 bc 24 e3 c7 bd
       -0.0809859 0.112805024 -0.024593338 -0.097601205
000260 a9 08 4a bd 04 e4 ca bd 46 f0 0b 3e 2f d6 bf 3d
       -0.049324665 -0.09906772 0.13665876 0.09367024
000270 b7 63 64 3d 1b 25 da 3d 3c 9c 8b bd 09 ec 64 bd
       0.055759158 0.106516086 -0.06816909 -0.055889163
000280 fa b5 dd 3d c6 80 25 bc 21 31 bc bd 5b 6f 3a bd
       0.10825725 -0.010101503 -0.09189058 -0.045516353
000290 e4 25 a0 3d 76 25 88 bc d7 25 c5 bc 35 8e e5 bd
       0.07819727 -0.016619425 -0.024065895 -0.112087645
0002a0 cd 06 79 3d ae c6 25 3d e7 dc a8 bd 18 c1 39 3c
       0.0607975 0.04047268 -0.08245259 0.011337541
0002b0 c4 eb 2e 3c 60 d6 d5 3d 96 74 f1 3d b7 78 e1 bd
       0.010676328 0.104412794 0.11789815 -0.11009353
0002c0 61 9c cb bd a0 89 95 3c 8c b0 8f 3d a4 e6 83 3d
       -0.09941936 0.018254101 0.070160955 0.064404756
0002d0 44 a4 17 3d 70 f9 cf bd 24 b9 b0 3d 28 bc 7c bd
       0.03702189 -0.10154998 0.08629063 -0.061702877
0002e0 e1 de 3a 3d 51 2a e8 3d fa 1c ce 3d 49 fd d4 3c
       0.04562271 0.11336196 0.100641206 0.025999682
0002f0 c0 63 bd 3d 57 9f f5 3c d2 94 cd 3b ca 52 17 bd
       0.092475414 0.029983206 0.0062738443 -0.03694419
000300 54 29 e8 3c 49 3c 2d bd ec 18 b5 3d b4 da 01 be
       0.02834002 -0.04229382 0.08842644 -0.12681085
000310 80 66 a2 bd 3c 96 74 3d 8b 93 9e 3d 35 c7 23 bd
       -0.079297066 0.059713587 0.07742985 -0.0399849
000320 a3 1b df 3d 38 7e f1 bc e2 68 54 bd 31 cf 0d 3d
       0.10893943 -0.029479131 -0.051857837 0.03462142
000330 09 ac 1c 3d 2d b9 73 bd c1 04 81 bd 23 41 08 be
       0.038250003 -0.05950277 -0.06299735 -0.13306098
000340 c7 2f 0c bc f6 e2 c8 bd c6 f7 aa 3d 11 8e cb bd
       -0.008556313 -0.09808914 0.0834804 -0.099392064
000350 0e 9b 94 3d bc 8c cd 3d 7e ed 4b 3d 2d 61 df bd
       0.07256137 0.100366086 0.049787037 -0.10907207
000360 44 a0 b4 bd 8e 3a ac bc 07 f5 82 3d 73 ec 72 bc
       -0.08819631 -0.021024015 0.063943915 -0.014826882
000370 dc 49 a2 3c 6e ad 5a 3d 21 28 09 bd 8d 5b c1 bd
       0.01981061 0.05338805 -0.033485536 -0.0944129
000380 85 2d b3 bd d5 59 b1 bd 13 ba e7 3d 3a 71 d9 bd
       -0.087489165 -0.08659712 0.11314788 -0.106172994
000390 e5 51 e4 bd 93 b3 8e bc c7 39 bc bd 3d e6 f0 bb
       -0.11148433 -0.017419612 -0.09190708 -0.0073516653
0003a0 67 b5 01 be 89 58 47 3d ff 90 83 3d 29 68 d9 3d
       -0.12666856 0.048668418 0.0642414 0.1061557
0003b0 63 c1 41 3d ec 58 8a 3d 04 c1 ac bd 68 52 86 bc
       0.04730357 0.06755242 -0.08435252 -0.016396716
0003c0 4a 44 83 bd 96 2f fd bd 9a 51 31 bc 46 90 b4 bd
       -0.064095095 -0.12362592 -0.010822678 -0.088165805
0003d0 68 10 b4 3c fa 08 57 bd 3f 60 cc bd d5 d0 df bd
       0.02198048 -0.052498795 -0.09979295 -0.109285034
0003e0 21 c1 d4 3d a5 ae 70 bc 1f 8e 7f 3d f9 7a 9c bd
       0.10388399 -0.014690076 0.062391397 -0.07640643
0003f0 38 b5 0a bc 59 34 8e 3d 37 03 98 bd 39 e2 ff bd
       -0.0084660575 0.06943578 -0.07422488 -0.124943204

bias f4 [10]
000000 95 90 03 bd dc 82 8a bc 23 b3 da 3a 99 9e 9e bc
       -0.032120306 -0.016908102 0.0016685467 -0.019362735
000010 08 c9 d8 3c 05 05 d3 3d 21 50 ee 3d c8 ca 3c 3d
       0.026463047 0.10303692 0.11636377 0.046091825
000020 40 cf 06 3d 48 4f bd bd
       0.032912493 -0.09243637
