tudui_2.pth (torch, 587967 bytes, 10 tensors)

weight f4 [32, 3, 5, 5]
00000000: c315 523c 7e24 943d 157c 173d b608 acbd
00000010: 6f70 693d f209 353c 7a8d f43d f1ed 893d
00000020: 739e 9b3b 64c1 b73c d725 e83d 995e b33c
00000030: 1337 123e 035a b63c a627 ee3c ab23 b03a
00000040: 1db7 5a3d d330 193d dd7b 93bc a50a ef3d
00000050: 02df 7cbb a1a7 ee3d 2299 06bd 6d11 28bd
00000060: 7761 423d 771b debb e66a 51bd 287f a43d
00000070: 5c5d a93d 0ad0 e1bd 4069 4e3d b23f d4bc
00000080: 57e9 b53d c843 c6bd 8734 7dbd bc90 9ebb
00000090: 19cb 753d a411 c9ba 5cd6 a83c f90f 9dbc
000000a0: 8f80 56bd 69f8 2bbd 6c53 e7bd 80c0 843d
000000b0: 47c1 31bd 3b49 c3bd 6290 63bc 9cc0 c8bd
000000c0: d084 d9bd e6aa 663d 1c91 32bd 3cdb 1e3c
000000d0: 346d acbd ff6e b6bd 5934 553d a60a d0bd
000000e0: e09e 203d 48a5 453d 1ce6 10bd 84c5 e2bd
000000f0: 3bba 1bbd 8b59 e8bc 0550 c83d 36d8 b13d
00000100: b2bf b23c 4435 7d3d 3761 dfbb 7eca bf3b
00000110: 4e96 723d f60a b0bd 5a9b f4bd f9ec c33d
00000120: a020 f5bd f71e 0bbe caf5 94bd cec6 673d
00000130: 39ab 1d3d df0a d23d 766b 04bd f8b5 fbba
00000140: 5679 353d cb3f 16bd 280b 81bd a5ad 9ebd
00000150: a377 363d 1873 0bbc 4392 cdbd 99f9 133d
00000160: 2b98 f9bd 5915 cdbd fac7 b6bd 219a 63bd
00000170: 7ac7 9bbc e18e e13b f68e 9cbd f9d7 a4bd
00000180: 23b2 12bd dfd4 2a3d c498 6e3d daae d6bc
00000190: 8308 9ebd 9af4 a3bd f398 b4bd 5eaf ab3d
000001a0: f6a5 9dbc c93b 6b3d 4173 90bd 3543 e63c
000001b0: 66a2 25bd af83 8c3c fee2 82bd cee9 d3bd
000001c0: e418 03be 7d28 27bd cd59 813d 4f3d 2bbe
000001d0: 8320 27be 9e87 a3bd d39b 47bd 1fc0 983b
000001e0: 9ab2 94bd 8ee6 96bd ddb5 5b3d e1d7 96bd
000001f0: 8d2e ddbb a728 3c3d f3e3 ed3d 1822 91bd
00000200: 6e0f 44bd 8e21 063e 6ee3 cf3c d8cd ddbd
00000210: 749d ac3d f13c 83bc ed46 81bd cb9e c3bd
00000220: 5fa4 043d 19e1 b93d 90f9 cf3d 221f 3bbd
00000230: 12a8 edbd 7501 08be a0dd a1bd 2d79 803d
00000240: 6d3b 12bd f065 3abc 432e 3e3d da59 98bd
00000250: cf92 343d c505 97bc b048 843c 96c2 adbc
00000260: 9409 9f3d 471b dc3d 8d29 a3bd f68f e83d
00000270: 91cc 753d 16ce b43d 9356 86bd d729 bc3c
00000280: f1d1 70bd 35bb b2bd 91b9 103e caac 39bd
00000290: 1863 853c 985b c7bd 401b 383c f1da ce3d
000002a0: 7308 f6bd e666 913d 36c8 b93c 7d4d a33c
000002b0: 112a cd3c 4778 b4bd 8dff a13b 5b45 cabb
000002c0: 7910 0a3c 663a 293d 9db2 97bd 4070 cebd
000002d0: 9f90 e73d 1c49 47bc 8603 063e 296d b03d
000002e0: 4100 473d 6cfe 013c 9495 72bd 9614 a53d
000002f0: 0d5b 633b 34a2 bcbd 7a4f 803d 71d1 843c
00000300: fbd5 3abd dff9 07bd 6394 6c3c ddae 06bd
00000310: 6104 393d cdfa 9cbd d3d1 89bc 5469 d5bd
00000320: f3bc d83c 4dc4 313c ef29 94bb 30e9 c7bd
00000330: f3a0 6b3d 9563 cabd f03d 0538 4f2c ba3d
00000340: d8c5 593d c507 a1bd 65bd 1a3d 0e26 963d
00000350: b1e8 853d 4696 f43b 02dd 823d 7031 06be
00000360: bcb5 59bd 29ec e9ba 7739 a1bd a27a 5f3d
00000370: 8b2b 38bd 1e5c 9ebd 50bc 0a3c add1 2dbd
00000380: 8ae4 05be 759a fcbc ff51 cebd 75db d13c
00000390: 67f9 d7bd f302 333d 380d 4c3d 0561 cdbc
000003a0: 42c0 e13b ca74 873d b0a8 53bd c278 83bd
000003b0: 4080 c4bd 52ce 9cbc cb8f a53d ae40 c3bd
000003c0: 9cec f4bd 77d2 f7bd 3f6d 93b9 6c69 f3bd
000003d0: 4cdd c5bd beb1 383c 5853 b5bd 33b6 b9bd
000003e0: eca6 9bbd f16b 2f3d 8077 6abd 99bd 003d
000003f0: 0c64 1d3d e88b 023d c01f ac3d 5253 8ebc
0.012822571 0.07233523 0.03698357 -0.08400099 0.05699199 0.011049734 0.11941047 0.06734837
0.004749113 0.022431083 0.113353424 0.021895694 0.14278822 0.022259718 0.02907164 0.0013438364
0.053397287 0.037400078 -0.018003399 0.11671952 -0.0038585071 0.116530664 -0.032860883 -0.041032244
0.04745623 -0.0067781764 -0.051127337 0.08032066 0.0826976 -0.110260084 0.050393343 -0.025909279
0.08882397 -0.09680897 -0.061817672 -0.004839031 0.060008142 -0.001534034 0.020610027 -0.019172655
-0.052368697 -0.04198495 -0.11295208 0.06482029 -0.043397214 -0.09535452 -0.013889404 -0.09802362
-0.10621035 0.056315325 -0.04359542 0.009695824 -0.08419266 -0.089078896 0.052051876 -0.10158281
0.039214015 0.048253328 -0.0353757 -0.11072829 -0.0380194 -0.02836301 0.097808875 0.08683817
0.021819923 0.061818376 -0.006817009 0.0058529964 0.059225373 -0.08595841 -0.119436935 0.09566683
-0.11969113 -0.13586031 -0.07273443 0.05658608 0.03849337 0.1025598 -0.032329045 -0.0019204011
0.044305168 -0.03668193 -0.06300956 -0.07747964 0.04454769 -0.008511327 -0.10037663 0.036126707
-0.12187227 -0.10013837 -0.08924861 -0.05556691 -0.019016016 0.0068834876 -0.07644455 -0.08049006
-0.035814416 0.041706916 0.058251157 -0.026206423 -0.07716467 -0.080056384 -0.08818235 0.08383058
-0.019244175 0.057430062 -0.07053233 0.028108219 -0.04043808 0.017152635 -0.063909516 -0.10347329
-0.12802464 -0.040810097 0.06315956 -0.16722606 -0.16320996 -0.07984851 -0.04873259 0.0046615745
-0.07260628 -0.073681936 0.053640235 -0.073653944 -0.006749934 0.045937207 0.116157435 -0.07086581
-0.047866277 0.13098738 0.025377002 -0.10830277 0.08428469 -0.01602027 -0.06312356 -0.09551772
0.03238332 0.09076137 0.10155022 -0.045683987 -0.116043225 -0.13281806 -0.079036 0.062731124
-0.035701204 -0.011376843 0.046430837 -0.07439013 0.04408532 -0.018435368 0.016147941 -0.02121095
0.07765499 0.1074739 -0.079669096 0.11355583 0.060009543 0.0882837 -0.065594815 0.02296917
-0.058793966 -0.08727113 0.14133288 -0.0453308 0.016282603 -0.09734267 0.011236966 0.101003535
-0.1201333 0.070997044 0.022678476 0.01993441 0.025044473 -0.088120036 0.004943794 -0.0061728186
0.008426779 0.04131546 -0.07407115 -0.10080004 0.11306881 -0.012163427 0.13087282 0.08614571
0.048584227 0.007934194 -0.05922468 0.08060567 0.0034691722 -0.09210625 0.06265159 0.01621315
-0.045614224 -0.03319728 0.014439675 -0.032881606 0.04517019 -0.07665024 -0.016823685 -0.1042048
0.026457286 0.010850024 -0.0045216004 -0.09761274 0.05752654 -0.09882275 3.1767355e-05 0.090904824
0.053167194 -0.0786281 0.037778277 0.07331477 0.06538523 0.007464203 0.0638981 -0.13104796
-0.05315183 -0.001784687 -0.07872289 0.05456031 -0.0449634 -0.07732414 0.008467749 -0.04243629
-0.13075462 -0.03083537 -0.10074233 0.02561734 -0.105456166 0.043703984 0.049817294 -0.025070677
0.006889374 0.066140726 -0.051674545 -0.06419517 -0.09594774 -0.01914135 0.08084067 -0.09533821
-0.11959192 -0.1210069 -0.0002811942 -0.11885342 -0.0966135 0.011272846 -0.08853787 -0.09067955
-0.07600197 0.04282755 -0.05724287 0.031430814 0.03842549 0.031871706 0.08404493 -0.017373715

bias f4 [32]
00000000: 0c07 febd f561 243e 7da6 b73d 6341 edbd
00000010: de5b bbbc 1728 6ebd a4c6 afbd 5bbb 3c3c
00000020: 9f9e 31be 480d 353d c073 833e ca89 ad3c
00000030: 1ea7 013e 98d2 02be 72f7 b7bc 4ee9 1e3e
00000040: 38f8 b5bd e343 84bc f9b5 10be cee6 ebbd
00000050: 4872 0c3e ddcc e7bd c45f 8c3d 39eb d9bd
00000060: af4b 10be 3b2a fb3d 6732 abbd 9860 bc3d
00000070: 3a94 32be 54a9 043e 308d 5dbe b0d6 f0bd
-0.12403688 0.16052993 0.08967302 -0.11584737 -0.022870954 -0.0581437 -0.085828096 0.011519278
-0.17345665 0.04420212 0.25674248 0.021183867 0.12661406 -0.12775648 -0.022456858 0.15518686
-0.088852346 -0.016145652 -0.14131917 -0.11518632 0.1371547 -0.113183714 0.06854203 -0.10640568
-0.14091371 0.12263914 -0.08359223 0.09198111 -0.17439356 0.12955219 -0.2163589 -0.117596984

weight f4 [32, 32, 5, 5]
00000000: 98be 4abc 50c7 193c 7e3d 42bc 884e 20bb
00000010: b070 df3c 02a4 103d 6cc5 aa3c 799b c4bc
00000020: d4d5 c73c 0492 093d 6499 62bc 8a26 c1bc
00000030: 65e8 b93c e3f8 bdbc 1abe 97bc 6fd8 173d
00000040: b79a daba b0c7 f23a 25a1 303d 3f59 af3c
00000050: 50d0 faba 49b4 a63c 2e75 0b3d 0456 01bb
00000060: 0c2a 163c 042a 983c 164a e33c 0cc7 973c
00000070: 180d 083d f325 a13c c8ba 5e3c 06a2 ecbc
00000080: 50f6 8b3c 269e 31bd ebc2 eabc 292f 953c
00000090: b64c f1bc bee7 43bd 5813 98bc c84d a23b
000000a0: d4dc 0e3c 6dcc b03c 6af4 f43b b51b fe3c
000000b0: 149d 10bc 2040 82bb 0f85 7f3b 1b29 3b3d
000000c0: 2c71 663d a33b 403d b396 9fbc 2533 683b
000000d0: 28c6 3c3c 0303 00ba b0c3 cdbb 5777 05bd
000000e0: 61b7 d53b 8c2b 9abc 6802 8fbc ca1f c03c
000000f0: 4bc6 043d 0a88 ff3c db07 abbc 2bd6 683c
00000100: a638 f4bb d09c 6e3c ec03 0d3d 784f 3fbc
00000110: 0d5a afbc f62e 8c3c 2f95 1bbb d1d2 c93c
00000120: 1320 07ba 580b 153c c16e 03bc f106 863c
00000130: 8920 2e3d e05d 393b e57e d0bc c606 da3c
00000140: 8b9c 383d 97ba 0f3c 442e d1bc 03c9 d23c
00000150: 973d a73c 28d3 18bc bb09 3c3d d785 89bc
00000160: c1ce 9a3c 5edb eb3c 8ba9 3c3d 185c 473d
00000170: a5fe 743c df4b 2abc c49c 8ebc c7c3 88bc
00000180: c4ac 403d 851b 45bc adaf 413d e733 87bc
00000190: 2c32 a0bc 5d3a 0e3a 09ed 393d 9566 303d
000001a0: edf9 c1bb 455d c03c 944c 4b37 e82d 243d
000001b0: 28b2 253c 9343 103d 77a8 f2bc 05c2 1bbc
000001c0: 3624 feb9 537a 1c3c 7ebc 57bc 8c54 e33c
000001d0: 2e26 8dbc 253d c13b 67c5 2a3c e7f1 28bb
000001e0: 6827 793c 3ae4 bc3c d1f2 b6bb d41f 0dbd
000001f0: f08b dbbc 6cce babb 4a4c 323b d10f 7c3c
00000200: ec36 ccbc 9243 1e3c 25e5 bebc 1203 9e3c
00000210: f563 343d 26d1 4f3b 60f5 bf3c 21b6 913a
00000220: 1b6d 213d d247 7a3c 39c2 413b 7bad eebb
00000230: 085d d73c 14a4 eb3c e740 953c 86c4 c63c
00000240: 66df 8cbc 4e81 ab3c 9ee5 16bd 6f6e 1ebb
00000250: c451 0bbd 079c 06bd 8a84 f83b 7e8f bebc
00000260: 73f3 0c3d f827 033d 2461 b83c b171 5cbc
00000270: 9a3f fe3c 55f7 bf3c 8c2c 883c 2753 273d
00000280: 8824 3337 9c0b e53c 6aed a03b 3f92 1e3d
00000290: 8e35 f93c 1166 d4b9 196e 4c3c 828d 5f3a
000002a0: a130 86bc 77c4 97bc 1b05 1c3d e41a 07bc
000002b0: 2d50 003d 7e3c 1c3c 2802 89bb 075d c8bc
000002c0: 07d8 a5bc 5466 08bc a8be 553c 0963 d2bc
000002d0: fd6e 183d ad70 803c 865d acbc bacf 19bc
000002e0: 6d86 adbc f1b4 893c 38a0 23bb 825c 163d
000002f0: 237f 1b3d 1453 4c3a 2c2e 213d 0296 273d
00000300: dc41 7b3c 8a84 cd3c 69df 66bc c5d9 5dbc
00000310: 5599 333d 256c 2d3d cd72 153d ef6d c13c
00000320: fb96 093d a77c ab3c 4efa 203d 47e2 9ebc
00000330: f34a cb3a 610b 9fbc d8b0 6a3c 9da9 3c3b
00000340: 0b3d b33c bd25 00bb 9641 243d 8c01 8a3c
00000350: 4904 b33c 1191 883c a57d b2bc 08c4 c1bc
00000360: b676 bfbc 41c1 b83c e8ed 373b a9d1 20bc
00000370: 784b 053d fb5b 173d 4c41 f23c b317 aabc
00000380: ad22 80bc 5cd9 d2bb 4e4b a9bb 5db2 69bc
00000390: c413 32bd c93c 33bd ae12 3dbc de03 073c
000003a0: 1d16 253c 83c3 9dba cb33 caba a45c c8bc
000003b0: 88ef 31bc dd09 09bc 68bf 0dbc e638 87bc
000003c0: 3f12 033d 9d0d dc3b 28bc 873b 63c4 b23c
000003d0: 0912 a33c 10f9 e63b 1c5e 273d f749 00bc
000003e0: 8d96 89bc be33 573c ccbe f6bc cd99 b1bc
000003f0: c6a8 c0bc e4ce 96bc f309 0cbd b3d8 c5bc
-0.012374543 0.009385899 -0.011855481 -0.002446087 0.027275413 0.03531266 0.020846091 -0.023999916
0.024393953 0.033586517 -0.0138305165 -0.023577947 0.022693822 -0.023189967 -0.018523265 0.03707164
-0.0016678189 0.0018522646 0.04312243 0.02140486 -0.0019135568 0.020349639 0.034047298 -0.0019735107
0.009165298 0.018574722 0.027745288 0.01852753 0.033215612 0.019671416 0.013594337 -0.028885853
0.017085224 -0.043363713 -0.028657397 0.018210964 -0.029455524 -0.04782843 -0.018563911 0.00495312
0.008719642 0.021581853 0.0074754255 0.031019071 -0.008826513 -0.0039749295 0.0038989221 0.045693498
0.056260273 0.046931874 -0.019481039 0.0035430875 0.0115218535 -0.0004883261 -0.0062794313 -0.032584514
0.0065221046 -0.018819593 -0.017457202 0.023452658 0.03241567 0.031192798 -0.02087777 0.014211218
-0.007453042 0.014563754 0.03442757 -0.011676662 -0.021405244 0.017112236 -0.0023740043 0.024636658
-0.0005154621 0.009096943 -0.008022011 0.016360732 0.042511497 0.0028284714 -0.025451133 0.026614558
0.045071166 0.008772514 -0.025534756 0.025730615 0.02041511 -0.009327687 0.045907717 -0.016787453
0.018897416 0.028791126 0.046060126 0.04867181 0.01495329 -0.010394066 -0.017408736 -0.016694916
0.047039762 -0.012030487 0.047286678 -0.016504241 -0.019555174 0.0005425567 0.04539207 0.04306658
-0.005919686 0.023481974 1.2117573e-05 0.040082842 0.010113277 0.035220694 -0.029621346 -0.009506707
-0.00048473635 0.009550649 -0.013167499 0.027750276 -0.01723012 0.0058971816 0.010423041 -0.002577895
0.015207149 0.023058046 -0.005583145 -0.03445418 -0.026800126 -0.005700877 0.0027206116 0.01538463
-0.024928533 0.009659665 -0.023302624 0.019288573 0.04404064 0.0031710356 0.023432434 0.0011116901
0.03941069 0.015275912 0.0029565229 -0.007283864 0.026289478 0.028764762 0.018219424 0.024263632
-0.017196368 0.02093568 -0.036840074 -0.002417471 -0.034013525 -0.032863643 0.0075841593 -0.023261782
0.03441186 0.03202054 0.022507258 -0.0134548405 0.031036187 0.023433367 0.016622804 0.040850785
1.0677737e-05 0.027959637 0.0049111145 0.03871369 0.030421045 -0.00040511836 0.012477421 0.0008527861
-0.01638061 -0.018526299 0.038090806 -0.008246157 0.03132646 0.009535907 -0.0041811652 -0.024458421
-0.020244611 -0.008325178 0.013045944 -0.02568199 0.03721522 0.015678728 -0.02104069 -0.009387905
-0.021182263 0.016809912 -0.0024967324 0.036709316 0.037963044 0.0007794362 0.039350674 0.040914543
0.015335526 0.025087614 -0.014091351 -0.01354069 0.0438474 0.042339463 0.036486436 0.02361199
0.03359125 0.020933462 0.03930121 -0.019395007 0.0015510008 -0.019414606 0.014324389 0.002878762
0.021879693 -0.0019553744 0.04010161 0.01684644 0.02185263 0.016670736 -0.021788428 -0.023653045
-0.023372035 0.022553088 0.0028065387 -0.009815612 0.032542676 0.036952954 0.029572152 -0.020763254
-0.015641535 -0.0064346027 -0.0051664477 -0.0142637165 -0.04347588 -0.04375914 -0.011540098 0.008240668
0.010076073 -0.0012036416 -0.0015426812 -0.024458237 -0.010860331 -0.008364168 -0.008651592 -0.016506623
0.031999823 0.00671549 0.004142303 0.02182216 0.01990606 0.0070487335 0.040861234 -0.007830135
-0.016795421 0.013134895 -0.030120276 -0.021679783 -0.023517977 -0.0184092 -0.034189176 -0.024151182

bias f4 [32]
00000000: 0181 2ebd 4745 fd3c cd4b 803c 204b 6abc
00000010: 5c4d b23a 97ac abbd 755a 1fba befc 3dbd
00000020: 1714 02bd f2c2 efbc 0c90 4a3c 34f6 17bd
00000030: 6df5 05bd e42e f73c 76f3 2cbd d40e 133d
00000040: a396 87bc e396 b1bd c9c9 56bd a7bb 233d
00000050: 9047 8c3c be65 9b3c 04cc f33c 3392 1d3d
00000060: 7bbf a8bd b8ff f23c 4294 743d 586c 6d3c
00000070: dce4 7dbb 4023 9a3c b03a f4bc fbdc 32bc
-0.042603496 0.030916823 0.015661145 -0.014300138 0.0013603377 -0.08382528 -0.0006078848 -0.04638361
-0.03175744 -0.029267762 0.012363445 -0.037100032 -0.03270476 0.030173726 -0.04222437 0.035902813
-0.016551321 -0.086713575 -0.05243853 0.03997388 0.017123967 0.018969413 0.029760368 0.038469505
-0.08239647 0.029662952 0.059711702 0.014491163 -0.0038741147 0.018815637 -0.02981314 -0.010916944

weight f4 [64, 32, 5, 5]
00000000: 5a4c 4e3b 5476 ff3c 4398 fabb 60dd c13c
00000010: 73d7 36bc 038c 13bd 6a68 00bd 8bf8 7abc
00000020: 0510 8bbc f7c7 9a3c bfb0 483c 9ccc 05bd
00000030: 2b3b fa3c 714e 063c 2287 a03c fc6a febc
00000040: e82b be3c 9117 2e3c 6bc3 f23c cc9a debb
00000050: 41b9 4bbc 565b 953c e6e7 febb 5797 c5bc
00000060: ecb6 e53c c1d5 b7bc 435d 183b 7ef7 623c
00000070: f919 233c 5ce0 6cbc 3dd5 9dbb 2537 91bc
00000080: bb7d 563c f22f f53c e449 af3c 8b1a e6bb
00000090: 8fdf b1bc e232 34bc ed7a 92bc 3eab 17bc
000000a0: e8a4 ddba dede 80bb 7665 10bd 9fe7 bd3c
000000b0: 3ced 0dbc a4f8 903b aae7 91bc b385 74bc
000000c0: 667c 06bd 7a23 d9bc d9df 723b ee9d febc
000000d0: 5432 d53c 4457 d4bc bd38 d43c 8de1 153d
000000e0: 44c9 e53c ca68 6bbc ca72 313c fbcc 003d
000000f0: c127 0d3d cf33 9e3c 6af8 223d 4cf3 d0bc
00000100: c75d 2fbb 7a6d 03bb 63c1 113d 7ceb e4ba
00000110: f186 eeba 000c 00bd 1358 c13c 5594 3cbc
00000120: 99aa c23c 9705 a33c 9129 1bbc dcad f5bb
00000130: b30c d8b9 88e6 b03c 2d86 96bc c1cb 103d
00000140: 24d8 2b3b 0275 d13b 8e78 a63a 11e5 efba
00000150: daee a9bb 0a45 ef3a a31f 8dbc e3b1 ea3c
00000160: 5f27 7fbc 69b2 863b 1775 043d 7681 253c
00000170: a1b4 f23b a6a9 51bc 246c b4bc f11d aa3c
00000180: 699c 1d3c dd58 52bc 4c7f d3bc b38c 8a3a
00000190: 750a 693a 9b7b 423b b86f 673b 8d21 c53c
000001a0: 5ae0 553c 2ef5 0bbd c6ef e93c 25fe 513c
000001b0: e491 07bd 7f03 eabc 0940 d13c 86e6 9cbc
000001c0: 80ae 01bb 9088 ebbc b69a 9e3c 491c b3bc
000001d0: 3495 fbbc c4f2 07bd 6d54 41bc 9c0b 16bd
000001e0: 97e7 f7bc 6365 a73c fee1 d53b 67ba 23bb
000001f0: b917 54bc 569a 98bc e163 923c 1819 b93c
00000200: 8333 40bb 28ee 183d 3268 003c 751e 6bbb
00000210: 6a75 b4bc 0fbe f9bc efe0 d03c d2c7 a33c
00000220: 32f3 623c 5e55 ea3a aedf 183d ac95 7bbb
00000230: 11a8 563c 4f75 e23c 48bb a63c 081e e03c
00000240: e6a9 94bb 785c e0bb b783 14bd 06cf debc
00000250: 535b ecbc 2403 1ebd 9fc6 fdbc 2504 a4bc
00000260: d5dd 83bc ab9b 84bc 5955 783c 254f 93bc
00000270: a6df bdbc ec4d 443c c367 6a3c 86b7 e33c
00000280: 201f 433c b74a 033d 66f1 eb3a 35ba 3b3b
00000290: 93b0 a73c 26ae 85bc ccfc 7ebc efdc 023c
000002a0: 320c b6bc 0b8c 593c 9c71 af3c e9e3 993c
000002b0: 7cc2 14bc ca2c e13c 49f0 adbc 7f63 863c
000002c0: e6f8 a4bb 6da6 3c3c bf46 1abc 0a3e f9bb
000002d0: 8d72 3b3a daad 0d3d 410f 87bb bc3c b4bc
000002e0: 2dbb 033d d221 49ba 193f 87bb 3f97 06bd
000002f0: 85a0 b53c 42ba 23bd 227a 4cbc 16e1 a73a
00000300: baa3 f13b a9cd 153c 3f0b 05bc 968d 623c
00000310: 13e4 1ebc a95e 3d3c 28ad 20bc 9483 c73c
00000320: 4022 d73c e9cc 55bc 06d3 a93c e70b 053b
00000330: 7ee8 133d 0888 9ebb b572 52bb fcd2 a5bc
00000340: 269a 1f3d 1877 9fbc 7756 093d 4a7e 273c
00000350: 5403 8bbb df48 cbbb a1f8 d83c f5bd be3b
00000360: 09e7 f63c 1b7f c2bb ba68 aa3c 6a36 ddbc
00000370: a5b8 a9bb 24fc 0c3d 8944 0ebd bf97 ddbc
00000380: 6061 263c 1ad2 03bd 8a40 af3c af9a cb3c
00000390: c83e 8b3c 5992 0e3d eec0 b63c 21cd 0cbd
000003a0: 5295 ce3c eb88 8dbc 85c5 8e3c a7f1 083c
000003b0: c035 07bd fba9 773c 464e fabc 6db9 00bc
000003c0: 15ef b9ba d964 923b ac07 d53c ad54 ee3b
000003d0: c6ac 0cbd 5196 f6bb 706c afbc 7870 8fbc
000003e0: 190e 32bb a118 dfbb 9b27 083d 3e1f fbbb
000003f0: 10eb a2bc 4bf8 b53c c26d b53c 8572 e23c
0.0031478615 0.031184353 -0.0076475455 0.02366513 -0.0111597655 -0.036022197 -0.031349577 -0.015318046
-0.016975412 0.018894179 0.012249171 -0.032665834 0.030545792 0.008197413 0.019595686 -0.031056874
0.023214296 0.010625736 0.029634198 -0.0067933556 -0.012434305 0.018232029 -0.0077791093 -0.024120016
0.028041326 -0.022440793 0.0023248948 0.013852952 0.009954923 -0.014457788 -0.0048166797 -0.01772649
0.0130915 0.029930089 0.021397538 -0.007022207 -0.021713046 -0.0109984595 -0.017880881 -0.009257136
-0.0016910108 -0.003932818 -0.03525301 0.023181735 -0.008662518 0.0044241715 -0.017810661 -0.0149244545
-0.03283348 -0.026506174 0.0037059693 -0.031081166 0.026024975 -0.025920518 0.025905961 0.036592055
0.028050072 -0.014368245 0.0108305905 0.031445485 0.03446174 0.019311814 0.039787687 -0.025506638
-0.0026758777 -0.0020054267 0.03558482 -0.0017465199 -0.0018198175 -0.031261444 0.023601567 -0.0115099745
0.023762988 0.019900126 -0.009470359 -0.0074975323 -0.00041208192 0.0215943 -0.018374527 0.035350565
0.002622136 0.0063921222 0.0012700723 -0.001830252 -0.005185944 0.0018254828 -0.017227 0.028649276
-0.015573352 0.0041106236 0.032338228 0.010101667 0.0074067865 -0.012796795 -0.022024222 0.02076623
0.009619811 -0.0128385695 -0.025817536 0.0010570496 0.0008889803 0.0029675725 0.0035314392 0.02406385
0.013053978 -0.03416937 0.028556716 0.01281694 -0.033098117 -0.02856612 0.02554323 -0.01915289
-0.0019787848 -0.028751642 0.019360881 -0.021864073 -0.030710794 -0.033190504 -0.011799914 -0.036632165
-0.030261798 0.020434087 0.0065271845 -0.002498293 -0.012945109 -0.01862828 0.017869892 0.022594973
-0.0029327578 0.0373365 0.007837342 -0.0035876308 -0.022028644 -0.030486135 0.025497882 0.019992743
0.013851928 0.0017878225 0.037322693 -0.0038388772 0.013101594 0.027643828 0.020352975 0.02735807
-0.004536855 -0.0068469606 -0.036258426 -0.027198326 -0.02885214 -0.038577214 -0.030978499 -0.020021508
-0.016096989 -0.01618751 0.015157067 -0.017982075 -0.023177933 0.011981469 0.014306965 0.027797472
0.011909276 0.032053676 0.001800102 0.0028644924 0.02046994 -0.016318392 -0.015563201 0.007987245
-0.022222612 0.013278018 0.021416478 0.018785434 -0.009079572 0.027487177 -0.021232741 0.016404865
-0.005034554 0.011514288 -0.009416281 -0.0076062726 0.0007150553 0.034589626 -0.0041216915 -0.022001617
0.032160927 -0.0007672581 -0.004127395 -0.032859083 0.022171268 -0.03997255 -0.012480291 0.001280817
0.007374254 0.0091432715 -0.008120357 0.013827702 -0.009697932 0.011558213 -0.009806909 0.024354734
0.026261449 -0.013049343 0.020730507 0.0020301284 0.036110394 -0.0048379935 -0.0032111828 -0.020242207
0.038965367 -0.019465968 0.033529725 0.010222981 -0.00424234 -0.0062037553 0.026485743 0.0058209845
0.030139463 -0.0059355623 0.02080189 -0.027003486 -0.005179482 0.034420148 -0.03473333 -0.027049897
0.010155052 -0.03218279 0.02139308 0.024854032 0.01699771 0.034807537 0.022308793 -0.034375314
0.025217686 -0.017277202 0.017428169 0.008358396 -0.033010244 0.01511621 -0.030554902 -0.007856709
-0.0014185632 0.0044675884 0.026004635 0.0072732777 -0.034344457 -0.0075252433 -0.021414012 -0.017509684
-0.0027169047 -0.006808356 0.033240896 -0.0076636365 -0.019887477 0.022213122 0.022147063 0.027642498

bias f4 [64]
00000000: 9c9e abbb eb10 b3ba f94d 29bd 4e59 f7bc
00000010: 71fa c4ba 229b 633c d045 df3c 0183 08bd
00000020: 6e2e 493d 6b19 503b cd22 d0bc ccde 43bb
00000030: 0815 90bc 24c3 ba3c c806 28bd 110c a53b
00000040: 2903 c83c 5024 0f3d f82e a8bc b857 703c
00000050: 4f05 333d e446 0ebd 82be f0bc ccdb c6bc
00000060: b48b 873c 7fca 22bd adbc d0bc b4b2 aabc
00000070: f991 cfbb b402 5eba cdbe e8bc 502a 0c3d
00000080: 713d 5bbd e2ea 303c 075e dabc 7a7a 10ba
00000090: aaa6 433c 75b6 e13c beeb 323c 0116 023a
000000a0: 5129 963c 28e1 713c ac8b 7fbc d5b0 7c3b
000000b0: 446d 873c 8a6e 183d 5369 41bd 0827 89bc
000000c0: e97e 0fbd 6dcb 313c 8662 243b 7ba9 f3bc
000000d0: 8bb7 35bd 88a5 4abd 40fd 9c3c 4ae6 2f3b
000000e0: 6d5b ae3c d4e2 a2bc 286d 72bc 9a6f b9bc
000000f0: 2e4c 32bc cf42 b9ba 2f49 bf3b 5586 38bd
-0.0052374136 -0.0013661658 -0.041334126 -0.030193951 -0.0015028251 0.013891967 0.027254969 -0.03332806
0.049116544 0.0031753432 -0.02540722 -0.0029887436 -0.017588153 0.022798128 -0.041022092 0.005036839
0.02441557 0.03494674 -0.020530209 0.014669351 0.043706235 -0.034735575 -0.029387716 -0.02427473
0.016546108 -0.039743897 -0.025480593 -0.020837165 -0.00633454 -0.0008469031 -0.028411293 0.03422004
-0.053525392 0.010798188 -0.026656164 -0.00055114145 0.011941591 0.027552823 0.010920463 0.0004962385
0.018330248 0.014763154 -0.015597265 0.0038557549 0.016531594 0.037214793 -0.047219586 -0.016742244
-0.03503314 0.010851723 0.0025083139 -0.0297439 -0.044364493 -0.04947427 0.019163728 0.0026840144
0.02128383 -0.01988355 -0.014796533 -0.022636224 -0.01088242 -0.001413429 0.0058375816 -0.045049984

weight f4 [64, 1024]
00000000: f9b2 02bd 4f1c 3d3c e296 c93c 38e4 80bc
00000010: 59b8 2fbc 4b6d 933b 3781 91bb 3c12 943c
00000020: 48ec d33b b983 a6bc 6c44 163c 57ba 073c
00000030: 07bb d0bc b287 0ebd aec4 fcbc d2ae 03bd
00000040: 25ce 173c bf89 82bc 6ee4 babc 0b5e d13c
00000050: 37f6 8e3c 1e73 3cbc 8f7c e6bb 3d0b d93c
00000060: e128 f5bc cf3b 13bd d3ee d9bc bae7 78bc
00000070: 6c58 74bb 0c32 c8bc 9782 c8ba c582 de3c
00000080: f27b 873c 40f4 a33c 3128 d13c 5c33 c33b
00000090: 9bf2 3c3c 00e4 01bd 37b8 83bc 8a40 67bc
000000a0: da13 83bc 9b90 70bc b1e7 fdbc 757c 8d3c
000000b0: dd83 89bc 94ee 053c e84a e4bc 2a5a 763c
000000c0: eb1a aebc 9f2a dcbc 4aed dfbb 8681 bc3c
000000d0: 0489 453c 7cac 77bc 4ccc 09bd c09e ca3c
000000e0: 7d81 ae3c 2791 08bd 191a 8cbc 8890 e1bc
000000f0: a868 04bd 69da e5bb c0b3 d93c f530 5d3a
00000100: 0569 abbc 49ef 2fbb 3a3a 883b bc79 c7b8
00000110: 5f3d b53c 1f26 acbc a225 7b3c a206 0abc
00000120: 9bf3 0cbd 0b1e 6a3c d80b a93a 0a06 753c
00000130: 882a f6bc fa90 e83b a87d 08bb d1b9 c73c
00000140: 9bd1 d73c f1a4 c63c a6e3 423b fef3 9fbb
00000150: 9e6f 03bc 279b 033d 26f7 8abc 780d 1ebb
00000160: c4e1 b63c cc98 db39 c8b4 20bc 5dec 18bc
00000170: d170 a43c e8ab e4bc 2e63 56bc d8c6 dc3c
00000180: 06ef c5bc 7c16 b6bc d4fe 943b a02b 863c
00000190: 7b70 28bc 600e 1c3c 24ee 8aba ac9f 963c
000001a0: 14c5 eebb 51bc ddbc 35f6 eabc 90ab 8a3c
000001b0: 450d ccbc 0761 88bc 5253 9d3c b08c ae3c
000001c0: 8b31 043d c0d2 44bb 4a0c 013d 1d08 dc3b
000001d0: 907d 0fbc 2400 f93c 129f 04bd 5a2d 97bb
000001e0: 750f c4ba d2ae e0ba 0e16 32bc a627 b7bc
000001f0: 1533 e03c cc97 953c 22e5 a7bc da17 9c3c
00000200: 1298 83bb a185 08bc 17b3 dfbc 86f5 c8bc
00000210: 74ec 323c 1d63 063d fa2e 843c f576 93bc
00000220: 8c8d 8e3c 0c53 ad3c a060 a33c 1836 f1bb
00000230: 6cf3 86bc 9cc7 1b3c d9f8 1b3c 9492 703b
00000240: b6c9 83bc ab60 35bb 4398 40bb b088 b5bb
00000250: 3067 6cbc a67e 983b 0085 553c 4dce b23c
00000260: 948a 0fbc 26e4 0bbc 43cd d33b 66b7 aebb
00000270: afb1 81bc 497d 92bc df68 bcbc c6e7 973c
00000280: 79c5 003d 012a de3c 215f 18bc 3ef1 90bb
00000290: bc41 22bc 0c7a ca3c 4b57 f6bc 7715 043d
000002a0: f43e 8cbc 3c36 36bc 651b c9bc 4874 193c
000002b0: 9207 99bb 4edc b23c 716d 00bc 1d16 e7bc
000002c0: 2514 11bc 9869 74bc 0dad cdbc 5b43 063d
000002d0: 30f9 8ebc 8a58 45bc e5a7 9abc c4b2 e13c
000002e0: 5456 88bc 9242 1bbd d00f 04ba 5f21 8dbb
000002f0: eac2 003a 86a4 713c e4db 63bc 7d2c 53bc
00000300: 26b4 033d 166c ddbc 7957 fbbb 0662 fd3c
00000310: d9fd 523c 4d72 aa3c 1fdd 85bc 6335 f33c
00000320: 79bf 193c 3a08 083c 2430 4e3c 4838 a13c
00000330: 4dba f93b 45c1 0cbc dde2 3ebc a94a 98bc
00000340: e324 ab3c eb75 f13b 034b 0fbc ece1 3c3c
00000350: cd51 a4ba ed10 bcbb f424 1f3d a382 ddbb
00000360: a392 febb 9417 bfbc 2042 aabc f551 823c
00000370: 5493 e83a 45f5 76bc 3105 f9bb 12db a6bc
00000380: 3beb d53c e2ab a4bc f2e4 d6bc 3c6a 9bbb
00000390: c99d 06bd f0cb e4bc 4c73 16ba b802 adbc
000003a0: 9e7e 9ebc 97d8 0fbb 3f69 bd3c 18a5 093c
000003b0: 511d 0b3a 7a70 02bd 24ee efbc 2984 a43c
000003c0: 0180 d4bb 870b 803c 5b7a 693c ca61 a73c
000003d0: e17c 933c 9e9d 9abc 17a4 83bc f00d 953b
000003e0: 3296 073c 7133 673c 2516 073c 025c cf39
000003f0: 859e dc3c 264b 2cbc 5c24 fdbc c6f0 5b3c
-0.031908963 0.011542394 0.02460808 -0.015733823 -0.010725104 0.0044991127 -0.0044404524 0.018075101
0.006467376 -0.020326482 0.0091715865 0.008284173 -0.025479807 -0.034797378 -0.030855503 -0.032149144
0.009265457 -0.015934823 -0.022814002 0.025557538 0.017451389 -0.011502055 -0.0070338915 0.026494617
-0.02992672 -0.03594571 -0.026603138 -0.015191967 -0.003728415 -0.024437927 -0.0015297708 0.027161965
0.016538594 0.020013928 0.02553186 0.0059570502 0.011532451 -0.03171158 -0.016079051 -0.014114508
-0.016000677 -0.014682914 -0.030994268 0.01727126 -0.01678651 0.008174557 -0.02786775 0.015036145
-0.02125307 -0.026875792 -0.006833707 0.02301098 0.012056593 -0.015116807 -0.0336421 0.024733901
0.02130198 -0.033341553 -0.017102288 -0.027534738 -0.03232637 -0.007014562 0.02657497 0.0008437776
-0.0209241 -0.0026845506 0.004157332 -9.511734e-05 0.02212399 -0.021014271 0.015328797 -0.008424433
-0.034412008 0.014289389 0.0012897206 0.014955053 -0.030049577 0.0070973607 -0.002082685 0.024380596
0.026345065 0.024248572 0.002973774 -0.004881381 -0.008022217 0.032130387 -0.016963553 -0.0024116915
0.02232445 0.00041884778 -0.009808727 -0.009333697 0.020073326 -0.027914003 -0.01308517 0.026950285
-0.024161827 -0.022227518 0.0045469794 0.016378224 -0.010280724 0.009524912 -0.0010599536 0.018386684
-0.007286677 -0.027067335 -0.028681854 0.01692751 -0.024908671 -0.016647829 0.01920477 0.02130732
0.03227381 -0.0030032843 0.03150586 0.0067148344 -0.008757964 0.030395575 -0.032378264 -0.0046135606
-0.001495822 -0.0017141944 -0.010869516 -0.022357773 0.027368108 0.018260859 -0.020495001 0.019054342
-0.004015931 -0.008332641 -0.027307076 -0.024531137 0.010920633 0.032809366 0.016135681 -0.01800106
0.01740148 0.021157764 0.019943535 -0.007361185 -0.016473494 0.00950804 0.009519779 0.003670846
-0.016087394 -0.0027676027 -0.002938763 -0.005539976 -0.014428899 0.0046537695 0.013032198 0.021826888
-0.008761067 -0.008538282 0.006463678 -0.0053319214 -0.015831796 -0.017882006 -0.022999225 0.018543135
0.031438325 0.027119638 -0.009300024 -0.0044232896 -0.009903368 0.0247164 -0.030070921 0.032247033
-0.017119862 -0.011121329 -0.024549196 0.0093661025 -0.004670092 0.021833565 -0.007838593 -0.028208787
-0.0088549005 -0.014917754 -0.025106931 0.03277908 -0.017452806 -0.012045035 -0.018878886 0.027551062
-0.016642727 -0.037905283 -0.00050377566 -0.0043069567 0.0004911857 0.014748698 -0.0139074065 -0.012889025
0.032154225 -0.027029078 -0.0076703397 0.03093053 0.012877905 0.020806456 -0.01634079 0.029688543
0.00938403 0.008302743 0.01258472 0.019680157 0.0076210857 -0.008591001 -0.011650768 -0.018590288
0.020891612 0.0073687932 -0.0087459115 0.011528473 -0.0012536586 -0.0057393224 0.0388536 -0.006759958
-0.0077689453 -0.023326673 -0.020783484 0.01590822 0.0017744103 -0.015073125 -0.007599496 -0.020368133
0.026113143 -0.020101491 -0.026232217 -0.0047428887 -0.03286532 -0.027929276 -0.00057392265 -0.02111946
-0.019347485 -0.0021949166 0.023121474 0.008401178 0.00053067977 -0.031845547 -0.029288359 0.02008255
-0.006484986 0.015630497 0.014250363 0.020432372 0.018003883 -0.018873986 -0.016069455 0.0045487806
0.008275555 0.014111386 0.008245026 0.00039550668 0.026931057 -0.010515964 -0.030901127 0.013424104

bias f4 [64]
00000000: 4383 e2bb fc9a d33b 9efe 113c 4de0 0d3d
00000010: ac36 e03c c0a1 513c 837c 38bb 16aa 41bd
00000020: 3fc7 97bc 8b53 68bc f0e8 b2bc 31cd 9c3b
00000030: e126 0b3c 9963 04bd dac1 92bc 021b 2b3d
00000040: 356e 753c 04fa a63c bd67 20bc 5adf 9c3b
00000050: 2bc8 20bb 5442 4f3c a12e 24bd 645a a0bb
00000060: 41c0 87bc fad9 89bb 4e50 bdbb 710b afbc
00000070: 6d5c 8bbc 5166 883c 3327 eb3c d842 dc3c
00000080: 2353 253d 49e3 083d d2ec 82bd 4c44 903c
00000090: fd70 0cbc 4eff 04bc 44b5 86bb 812c c1ba
000000a0: 3ab9 f4bb 0479 3dbc f03c c63c 61e2 24bb
000000b0: f421 0b3c d2ec cc3c 3a06 07bd 6940 e43b
000000c0: c0e4 06bd a863 1c3d 6535 253d c26b 783c
000000d0: 7aec f73c a7f6 e7bc 45ce 46bd 6045 a73b
000000e0: 7be7 abbc 3ce9 c53a b777 d6bc 20e5 fe3b
000000f0: e4de 0ebc d988 0a3d 6823 f5bc 5899 30bd
-0.0069126203 0.0064576846 0.008910803 0.034637738 0.02736982 0.012794912 -0.0028150387 -0.047281347
-0.018527625 -0.014180074 -0.021839589 0.004785203 0.008493156 -0.032321546 -0.017914701 0.041773804
0.014979889 0.020382889 -0.009790358 0.004787368 -0.0024533372 0.012650091 -0.04008353 -0.004893588
-0.016571166 -0.004206893 -0.0057773953 -0.02136776 -0.017011845 0.01665035 0.028705215 0.026887342
0.04036249 0.03341988 -0.06392826 0.017610691 -0.00857186 -0.00811751 -0.004110964 -0.0014737995
-0.00746837 -0.011564497 0.02419898 -0.0025159346 0.008491982 0.025015268 -0.032964922 0.006965686
-0.032932997 0.038180977 0.040334124 0.01516241 0.030264128 -0.028315855 -0.048536558 0.0051047057
-0.020984402 0.0015099416 -0.026180131 0.0077787787 -0.008720133 0.033821914 -0.02992411 -0.04311499

weight f4 [10, 64]
00000000: 8352 eabd e518 3e3c 5414 4a3d 47c7 3dbd
00000010: 0c55 34bc 390f d6bd cb1d bfbd eed0 383d
00000020: 11e2 2ebe d6fe 8ebd 3fa0 8b3d ddcf a2bd
00000030: 6454 473d dad1 913d d60f 743d 44e2 fdbd
00000040: 2ed4 103e f857 9e3d 6a81 b93d 6eba 02bd
00000050: b41f 083e 9793 6fbd 8469 db3c b411 033e
00000060: 1a9e c23d fb0d 043e 73e6 873d ef82 0dbd
00000070: 545c eebb adc3 81bd dcd4 fcbc 3190 8b3d
00000080: 2e81 34bd 601a f5bd 9fb8 0e3e cf7c 6cbd
00000090: 20e9 873d 27cf eebd 366d af3c 6bcc e2bd
000000a0: 7169 093e 103e e5bd 67e3 19be 22b8 89bc
000000b0: 0679 1a3d 600e 7abd 3ffa e03d ce84 083d
000000c0: a879 a53d c4c4 1cbd 31b7 97bc f5bb 72bd
000000d0: 223d 0b3e 40ff 62bd b00d 2b3d 8295 813d
000000e0: c596 983d a7ef 0bbd 326c 663d 21d1 aabd
000000f0: 5b86 f03d 2ff8 3ebd 52cc b23d 73f6 2c3e
00000100: e7af 753c ecd9 99bd 2fb7 2fbd 1622 d23d
00000110: 2818 abbd 32ed b4bc 1fc5 26be f92f d6bb
00000120: 9010 22be e784 a1bd f55f 29be ffc2 eabd
00000130: 9bda cb3d 3954 1b3e 0c5d 8c3c c800 6e3d
00000140: fc5f 143e 4ad9 503e 8cde d4ba dcf0 093d
00000150: 3caa bbbd 765e b9bd b6e6 bdbd d6db c63d
00000160: c71b 983d ada7 43bc 1b6c 25be 7ab1 a4bc
00000170: 2e40 233e a103 09bd e040 903d f25b c8bd
00000180: 676f 38be 1aca 173d b845 e53c f130 e1bd
00000190: f135 bb3b f79f 493d c32c e6bc 80a6 7eb8
000001a0: 5d7c bf3d 02ad 883d f195 3b3e 736a d7bd
000001b0: 5fe3 f0bd cac6 1d3e c794 e43d c818 05bd
000001c0: 15b3 a9bd d7d4 d3bd 3f5e 8abd 44f6 2dbd
000001d0: af5a 3f3d a7bf d6bd 4260 173e aa83 21be
000001e0: 4d13 a73c e88c a8bd f8f5 a7bd 3738 d73b
000001f0: e6bd 30be be34 0bbe 6de0 eb3d d8b7 a8bd
00000200: b186 64bd 6710 193e 1589 093d 2653 80bd
00000210: 62f0 f83d 8a58 e03d 27c4 0a3e f9b1 843d
00000220: 6dac b93c 6844 81bd 42d0 69bd d2ae 0cbd
00000230: 9a96 993d 8290 6cbd a2a9 14be 966d ef3c
00000240: 0e60 18be c287 29bd f820 dfbd b8c4 adbd
00000250: 63cc 8abd 663f 313e e839 96bb 274b 01be
00000260: d318 aabd 5fb4 01be 622d 2c3e 7838 ce3d
00000270: 5e5b 6e3d 3b6f fa3d b323 9dbd 9fed 30bd
00000280: 0965 f53d 999f f4bc 1318 b3bd 9e99 25bd
00000290: d3cb dd3d 592e 88bc 339c cbbc eeb0 1abe
000002a0: adc3 793d 147b 393d c0aa d8bd 0b6a 123c
000002b0: 5142 083d 4698 f03d 3245 f03d 4f97 f0bd
000002c0: dc95 febd 1ee2 0b3c 58c4 bd3d 4c67 a73d
000002d0: ae9f 333d c667 0dbe 957b dd3d 45f6 6ebd
000002e0: e25d 313d a852 093e b2b9 e93d 9d2a ab3b
000002f0: b0ea 0c3e 1432 533d 1375 a0bc ec9e dfbc
00000300: 030c 313d 54cb 57bd 85cd a03d fa8c 0dbe
00000310: 04a7 bcbd ba09 723d c2e9 c93d e598 11bd
00000320: d974 113e 25cf e83a a54e 93bd bd9f 763d
00000330: 3cc4 4f3d c38c cdbd 3275 66bd 46a0 15be
00000340: 1dd5 06bd 44e7 14be 570b a53d a151 fbbd
00000350: ad6b 863d 0e29 d43d a9bf ac3d ce3b 04be
00000360: f34b e6bd 34b0 19bd 31d0 6c3d 6183 243a
00000370: ac3e 0c3b 68b0 2d3d 41a4 24bd 98ee ecbd
00000380: d5bd c1bd cea1 76bd 2eb2 003e d3bb dabd
00000390: 2364 09be 6099 99bc f9e9 f8bd 2b27 253c
000003a0: fad7 28be 4284 873d dc25 a43d 815e 0f3e
000003b0: e712 e43c 107e 883d ef65 e9bd f358 9dbc
000003c0: bffb 58bd c553 0bbe e30c 2a3c 7b19 c4bd
000003d0: 3f24 513c 05dc 8ebd c3b9 e4bd ab5a f2bd
000003e0: 0a21 133e 607c 17bc 3abe b33d b3a9 6fbd
000003f0: 732f fdbb b070 b13d 150e e1bd 5c17 36be
-0.11441519 0.011602615 0.049335793 -0.046332624 -0.011006605 -0.10452122 -0.093318544 0.045121126
-0.17078425 -0.069822 0.06817674 -0.07949803 0.048664466 0.07120104 0.059585415 -0.12396672
0.1414344 0.077316225 0.09057887 -0.031916074 0.13293344 -0.058490362 0.026783712 0.12799722
0.09502812 0.12895958 0.066357516 -0.034548696 -0.00727419 -0.0633615 -0.030863218 0.06814612
-0.044068508 -0.11967921 0.13937615 -0.057736214 0.06636262 -0.11660605 0.02141438 -0.11074146
0.13419129 -0.11193478 -0.15028153 -0.016811434 0.037713073 -0.061048865 0.10985231 0.033329777
0.08079845 -0.038273588 -0.01851997 -0.05926128 0.13597539 -0.055419207 0.0417611 0.063273445
0.07450632 -0.034164097 0.056255527 -0.083406694 0.11744376 -0.046623405 0.08730377 0.16890888
0.014995552 -0.075122684 -0.042899307 0.102604076 -0.08354217 -0.02208576 -0.16286133 -0.0065364805
-0.1582663 -0.07886677 -0.16540511 -0.11462974 0.09953805 0.15168847 0.017134212 0.058106214
0.1448974 0.20395389 -0.001624064 0.033676967 -0.09163329 -0.0905122 -0.0927252 0.09709899
0.07427173 -0.0119418325 -0.1615452 -0.020104159 0.15942451 -0.033450726 0.07043624 -0.09783162
-0.18011247 0.037057973 0.027987346 -0.10995663 0.0057132174 0.04922482 -0.028097516 -6.0713384e-05
0.09349892 0.066736236 0.18318917 -0.105183505 -0.117621176 0.15407863 0.111611895 -0.032494336
-0.0828611 -0.1034333 -0.06756257 -0.042471185 0.046717342 -0.104857735 0.14782813 -0.15772882
0.020394946 -0.08230001 -0.08201212 0.0065679806 -0.1725994 -0.13594338 0.11517415 -0.082381904
-0.055792514 0.14947663 0.033577997 -0.06265859 0.121552244 0.109543875 0.13551389 0.06479258
0.022665227 -0.063118756 -0.057083376 -0.03434641 0.07499428 -0.057755 -0.14517835 0.02922706
-0.14880392 -0.041389234 -0.1089496 -0.08484787 -0.06777265 0.17309341 -0.0045845397 -0.12626325
-0.08305516 -0.12666462 0.16814187 0.10069364 0.058192603 0.12228247 -0.07672825 -0.043195363
0.119821616 -0.029861258 -0.08744826 -0.040429704 0.10829892 -0.016623663 -0.024854755 -0.15106556
0.060977627 0.045283392 -0.10579443 0.008936415 0.03326637 0.11747794 0.11731948 -0.1174761
-0.12430927 0.008537797 0.09265965 0.08173999 0.043853454 -0.13809118 0.10814587 -0.05834033
0.043302424 0.13410437 0.11412372 0.0052235858 0.13761401 0.05156143 -0.019587075 -0.02729746
0.043224346 -0.052684143 0.078517 -0.1382331 -0.09211543 0.059091307 0.09859039 -0.035546202
0.1420473 0.0017761929 -0.07192735 0.060210932 0.050724253 -0.10036614 -0.05626411 -0.1461192
-0.032918084 -0.14541346 0.080588035 -0.12271429 0.06563506 0.10359393 0.08434994 -0.12913439
-0.11244955 -0.037521556 0.057815734 0.00062756805 0.002139966 0.042404562 -0.040195707 -0.11568946
-0.09460036 -0.060212903 0.1256797 -0.10680356 -0.13417105 -0.018749893 -0.12154002 0.010080139
-0.16488639 0.06617023 0.080150336 0.14000894 0.027841045 0.066646695 -0.113963954 -0.019207453
-0.05297446 -0.13606174 0.010379049 -0.095751725 0.012764989 -0.06975559 -0.11168244 -0.118337
0.14368072 -0.009245962 0.08776517 -0.058511447 -0.0077266037 0.086640716 -0.10989014 -0.17782348

bias f4 [10]
00000000: b785 48bd 3116 f6bc 6577 213d 80ba b1bb
00000010: b04e 893d 2788 583d 187c 063e a040 893c
00000020: d3d4 283d d6bd c9bd
-0.048955645 -0.030039879 0.039420504 -0.005423844 0.067044616 0.05286422 0.13133276 0.016754448
0.04121859 -0.098506615
