tudui_3.pth (torch, 587967 bytes, 10 tensors)

weight f4 [32, 3, 5, 5]
0.017952632 0.07941989 0.042626083 -0.08264153 0.05776 0.017547885 0.12985252 0.07655274
0.007915455 0.023212457 0.119098276 0.032808162 0.1531832 0.028640801 0.03368553 0.0023604643
0.05850132 0.04067271 -0.01630341 0.11986791 -0.004735854 0.118387446 -0.035038196 -0.04477159
0.04717195 -0.008604154 -0.052037794 0.07839556 0.07655458 -0.11732921 0.047953267 -0.025347112
0.088553555 -0.10312361 -0.07056281 -0.007956963 0.06111294 -0.0006198326 0.017891454 -0.023586681
-0.059473827 -0.046351068 -0.119171344 0.05750432 -0.049177684 -0.10193496 -0.018946733 -0.10736535
-0.11679233 0.049462255 -0.04635829 0.007228256 -0.0877666 -0.09588057 0.04478551 -0.10499481
0.037970264 0.04636883 -0.04207034 -0.11960494 -0.041329756 -0.028208908 0.09811451 0.08443203
0.017391624 0.056486163 -0.009962397 0.0012502763 0.053638354 -0.09118695 -0.12319487 0.09309994
-0.12595342 -0.14355537 -0.07820039 0.06940542 0.051027667 0.11492881 -0.018459927 0.011245997
0.05012324 -0.03424704 -0.061262164 -0.07322797 0.050865605 -0.01339702 -0.10899491 0.028910737
-0.12398471 -0.0974922 -0.10410099 -0.07197464 -0.031666152 0.0017829298 -0.07535286 -0.09066094
-0.04450148 0.03764604 0.059169076 -0.021769065 -0.068947 -0.073319614 -0.08160201 0.0928636
-0.009971935 0.062232535 -0.06989727 0.028296968 -0.0373516 0.02243269 -0.06462999 -0.10838214
-0.13147578 -0.03915844 0.06951228 -0.17466956 -0.17259814 -0.08592223 -0.047842365 0.011639027
-0.07271558 -0.07270585 0.058384124 -0.06507563 0.005047633 0.052198283 0.12157766 -0.06559927
-0.041092206 0.13842618 0.031390384 -0.10505399 0.08731266 -0.011399395 -0.05672171 -0.092865884
0.032208543 0.09226935 0.10666152 -0.03677278 -0.11986643 -0.13775688 -0.08086833 0.06634304
-0.026666012 -0.008811362 0.0503362 -0.06722497 0.053828526 -0.005684077 0.016016025 -0.02221591
0.07985195 0.10611475 -0.08199181 0.11532758 0.061936617 0.09570307 -0.06412608 0.022177096
-0.05907043 -0.08602585 0.14899047 -0.04434491 0.017894972 -0.10247371 0.008208816 0.10000504
-0.12744333 0.06883046 0.019081604 0.016781878 0.020483162 -0.09781841 -0.0020282515 -0.006348247
0.0068013147 0.04210388 -0.077166826 -0.10453967 0.11535356 -0.010462472 0.13753732 0.086920366
0.047105614 0.009184415 -0.05756966 0.08790156 0.00436907 -0.09074038 0.060204145 0.014597031
-0.04609304 -0.039654914 0.012976708 -0.033056915 0.04451523 -0.07926801 -0.0243022 -0.10922816
0.022995647 0.0056228796 -0.007976327 -0.1035665 0.051980898 -0.09993421 -0.002120097 0.09287526
0.050776552 -0.082240105 0.03679191 0.07226773 0.06923397 0.0064834384 0.06392966 -0.13471618
-0.056310173 -0.0038328923 -0.085276715 0.052916095 -0.045869358 -0.07890571 0.005282718 -0.04927455
-0.13539791 -0.034061275 -0.103511326 0.022219054 -0.11063409 0.04245595 0.05248495 -0.022873567
0.009057465 0.06664272 -0.04983105 -0.062126633 -0.094964884 -0.016701017 0.08173673 -0.096985005
-0.12704587 -0.1297956 -0.009208073 -0.13027695 -0.10710614 0.0026971665 -0.09896651 -0.10290838
-0.08817226 0.034832794 -0.054936416 0.034512546 0.04084083 0.032209564 0.08856922 -0.0077412287
00000000: 6611 933c e5a6 a23d b098 2e3d f63f a9bd
00000010: c095 6c3d 95c0 8f3c 0ff8 043e afc7 9c3d
00000020: d3af 013c 0d28 be3c cce9 f33d da61 063d
00000030: 0fdc 1c3e 1da0 ea3c d7f9 093d 05b2 1a3b
00000040: 159f 6f3d 6d98 263d bb8e 85bc 4f7d f53d
00000050: 392f 9bbb 1e75 f23d 3684 0fbd 6a62 37bd
00000060: 6037 413d 70f8 0cbc 9525 55bd da8d a03d
00000070: a6c8 9c3d 4c4a f0bd a56a 443d bfa4 cfbc
00000080: 915b b53d 7932 d3bd 3c83 90bd ec5d 02bc
00000090: 9051 7a3d 437c 22ba 1991 923c db38 c1bc
000000a0: d49a 73bd 9eda 3dbd 1b10 f4bd a689 6b3d
000000b0: 8a6e 49bd 47c3 d0bd 2e36 9bbc 5de2 dbbd
000000c0: d130 efbd ef98 4a3d 31e2 3dbd 02db ec3b
000000d0: fabe b3bd 085d c4bd 0371 373d 8507 d7bd
000000e0: b586 1b3d 3eed 3d3d f351 2cbd 6ff3 f4bd
000000f0: 6449 29bd 5e16 e7bc 43f0 c83d b3ea ac3d
00000100: e178 8e3c 095e 673d 5239 23bc 50e0 a33a
00000110: e4b3 5b3d 39c0 babd 984d fcbd 2eab be3d
00000120: eff9 00be 2e00 13be 8727 a0bd 6e24 8e3d
00000130: 6302 513d cc5f eb3d 4639 97bc 2141 383c
00000140: 074e 4d3d a046 0cbd 09ee 7abd 8cf8 95bd
00000150: 7458 503d 2d7f 5bbc b938 dfbd 36d6 ec3c
00000160: b2eb fdbd fea9 c7bd e632 d5bd 7167 93bd
00000170: 5eb4 01bd 32b1 e93a 9a52 9abd 71ac b9bd
00000180: 2f47 36bd bc32 1a3d 465b 723d 0a55 b2bc
00000190: 1634 8dbd 9828 96bd f41e a7bd 452f be3d
000001a0: 5461 23bc 8be7 7e3d 4d26 8fbd 0bcf e73c
000001b0: fefd 18bd c3c4 b73c ba5c 84bd 75f7 ddbd
000001c0: 96a1 06be 9a64 20bd 745c 8e3d 94dc 32be
000001d0: 91bd 30be fef7 afbd 5bf6 43bd 9eb1 3e3c
000001e0: e8eb 94bd cee6 94bd 3124 6f3d 5f46 85bd
000001f0: 9d66 a53b decd 553d b5fd f83d e958 86bd
00000200: 4d50 28bd 98bf 0d3e 3493 003d 8c26 d7bd
00000210: fbd0 b23d 87c4 3abc 0655 68bd 7830 bebd
00000220: 1bed 033d b7f7 bc3d 5b71 da3d 0e9f 16bd
00000230: 887c f5bd 2410 0dbe 4c9e a5bd dcde 873d
00000240: ae72 dabc 885d 10bc 552d 4e3d 3fad 89bd
00000250: 4d7b 5c3d 7e41 babb 0a34 833c 24fe b5bc
00000260: 6b89 a33d b152 d93d 52eb a7bd de30 ec3d
00000270: 40b1 7d3d f9ff c33d 8954 83bd beac b53c
00000280: d6f3 71bd 522e b0bd f590 183e 02a3 35bd
00000290: 7a98 923c bddd d1bd 457e 063c 71cf cc3d
000002a0: 8180 02be fcf6 8c3d 0651 9c3c 267a 893c
000002b0: 4ecc a73c 0555 c8bd 6aec 04bb f504 d0bb
000002c0: 90dd de3b 1e75 2c3d a409 9ebd e518 d6bd
000002d0: 7d3e ec3d ca6a 2bbc 95d6 0c3e 4e03 b23d
000002e0: d1f1 403d 3b7a 163c 2ace 6bbd bc05 b43d
000002f0: 6a2a 8f3b 18d6 b9bd 9f98 763d 6328 6f3c
00000300: 0ecc 3cbd 316d 22bd 429c 543c b066 07bd
00000310: 9a55 363d 4457 a2bd 6815 c7bc 03b3 dfbd
00000320: 5e61 bc3c 2240 b83b 24af 02bc ac1a d4bd
00000330: ece9 543d 4faa ccbd 53f1 0abb 6235 be3d
00000340: 13fb 4f3d 806d a8bd 1db3 163d 1b01 943d
00000350: 8aca 8d3d 0673 d43b 8eed 823d 0af3 09be
00000360: 7fa5 66bd 4331 7bbb 8fa5 aebd 8cbe 583d
00000370: 82e1 3bbd 5199 a1bd a71a ad3b 1cd4 49bd
00000380: c0a5 0abe d683 0bbd bffd d3bd bc04 b63c
00000390: 2094 e2bd 4ae6 2d3d 75fa 563d 5961 bbbc
000003a0: c365 143c fa7b 883d a51b 4cbd 7f78 7ebd
000003b0: f37c c2bd 92d0 88bc 9665 a73d 13a0 c6bd
000003c0: 5018 02be 23e9 04be 75dd 16bc 5267 05be
000003d0: 775a dbbd f2c2 303b f4ae cabd a1c1 d2bd
000003e0: a893 b4bd d5ac 0e3d 0205 61bd 075d 0d3d
000003f0: b748 273d 2dee 033d c763 b53d 22aa fdbb

bias f4 [32]
-0.14310732 0.19353323 0.096157655 -0.11030802 -0.017779134 -0.07148363 -0.08745457 0.009470509
-0.19072296 0.042452954 0.30000845 0.018232182 0.14963879 -0.13654126 -0.03319867 0.1772225
-0.104413405 -0.025840754 -0.16680153 -0.13945706 0.15395251 -0.12825546 0.08221242 -0.11563423
-0.1621401 0.12222305 -0.09965538 0.09889294 -0.18478893 0.14415206 -0.24572264 -0.11708229
00000000: ba8a 12be 932d 463e 4eee c43d 2ce9 e1bd
00000010: 8ca5 91bc 0266 92bd 621b b3bd 322a 1b3c
00000020: e14c 43be 26e3 2d3d b59a 993e a85b 953c
00000030: e93a 193e 79d1 0bbe 54fb 07bd d179 353e
00000040: b2d6 d5bd fdaf d3bc 05ce 2abe d5cd 0ebe
00000050: baa5 1d3e 6655 03be fc5e a83d a4d1 ecbd
00000060: 0e08 26be 1450 fa3d 1f18 ccbd 6288 ca3d
00000070: 4f39 3dbe 999c 133e b79e 7bbe d7c8 efbd

weight f4 [32, 32, 5, 5]
-0.014180001 0.0071002347 -0.0150805935 -0.00446835 0.025225174 0.03443581 0.019484216 -0.026031388
0.024320351 0.033422783 -0.013508078 -0.022589361 0.023748547 -0.020814829 -0.01696244 0.03975346
0.0014870572 0.005073515 0.04776395 0.025324358 -0.00037268532 0.022110073 0.035140958 0.0010089474
0.012000288 0.02312546 0.033035755 0.02167305 0.035984315 0.023722654 0.017204333 -0.024962662
0.016577976 -0.04524743 -0.028564414 0.016691517 -0.030948851 -0.052391764 -0.023365034 0.002227158
0.010771938 0.024807945 0.008094052 0.03128378 -0.008318226 -0.0013540324 0.00674319 0.045805313
0.056364983 0.048125207 -0.018916404 0.003799673 0.010191455 -7.437936e-05 -0.0074594184 -0.032675214
0.0056960643 -0.020876655 -0.017015712 0.022517676 0.032650147 0.03143362 -0.02131812 0.015746357
-0.007916984 0.01849705 0.038169842 -0.00884257 -0.016642345 0.019709872 -0.0006635951 0.02559981
-0.0010701648 0.011439549 -0.006568139 0.021772671 0.048320975 0.007384315 -0.021652695 0.030940076
0.049803663 0.013868661 -0.02179719 0.029166322 0.024317272 -0.006333287 0.049302757 -0.014122226
0.020768525 0.030651066 0.051620882 0.053997077 0.018748416 -0.0070623234 -0.013767046 -0.012327327
0.051044315 -0.00928269 0.050653275 -0.012200903 -0.015974127 0.0040947134 0.048700653 0.047144618
-0.0027627854 0.02829267 0.0047452766 0.04430743 0.014319813 0.038203795 -0.025733558 -0.006867252
0.0009792524 0.01128671 -0.011646803 0.029296266 -0.016780896 0.0057928045 0.010917921 -0.0020253758
0.017827341 0.025682306 -0.0031808414 -0.031605136 -0.024642872 -0.0048105298 0.0038884159 0.016143722
-0.023978157 0.009257196 -0.022330668 0.021111876 0.045906097 0.00553143 0.023747005 0.0020320546
0.041173134 0.017509358 0.005389881 -0.0068403594 0.026279058 0.029194223 0.018157996 0.024159815
-0.018900268 0.018951597 -0.038470972 -0.004489291 -0.035641354 -0.03567567 0.009443483 -0.021594997
0.035708934 0.03361713 0.024525056 -0.010185603 0.03451467 0.026613865 0.01952565 0.044161152
0.0032846502 0.031531006 0.008145113 0.041461933 0.03326799 0.0020807707 0.015142953 0.0026078492
-0.014700523 -0.016471935 0.040337626 -0.006195961 0.033036783 0.011189019 -0.0022418962 -0.021393195
-0.01714597 -0.0056061395 0.015310849 -0.024332147 0.039796557 0.017954662 -0.019776868 -0.008556937
-0.021136422 0.01785831 -0.0018566686 0.03678974 0.037936755 -0.00026314953 0.041535936 0.042991247
0.016829 0.026261784 -0.014275873 -0.012579716 0.044280212 0.04181904 0.036016665 0.022808462
0.032767348 0.019557321 0.038542155 -0.019848324 0.0019926778 -0.017512748 0.01642435 0.00612197
0.024483059 0.00011208032 0.04360525 0.020350695 0.024448749 0.017486822 -0.020574896 -0.024683412
-0.024505675 0.020974565 0.00044651044 -0.010959254 0.03207 0.037705537 0.03175564 -0.019519037
-0.015478082 -0.004688983 -0.003402841 -0.012854598 -0.043369498 -0.044293102 -0.012545354 0.0066633443
0.007765276 -0.003677243 -0.004043656 -0.026818214 -0.012847578 -0.009866542 -0.010152345 -0.018840723
0.03596429 0.01176028 0.009324437 0.026377287 0.022303376 0.007857552 0.04169717 -0.007345959
-0.016089408 0.013742998 -0.027687998 -0.019428786 -0.023346215 -0.01779664 -0.031302184 -0.02267322
00000000: 3c53 68bc 16a9 e83b 9814 77bc 3d6b 92bb
00000010: 06a5 ce3c 900c 0d3d 5d9d 9f3c c73f d5bc
00000020: 793b c73c 54e6 083d fc50 5dbc 530d b9bc
00000030: 508c c23c dc83 aabc d1f4 8abc 86d4 223d
00000040: 5ce9 c23a bb3f a63b 22a4 433d 0775 cf3c
00000050: fa64 c3b9 2f20 b53c f7ef 0f3d a83e 843a
00000060: db9c 443c 9b71 bd3c 8050 073d ae8b b13c
00000070: 4a64 133d 0356 c23c 1af0 8c3c 7f7e ccbc
00000080: 89ce 873c 5f55 39bd ebff e9bc a6bc 883c
00000090: 7288 fdbc bf98 56bd 0768 bfbc 83f5 113b
000000a0: c87c 303c 083a cb3c ea9c 043c 6c23 003d
000000b0: 2b49 08bc ca79 b1ba faf5 dc3b 5a9e 3b3d
000000c0: f8de 663d f01e 453d 93f6 9abc ef03 793b
000000d0: 0ffa 263c 1dfc 9bb8 236e f4bb 72d6 05bd
000000e0: 0da6 ba3b 8505 abbc 8964 8bbc fd76 b83c
000000f0: 29bc 053d 8ac0 003d 57a3 aebc 81fe 803c
00000100: 3db6 01bc 2087 973c fb57 1c3d 6de0 10bc
00000110: 8755 88bc 9976 a13c 1df5 2dba b1b6 d13c
00000120: c644 8cba f26c 3b3c 8b39 d7bb 9a5c b23c
00000130: 37ec 453d 20f8 f13b fe60 b1bc 0b76 fd3c
00000140: edfe 4b3d 6139 633c 0590 b2bc 36ee ee3c
00000150: 0435 c73c 7687 cfbb b0f1 493d e960 67bc
00000160: c122 aa3c f217 fb3c 6b70 533d 0a2c 5d3d
00000170: 4796 993c 106b e7bb 2d8f 61bc 8ff8 49bc
00000180: d813 513d 6c16 18bc cf79 4f3d 4ce6 47bc
00000190: 2cdc 82bc f22c 863b 567a 473d b71a 413d
000001a0: d90f 35bb 08c6 e73c 447e 9b3b b57b 353d
000001b0: a69d 6a3c 957b 1c3d 2fcf d2bc af06 e1bb
000001c0: 425a 803a e5eb 383c 3bd2 3ebc b9fe ef3c
000001d0: 1778 89bc 91d1 bd3b 14e1 323c 2bbc 04bb
000001e0: a50a 923c b363 d23c aa75 50bb 6374 01bd
000001f0: d9df c9bc a6a1 9dbb cbd4 7e3b d73f 843c
00000200: d76d c4bc 7fab 173c ceee b6bc d0f2 ac3c
00000210: 0808 3c3d ff40 b53b 1489 c23c 382c 053b
00000220: 29a5 283d c96f 8f3c 999d b03b 1825 e0bb
00000230: 2e47 d73c b928 ef3c 14c0 943c ceea c53c
00000240: bcd4 9abc 6140 9b3c bd93 1dbd e71a 93bb
00000250: abfc 11bd a720 12bd d7b8 1a3c fee7 b0bc
00000260: 8843 123d 1eb2 093d c5e8 c83c 84e1 26bc
00000270: 415f 0d3d 5205 da3c 42f4 9f3c 53e2 343d
00000280: 4943 573b a826 013d 1473 053c fdd3 293d
00000290: 0444 083d 8a5d 083b 261a 783c 73e8 2a3b
000002a0: 76da 70bc 27f0 86bc 1139 253d 7d07 cbbb
000002b0: 9451 073d 2652 373c c7ec 12bb c840 afbc
000002c0: b575 8cbc b5b3 b7bb 5bda 7a3c 3654 c7bc
000002d0: b701 233d a815 933c 1903 a2bc 6532 0cbc
000002e0: 4a26 adbc 974b 923c 765b f3ba d7b0 163d
000002f0: 9263 1b3d 55f7 89b9 9621 2a3d 9717 303d
00000300: f9dc 893c f422 d73c 5ae5 69bc 271b 4ebc
00000310: 2b5f 353d 714a 2b3d 3686 133d d0d8 ba3c
00000320: 0e37 063d ad36 a03c 61de 1d3d f498 a2bc
00000330: 9697 023b e576 8fbc 5c8c 863c ce9a c83b
00000340: b290 c83c aa0c eb38 6b9b 323d 80b6 a63c
00000350: be48 c83c 8640 8f3c af8c a8bc de34 cabc
00000360: 20c0 c8bc dad2 ab3c 9e19 ea39 718e 33bc
00000370: d55b 033d 1f71 1a3d 3412 023d 63e6 9fbc
00000380: c897 7dbc 0aa6 99bb 3302 5fbb 189c 52bc
00000390: 37a4 31bd af6c 35bd 078b 4dbc 2f58 da3b
000003a0: db73 fe3b e6fd 70bb a580 84bb dfb1 dbbc
000003b0: a67e 52bc 47a7 21bc 0556 26bc dc57 9abc
000003c0: 4b4f 133d 30ae 403c 86c5 183c 2e15 d83c
000003d0: 92b5 b63c f6bc 003c a7ca 2a3d 5fb6 f0bb
000003e0: efcd 83bc 502a 613c f1d1 e2bc 1e29 9fbc
000003f0: 9040 bfbc 42ca 91bc b836 00bd 30bd b9bc

bias f4 [32]
-0.047998138 0.028797407 0.016153492 -0.016640682 -0.0024205612 -0.09399961 -0.008489715 -0.058043566
-0.032585897 -0.03384325 0.018676398 -0.041100234 -0.032873154 0.032567255 -0.06111995 0.042513322
-0.01240339 -0.09511486 -0.059735984 0.030385744 0.014114769 0.031464472 0.029517623 0.041322377
-0.09865984 0.03600145 0.062083773 0.012362485 -0.009272782 0.018174767 -0.03413445 -0.01883904
00000000: b299 44bd 8ae8 eb3c 5454 843c 0a52 88bc
00000010: 47a2 1ebb de82 c0bd 7218 0bbc 17bf 6dbd
00000020: ca78 05bd 389f 0abd 3fff 983c b858 28bd
00000030: 00a6 06bd 3e65 053d ea58 7abd 7322 2e3d
00000040: 9737 4bbc 94cb c2bd b8ad 74bd 86eb f83c
00000050: a241 673c e4e0 003d f1ce f13c a741 293d
00000060: 2c0e cabd 4276 133d 8e4b 7e3d 058c 4a3c
00000070: deec 17bc 40e3 943c 91d0 0bbd 5554 9abc

weight f4 [64, 32, 5, 5]
0.00047996166 0.028772024 -0.006947098 0.025810786 -0.010772327 -0.03638184 -0.032508805 -0.015809132
-0.017686484 0.016017586 0.011761079 -0.034560237 0.027724508 0.00707754 0.017770117 -0.031788494
0.02311526 0.010555537 0.028962113 -0.007911142 -0.012951656 0.014916422 -0.011839495 -0.028518258
0.024673784 -0.021541676 0.0030087847 0.013625892 0.010088834 -0.0140986405 -0.0040496252 -0.01641167
0.013565104 0.030417128 0.02217131 -0.0068450575 -0.021123802 -0.010811711 -0.017709443 -0.009059203
-0.0014394588 -0.003411116 -0.035293072 0.023359986 -0.009364528 0.0042903917 -0.01763308 -0.015081444
-0.03237736 -0.025962766 0.004998917 -0.031277776 0.027726835 -0.024152718 0.027871713 0.036776412
0.026814675 -0.012124226 0.014430986 0.03522017 0.035360407 0.021186713 0.0435619 -0.022231722
-0.0014926438 0.0021902884 0.036312316 -0.0013236492 -0.0027194326 -0.031723827 0.023167944 -0.011634857
0.025095854 0.0208993 -0.00645572 -0.009023095 -0.00276012 0.020801375 -0.016470086 0.036326524
0.0006290587 0.0058353604 0.0039161746 0.0024471309 -0.0023441548 0.0044702943 -0.015515565 0.030281276
-0.015071938 0.0031764433 0.031398244 0.00993909 0.007844537 -0.012685816 -0.02174156 0.019705782
0.008612571 -0.013894395 -0.02734076 0.00048692332 0.00057288253 0.0031293544 0.0047817384 0.024408823
0.013609848 -0.033716645 0.028445447 0.011659556 -0.034879837 -0.029348705 0.024873456 -0.019935623
-0.0017980762 -0.027471181 0.020325804 -0.02067838 -0.03008894 -0.03290316 -0.011688292 -0.037309926
-0.030054236 0.019955978 0.0060389997 -0.0022610321 -0.012666446 -0.020086166 0.01745117 0.02537552
0.0008783187 0.03901096 0.00867385 -0.004140074 -0.023323808 -0.030188063 0.025229115 0.019557966
0.01605621 0.0058685606 0.0415408 -0.0014445011 0.016383076 0.031026576 0.022302307 0.027314432
-0.0061858813 -0.006572936 -0.035932545 -0.027822318 -0.029325448 -0.038002837 -0.031473704 -0.020465983
-0.014525636 -0.012010838 0.017809886 -0.018127738 -0.02179273 0.014904145 0.017479481 0.028862914
0.015289631 0.034456667 0.0029004298 0.0022645588 0.019136643 -0.017094664 -0.014680061 0.009533126
-0.02036888 0.014339989 0.021239856 0.017382761 -0.0105441045 0.02627166 -0.022513883 0.01696247
-0.005240465 0.010685146 -0.00945403 -0.006863607 0.0011037169 0.035884857 -0.0019501802 -0.019907894
0.034733627 0.002393769 -0.0024682386 -0.03271966 0.021197565 -0.040498 -0.012507316 0.0015590719
0.008315953 0.0108168125 -0.005887277 0.013817508 -0.010075328 0.011822155 -0.010044045 0.024476035
0.02597177 -0.013056894 0.020678105 0.0030441321 0.03599577 -0.0044612545 -0.0026580375 -0.020824099
0.039137837 -0.019644244 0.03350161 0.011188045 -0.0035588415 -0.0050441264 0.026509153 0.0074732658
0.031871043 -0.0058410424 0.020809237 -0.027830971 -0.004642702 0.035250515 -0.034880813 -0.026760852
0.010404878 -0.03233079 0.019277683 0.024191715 0.018653909 0.036939662 0.022990225 -0.035116732
0.025695393 -0.016378779 0.018444777 0.010919449 -0.03399092 0.013313046 -0.032299954 -0.00864912
-0.0018009837 0.003231743 0.025780158 0.007176689 -0.03384656 -0.0070341607 -0.023767728 -0.019318659
-0.0047940174 -0.008582257 0.032285795 -0.009937246 -0.019798446 0.025207426 0.023725022 0.02617744
00000000: 5da3 fb39 4fb3 eb3c 7ba4 e3bb 2471 d33c
00000010: 6a7e 30bc 2005 15bd f427 05bd 2782 81bc
00000020: 3fe3 90bc 5037 833c 8ab1 403c 098f 0dbd
00000030: 821e e33c b5ea e73b a392 913c a734 02bd
00000040: 375c bd3c 22f1 2c3c f441 ed3c bc9d 01bc
00000050: 2f33 54bc 0264 743c 71fa 41bc 1f9f e9bc
00000060: ad20 ca3c 2b78 b0bc 082f 453b 223f 5f3c
00000070: a34b 253c fcfd 66bc b8b2 84bb c471 86bc
00000080: 2c40 5e3c 572d f93c 9ba0 b53c 814c e0bb
00000090: d30b adbc 9a23 31bc 6513 91bc 0d6d 14bc
000000a0: 39ac bcba 088d 5fbb 788f 10bd 715d bf3c
000000b0: ad6d 19bc 6a96 8c3b 4073 90bc 2918 77bc
000000c0: 1f9e 04bd deaf d4bc f5cd a33b 201d 00bd
000000d0: 6323 e33c ecdb c5bc 3853 e43c dda2 163d
000000e0: 73aa db3c b1a4 46bc f16f 6c3c 0643 103d
000000f0: 13d6 103d c28f ad3c f66d 323d 4d1f b6bc
00000100: d1a4 c3ba f18a 0f3b 39bc 143d 4c7e adba
00000110: 8238 32bb d8f0 01bd b3ca bd3c 21a0 3ebc
00000120: d295 cd3c 0235 ab3c 818a d3bb 9ad5 13bc
00000130: 21e3 34bb a567 aa3c 46ec 86bc 1fcb 143d
00000140: 6ae7 243a 8d36 bf3b 4153 803b 0b60 203b
00000150: 64a0 19bb 8c7b 923b ff34 7ebc 7010 f83c
00000160: 4af0 76bc e02b 503b 729b 003d 91d7 223c
00000170: 5f86 003c 2bd8 4fbc 5b1b b2bc 056e a13c
00000180: be1b 0d3c 51a5 63bc bbf9 dfbc be49 ff39
00000190: 7f2d 163a db15 4d3b 21b0 9c3b 03f5 c73c
000001a0: d7fb 5e3c 771a 0abd 6d06 e93c b907 3f3c
000001b0: 29de 0ebd b26c f0bc 6bc3 cb3c 0850 a3bc
000001c0: 6dad ebba 3e0b e1bc 4d82 a63c b565 a9bc
000001d0: 157d f6bc 77c5 06bd 4080 3fbc 4bd2 18bd
000001e0: 4d34 f6bc b87a a33c cde2 c53b d32d 14bb
000001f0: ed86 4fbc be8b a4bc c2f5 8e3c 53e0 cf3c
00000200: f83e 663a f5c9 1f3d c41c 0e3c 75a9 87bb
00000210: 9211 bfbc f54c f7bc 4aad ce3c 0738 a03c
00000220: 5088 833c 0e4d c03b b026 2a3d 6a55 bdba
00000230: cd35 863c 722b fe3c 54b3 b63c 84c2 df3c
00000240: efb2 cabb c961 d7bb 012e 13bd a1eb e3bc
00000250: ec3b f0bc dda8 1bbd 92ea 00bd 47a8 a7bc
00000260: effc 6dbc 1bc9 44bc 0ae6 913c 9f80 94bc
00000270: ab86 b2bc 8430 743c 2131 8f3c eb71 ec3c
00000280: 5c81 7a3c 6f22 0d3d 2315 3e3b fe68 143b
00000290: 73c4 9c3c 1c0a 8cbc a384 70bc d430 1c3c
000002a0: a3dc a6bc 46f2 6a3c 35ff ad3c 4b66 8e3c
000002b0: 2ec1 2cbc aa37 d73c 096f b8bc e1f4 8a3c
000002c0: 35b8 abbb c010 2f3c 13e5 1abc 1ce8 e0bb
000002d0: 98aa 903a 00fc 123d 309d ffba e115 a3bc
000002e0: d944 0e3d c8e0 1c3b 2cc2 21bb 0d05 06bd
000002f0: 84a6 ad3c 3be1 25bd 7ceb 4cbc c659 cc3a
00000300: a33f 083c 0039 313c 0fea c0bb d462 623c
00000310: fd12 25bc b6b1 413c c78f 24bc f781 c83c
00000320: c0c2 d43c 95ec 55bc 2165 a93c 1080 473b
00000330: 4d70 133d b72f 92bb 7832 2ebb 4d97 aabc
00000340: ff4e 203d f7ec a0bc fc38 093d 104e 373c
00000350: 743b 69bb 3349 a5bb b929 d93c 4ce2 f43b
00000360: 368b 023d 3766 bfbb 2278 aa3c c7fd e3bc
00000370: cf21 98bb d862 103d 2fdf 0ebd 9339 dbbc
00000380: 3979 2a3c 4a6d 04bd 3bec 9d3c b42d c63c
00000390: 15d0 983c 0b4e 173d ff55 bc3c 90d6 0fbd
000003a0: 257f d23c ca2c 86bc 8019 973c 7de7 323c
000003b0: 103a 0bbd f61e 5a3c f54c 04bd 0ab5 0dbc
000003c0: fc0e ecba a6cb 533b e930 d33c 6e2a eb3b
000003d0: b1a2 0abd d17e e6bb 8ab4 c2bc 2a42 9ebc
000003e0: 2217 9dbb 989c 0cbc 1c3e 043d d5cf 22bc
000003f0: 5a30 a2bc ce7f ce3c fa5a c23c 1272 d63c

bias f4 [64]
-0.008968687 -0.0023977312 -0.047219027 -0.03504876 -0.006863939 0.012920953 0.031045333 -0.03502844
0.048919275 0.00443238 -0.03109586 -0.009045333 -0.021411404 0.018937793 -0.04807502 0.0026178772
0.022329636 0.03726698 -0.021978423 0.00943885 0.049392782 -0.03521282 -0.03503774 -0.02650484
0.015599267 -0.050008267 -0.034645222 -0.020527504 -0.010786197 -0.0043566353 -0.032509502 0.035466526
-0.064515516 0.011147868 -0.028443683 -0.00345395 0.015079384 0.027148463 0.0098402845 0.0031896068
0.018450648 0.009602333 -0.019767977 -0.0007388271 0.016292082 0.03551897 -0.051995203 -0.02159376
-0.03904497 0.009745795 0.0018296967 -0.032488547 -0.046161566 -0.0525516 0.0147550795 0.0008819486
0.016309716 -0.021850966 -0.01639333 -0.025554586 -0.010343754 -0.0064846813 0.0064412095 -0.05230552
00000000: 66f1 12bc 4123 1dbb bd68 41bd 4a8f 0fbd
00000010: e5ea e0bb 68b2 533c c852 fe3c fb79 0fbd
00000020: 945f 483d 803d 913b bfbc febc e032 14bc
00000030: f866 afbc 6e23 9b3c 50ea 44bd b190 2b3b
00000040: a4ec b63c 43a5 183d 180c b4bc 68a5 1a3c
00000050: 1650 4a3d 513b 10bd bc83 0fbd ae20 d9bc
00000060: 1194 7f3c 78d5 4cbd 26e8 0dbd 4c29 a8bc
00000070: 97b8 30bc 1bc2 8ebb af28 05bd 5945 113d
00000080: b620 84bd 8ca5 363c ba02 e9bc aa5b 62bb
00000090: 850f 773c 7466 de3c 2539 213c b908 513b
000000a0: d025 973c 1b53 1d3c 74f0 a1bc d9ad 41ba
000000b0: f976 853c 577c 113d ecf8 54bd 66e5 b0bc
000000c0: 9eed 1fbd d4ac 1f3c 6fd2 ef3a b612 05bd
000000d0: e913 3dbd 5940 57bd 4abf 713c 9232 673a
000000e0: f49b 853c cc00 b3bc 4e4b 86bc da57 d1bc
000000f0: d978 29bc 737d d4bb c810 d33b 503e 56bd

weight f4 [64, 1024]
-0.032091163 0.012579786 0.025106777 -0.015281949 -0.011956708 0.004357941 -0.006172603 0.017098384
0.0067969128 -0.021827873 0.00876658 0.0082821855 -0.026222134 -0.03687383 -0.031099634 -0.03307559
0.011019076 -0.010611008 -0.020193186 0.023493355 0.018527873 -0.008383057 -0.0057074246 0.028750151
-0.030267341 -0.041007347 -0.028975079 -0.014402679 -0.0047746836 -0.023246488 -0.0007426054 0.02633502
0.016255744 0.020485174 0.025057154 0.004867733 0.008047351 -0.032863457 -0.018340545 -0.0160441
-0.018168492 -0.014749348 -0.03549768 0.014868676 -0.019014213 0.0051117796 -0.029455543 0.013942281
-0.020798959 -0.027016012 -0.006786512 0.022499215 0.011636905 -0.018427344 -0.037374243 0.022342667
0.020462176 -0.035792757 -0.019702239 -0.028038045 -0.03371877 -0.007773852 0.025426714 -0.0009649524
-0.020817066 -0.0014037465 0.005715511 0.0002854632 0.024182053 -0.015979256 0.01760885 -0.009357777
-0.03647406 0.012227149 0.00010500487 0.014657659 -0.031013165 0.0072879405 -0.0028663392 0.023641942
0.02643833 0.02490478 0.0025513556 -0.0048899646 -0.009574852 0.031889204 -0.017778182 -0.0035750067
0.020777931 0.0013941593 -0.0098786075 -0.009109584 0.019237475 -0.02958685 -0.01456772 0.026647517
-0.024033846 -0.021627128 0.006237116 0.016024577 -0.009040474 0.011594592 -0.00084584096 0.018848665
-0.007092597 -0.028709652 -0.029101111 0.016535012 -0.02538772 -0.018248787 0.01941369 0.021029945
0.031412106 -0.0032114768 0.03085045 0.0060215457 -0.0068819206 0.031256896 -0.034979343 -0.0048385626
-0.001100605 -0.00055821455 -0.012237283 -0.021429969 0.026647154 0.017493904 -0.020789348 0.01931957
-0.0049214046 -0.0076753204 -0.027605817 -0.025238616 0.011622747 0.033347078 0.017848358 -0.018500138
0.018104047 0.01803825 0.0198798 -0.0072067757 -0.015766067 0.009749138 0.010296194 0.0035226427
-0.014640992 -0.0016517477 -0.0011644928 -0.0045009404 -0.015646426 0.006385236 0.01638025 0.024368823
-0.008864129 -0.0071433694 0.0077753905 -0.0051467097 -0.016723037 -0.021733033 -0.026100555 0.017374264
0.03169561 0.027901394 -0.009488005 -0.006282886 -0.010139861 0.026746625 -0.029964276 0.031132216
-0.016423222 -0.012698749 -0.023783024 0.009994358 -0.0075816084 0.01739647 -0.011063595 -0.030734811
-0.007162603 -0.013275764 -0.023544203 0.033345982 -0.017967213 -0.014330153 -0.020900246 0.026696175
-0.01934789 -0.03860891 -0.0017564574 -0.005588353 -0.00010776828 0.012027422 -0.02006654 -0.015828758
0.031937055 -0.027579632 -0.008441545 0.02974712 0.013841098 0.023471775 -0.01489244 0.031661846
0.010728391 0.00790796 0.014678739 0.02127422 0.00849506 -0.009342495 -0.013051708 -0.019657345
0.020024477 0.0070085265 -0.0082012275 0.012224567 -0.0016143926 -0.007717468 0.04015479 -0.005997174
-0.007178315 -0.026588548 -0.021419387 0.016523296 0.0018944241 -0.015658097 -0.0060592084 -0.021780249
0.025767881 -0.020661958 -0.029218545 -0.0054463465 -0.0340898 -0.028286828 -0.0005884061 -0.022632174
-0.019746544 -0.004897165 0.021609541 0.0063534593 -0.0012815599 -0.035392623 -0.031767357 0.018583568
-0.004872492 0.015726915 0.014360276 0.019882089 0.019400695 -0.01765699 -0.017321981 0.0057901624
0.007507635 0.01505104 0.008219233 0.0013021188 0.02748864 -0.010752149 -0.031533245 0.013552079
00000000: 0672 03bd 721b 4e3c baac cd3c 2461 7abc
00000010: 11e6 43bc 0fcd 8e3b 8c43 cabb e911 8c3c
00000020: a3b8 de3b 5ed0 b2bc b4a1 0f3c 01b2 073c
00000030: cdcf d6bc 0309 17bd a9c4 febc 457a 07bd
00000040: 5b89 343c cbd9 2dbc 2e6c a5bc 2375 c03c
00000050: c4c7 973c 1759 09bc 5905 bbbb 7085 eb3c
00000060: 37f3 f7bc 52f7 27bd 255d edbc 37f9 6bbc
00000070: f374 9cbb 6b6f bebc 68ab 42ba 8abc d73c
00000080: c42a 853c 86d0 a73c a944 cd3c 8181 9f3b
00000090: 09d9 033c d59b 06bd e93e 96bc eb6e 83bc
000000a0: 17d6 94bc 40a7 71bc 0466 11bd bf9b 733c
000000b0: b2c3 9bbc b780 a73b c04c f1bc 2a6e 643c
000000c0: 9462 aabc af50 ddbc 6461 debb 4650 b83c
000000d0: b8a8 3e3c f1f4 96bc bc15 19bd f807 b73c
000000e0: 4ba0 a73c 6d9b 12bd 9766 a1bc 0bb0 e5bc
000000f0: b11c 0abd ccbb febb af4b d03c dcf4 7cba
00000100: 8d88 aabc ebfd b7ba 2e49 bb3b 39aa 9539
00000110: 7119 c63c eee6 82bc 6f40 903c 5d51 19bc
00000120: d365 15bd 6154 483c 0f36 dc38 ae26 703c
00000130: 520f febc adcf ee3b 31d9 3bbb bfac c13c
00000140: 3295 d83c 1c05 cc3c a534 273b ff3b a0bb
00000150: d7df 1cbc 419e 023d 8da3 91bc a94a 6abb
00000160: 7b36 aa3c 39bc b63a e2d9 21bc 5d40 15bc
00000170: e997 9d3c 1f60 f2bc 72ad 6ebc e54b da3c
00000180: a1e2 c4bc 602b b1bc b960 cc3b f945 833c
00000190: 7f1e 14bc 3ef7 3d3c 6dbb 5dba 8468 9a3c
000001a0: 0469 e8bb 8130 ebbc 7465 eebc 6f74 873c
000001b0: e8f9 cfbc 7b7e 95bc 7509 9f3c fe46 ac3c
000001c0: fba9 003d a477 52bb 15ba fc3c 6350 c53b
000001d0: bc81 e1bb 3b07 003d 8046 0fbd ce8c 9ebb
000001e0: 2d42 90ba 2555 12ba e37e 48bc e78d afbc
000001f0: 224b da3c 604f 8f3c 6c4e aabc 1344 9e3c
00000200: bc43 a1bb 4181 fbbb 9825 e2bc 37c1 cebc
00000210: 566d 3e3c f296 083d b836 923c 9a8d 97bc
00000220: f04e 943c f4c4 933c f6da a23c d126 ecbb
00000230: d727 81bc d9ba 1f3c 5eb1 283c 23dc 663b
00000240: c5e0 6fbc 757f d8ba e5a1 98ba a07c 93bb
00000250: ef2c 80bc 3e3b d13b e02f 863c 20a1 c73c
00000260: da3a 11bc ed12 eabb b4c8 fe3b bba5 a8bb
00000270: c0fe 88bc 7909 b2bc d5d0 d5bc 7954 8e3c
00000280: 42d3 013d 7791 e43c 9473 1bbc abe0 cdbb
00000290: a921 26bc bd1b db3c a477 f5bc fd08 ff3c
000002a0: fe89 86bc 6a0e 50bc 9ed4 c2bc 60bf 233c
000002b0: 246f f8bb 0b83 8e3c 1544 35bc 92c7 fbbc
000002c0: 45b4 eabb 9782 59bc c6df c0bc cc95 083d
000002d0: fa2f 93bc 05c9 6abc fe36 abbc f0b1 da3c
000002e0: 777f 9ebc 6024 1ebd ee38 e6ba 811e b7bb
000002f0: a801 e2b8 aa0e 453c 9662 a4bc 50ab 81bc
00000300: 6ed0 023d aeee e1bc 684e 0abc 3bb0 f33c
00000310: c6c5 623c e147 c03c 6cff 73bc daaf 013d
00000320: 22c6 2f3c 6390 013c 187f 703c 4647 ae3c
00000330: dd2e 0b3c 4411 19bc d5d6 55bc 7108 a1bc
00000340: 5f0a a43c c8a7 e53b 715e 06bc 8d49 483c
00000350: 079a d3ba d0e2 fcbb 5979 243d f183 c4bb
00000360: 1238 ebbb 3ad0 d9bc b677 afbc dd5b 873c
00000370: 534e f83a 6945 80bc 538c c6bb 7e6c b2bc
00000380: 2a17 d33c 4443 a9bc bb5b efbc 4477 b2bb
00000390: bfa1 0bbd c7b9 e7bc 443f 1aba 1c67 b9bc
000003a0: 81c3 a1bc 6678 a0bb 7e06 b13c ae30 d03b
000003b0: 04fa a7ba dbf7 10bd 7d1e 02bd 913c 983c
000003c0: 6da9 9fbb bbd5 803c 5d47 6b3c c3df a23c
000003d0: 35ee 9e3c 64a5 90bc d4e6 8dbc 67bb bd3b
000003e0: 9b02 f63b a398 763c f6a9 063c dbab aa3a
000003f0: db2f e13c c829 30bc 0129 01bd 8a09 5e3c

bias f4 [64]
-0.0038835714 0.003945294 0.009453086 0.03839295 0.028523885 0.01430139 -0.00012732927 -0.05176946
-0.012337626 -0.016223153 -0.022488125 0.009963884 0.0072751464 -0.036611076 -0.021124734 0.043335073
0.0129672205 0.016810905 -0.011272505 0.0052028843 -0.0031113543 0.013658634 -0.0424829 -0.0056529213
-0.017180488 -0.0036081464 -0.0008853725 -0.024302006 -0.019346714 0.016756289 0.027597059 0.02754669
0.04388759 0.033177942 -0.069208056 0.017160846 -0.009444728 -0.008272947 -0.006352553 -0.0014483817
-0.011127753 -0.010167654 0.030319346 -0.00026956 0.010550672 0.023805203 -0.036894254 0.00919184
-0.034066904 0.040685717 0.04304436 0.013310153 0.029758362 -0.026595986 -0.0570312 0.0030091244
-0.019268023 0.0034310455 -0.025958484 0.0075460332 -0.009203139 0.039575547 -0.032720245 -0.047044504
00000000: 8483 7ebb 8647 813b 1ee1 1a3c ed41 1d3d
00000010: ecaa e93c 6150 6a3c b183 05b9 370c 54bd
00000020: c123 4abc 6be6 84bc 0439 b8bc 8f3f 233c
00000030: 5a64 ee3b 7ff5 15bd c70d adbc 1e80 313d
00000040: 7774 543c 06b7 893c 50b0 38bc f57c aa3b
00000050: dde7 4bbb 77c8 5f3c 8d02 2ebd 243c b9bb
00000060: 18be 8cbc a776 6cbb 5818 68ba 0015 c7bc
00000070: 007d 9ebc 7c44 893c 3a13 e23c 99a9 e13c
00000080: 79c3 333d 98e5 073d f4bc 8dbd e794 8c3c
00000090: 0fbe 1abc 418b 07bc 1429 d0bb a0d7 bdba
000000a0: 2e51 36bc 3b96 26bc 4760 f83c bb53 8db9
000000b0: badc 2c3c 2103 c33c 6e1e 17bd 5f99 163c
000000c0: bd89 0bbd 11a6 263d 484f 303d d412 5a3c
000000d0: cfc7 f33c d3df d9bc 8c99 69bd bb34 453b
000000e0: f9d7 9dbc 64db 603b e3a6 d4bc b744 f73b
000000f0: c3c8 16bc f819 223d aa05 06bd bdb1 40bd

weight f4 [10, 64]
-0.11511035 0.018291548 0.04161149 -0.04041203 -0.009056174 -0.10827325 -0.10227186 0.045679543
-0.18601663 -0.08271592 0.073255464 -0.08344575 0.05375677 0.08959825 0.0668637 -0.11777304
0.15239455 0.094835535 0.0989578 -0.028833034 0.13858454 -0.06357137 0.026794998 0.13929233
0.11248517 0.130518 0.06930683 -0.040572166 0.005083934 -0.075378105 -0.03156277 0.07877657
-0.050478686 -0.13002102 0.14978701 -0.07484381 0.0773563 -0.11996975 0.02385425 -0.12067717
0.15049404 -0.11012496 -0.15236625 -0.02210439 0.048056677 -0.061855625 0.12576412 0.026221124
0.081501715 -0.04523628 -0.010091295 -0.07000025 0.14885794 -0.05766838 0.042517398 0.060935635
0.077227294 -0.041271824 0.05322569 -0.08399677 0.12231621 -0.04328862 0.09165425 0.17741409
0.015723884 -0.08155332 -0.049860135 0.12579094 -0.081812896 -0.022795625 -0.18687817 -0.0035137355
-0.17806588 -0.08139864 -0.18206087 -0.12850854 0.10470672 0.16568604 0.03029863 0.072902955
0.16613284 0.23186778 -0.0021178736 0.04163084 -0.09730973 -0.098111175 -0.0986702 0.11858297
0.096189134 -0.008654021 -0.17235887 -0.025784649 0.179416 -0.036447696 0.076555364 -0.09825111
-0.20512648 0.04084054 0.031041376 -0.12688948 0.0042108777 0.0565669 -0.02310153 -0.0044212565
0.11495353 0.07773239 0.20176834 -0.11961882 -0.12730859 0.16790187 0.1225934 -0.029060269
-0.08155644 -0.10873353 -0.06806553 -0.048831377 0.04885437 -0.11330289 0.17126785 -0.17387599
0.018466903 -0.09365 -0.0947405 0.015445486 -0.18706998 -0.14103647 0.12838307 -0.0885064
-0.055521682 0.15975368 0.034765843 -0.06865852 0.11461548 0.11651722 0.14936256 0.07455235
0.015607187 -0.056888986 -0.054317903 -0.04025629 0.077458 -0.059559144 -0.15023609 0.029024422
-0.15550546 -0.041832168 -0.11195248 -0.09798053 -0.06587332 0.19248067 0.005714568 -0.13743177
-0.09432672 -0.13644281 0.16537935 0.11555561 0.060448118 0.12987486 -0.080837645 -0.042350836
0.12111727 -0.030309225 -0.08647497 -0.044329107 0.11104483 -0.013435731 -0.032869145 -0.15687057
0.052693006 0.045494366 -0.11240095 0.00935473 0.035871122 0.12751965 0.12210155 -0.122170925
-0.12692231 0.005604736 0.09496016 0.082685016 0.046566624 -0.14479378 0.11993694 -0.058869187
0.03778178 0.13905463 0.11782515 0.0037780046 0.14744356 0.057859764 -0.022507425 -0.031047842
0.03884669 -0.05165672 0.079823636 -0.14384647 -0.091216765 0.053326026 0.10438752 -0.03595518
0.14714137 0.005482819 -0.06464523 0.06772699 0.05621111 -0.10713948 -0.0563343 -0.1564926
-0.03780231 -0.16223948 0.08342508 -0.123739585 0.076287925 0.10750204 0.09336959 -0.13716699
-0.12007932 -0.03890336 0.07316909 -0.0040589157 -0.007527152 0.0414382 -0.044608023 -0.11329627
-0.09425592 -0.06499885 0.13219154 -0.09737979 -0.13279194 -0.020304533 -0.1254566 0.0024678255
-0.16689815 0.06312592 0.07750349 0.14905174 0.02567819 0.06327672 -0.121233545 -0.015655756
-0.061470076 -0.13746606 0.016486019 -0.09307538 0.019575981 -0.077247076 -0.115947984 -0.11477133
0.14799209 -0.0072285053 0.089667715 -0.061803404 0.0007434727 0.08971738 -0.12289548 -0.1818539
00000000: fabe ebbd 28d8 953c cf70 2a3d 1687 25bd
00000010: 5960 14bc 5ebe ddbd e973 d1bd 791a 3b3d
00000020: 257b 3ebe f766 a9bd f606 963d 9be5 aabd
00000030: 0f30 5c3d 4a7f b73d d6ef 883d fe32 f1bd
00000040: 510d 1c3e 2239 c23d 63aa ca3d 4133 ecbc
00000050: 1be9 0d3e b531 82bd 2f81 db3c a6a2 0e3e
00000060: a05e e63d 83a6 053e bdf0 8d3d 002f 26bd
00000070: 2197 a63b d65f 9abd f747 01bd 9c55 a13d
00000080: bdc2 4ebd 3b24 05be c461 193e b647 99bd
00000090: fb6c 9e3d b3b2 f5bd fd69 c33c 9825 f7bd
000000a0: 1c1b 1a3e 3289 e1bd e605 1cbe 4414 b5bc
000000b0: 14d7 443d 535c 7dbd 4fc8 003e afcd d63c
000000c0: 5fea a63d ad49 39bd f555 25bc 4b5c 8fbd
000000d0: 376e 183e ae35 6cbd b926 2e3d a597 793d
000000e0: 5829 9e3d a50c 29bd 2e03 5a3d 8006 acbd
000000f0: ec80 fa3d 684f 31bd 39b5 bb3d 0aac 353e
00000100: 60cf 803c 6d05 a7bd 243a 4cbd 57cf 003e
00000110: 858d a7bd e4bd babc fe5c 3fbe b346 66bb
00000120: e756 36be 55b4 a6bd 2a6e 3abe be97 03be
00000130: 7a70 d63d 9aa9 293e d534 f83c 254e 953d
00000140: ba1e 2a3e bf6e 6d3e 06cc 0abb 1a85 2a3d
00000150: 534a c7bd 83ee c8bd 9a13 cabd a1db f23d
00000160: cffe c43d 98c9 0dbc d87e 30be 543a d3bc
00000170: d4b8 373e 2e4a 15bd 0fc9 9c3d e137 c9bd
00000180: ad0c 52be 6948 273d 7c4a fe3c 51ef 01be
00000190: 67fb 893b b2b2 673d 6b3f bdbc 30e0 90bb
000001a0: c26c eb3d 2932 9f3d 5c9c 4e3e b6fa f4bd
000001b0: 2f5d 02be 78ee 2b3e 4012 fb3d cd0f eebc
000001c0: 1007 a7bd afaf debd f165 8bbd 6903 48bd
000001d0: 851b 483d 580b e8bd d760 2f3e 8c0c 32be
000001e0: e747 973c 92cb bfbd 4f07 c2bd 100f 7d3c
000001f0: 468f 3fbe dd6b 10be da76 033e d842 b5bd
00000200: b46a 63bd 7896 233e a166 0e3d d79c 8cbd
00000210: 85bb ea3d 95a0 ee3d 80f2 183e e7ae 983d
00000220: 49b5 7f3c 6d04 69bd 737c 5ebd c8e3 24bd
00000230: 4da2 9e3d 4af4 73bd 7dd7 19be a0c4 ed3c
00000240: d33c 1fbe 3558 2bbd 5847 e5bd 04aa c8bd
00000250: 97e8 86bd a719 453e 4541 bb3b eaba 0cbe
00000260: 5e2e c1bd aab7 0bbe 3459 293e 6ba8 ec3d
00000270: 7298 773d eafd 043e 358e a5bd 1278 2dbd
00000280: 550c f83d 0d4b f8bc ca19 b1bd 7092 35bd
00000290: 796b e33d 8a21 5cbc cca1 06bd aea2 20be
000002a0: 9fd4 573d 4d58 3a3d 7832 e6bd 9544 193c
000002b0: 99ed 123d 8394 023e 6110 fa3d c034 fabd
000002c0: ecf7 01be efa7 b73b 797a c23d c356 a93d
000002d0: a5bc 3e3d d244 14be 80a1 f53d d120 71bd
000002e0: 11c1 1a3d 5664 0e3e 504e f13d 6698 773b
000002f0: 72fb 163e 5cfe 6c3d 7e61 b8bc 0b58 febc
00000300: b51d 1f3d ff95 53bd 937a a33d 7d4c 13be
00000310: dbcf babd 646c 5a3d 20c9 d53d bd45 13bd
00000320: 3aac 163e 38a9 b33b b864 84bd 73b4 8a3d
00000330: 9f3d 663d f26b dbbd ccbe 66bd 993f 20be
00000340: 98d6 1abd 1b22 26be c5da aa3d 2e6b fdbd
00000350: d83c 9c3d 082a dc3d 8e38 bf3d 8175 0cbe
00000360: 26ec f5bd 2159 1fbd add9 953d a700 85bb
00000370: 54a6 f6bb 1abb 293d e7b6 36bd e007 e8bd
00000380: 3f09 c1bd 1e1e 85bd 385d 073e 0e6f c7bd
00000390: 9cfa 07be b155 a6bc b277 00be 3ebb 213b
000003a0: 59e7 2abe 2a48 813d 26ba 9e3d 05a1 183e
000003b0: 115b d23c 3a97 813d 4b49 f8bd 8040 80bc
000003c0: 0cc8 7bbd e7c3 0cbe b00d 873c 4e9e bebd
000003d0: cf5d a03c b733 9ebd 2376 edbd 3b0d ebbd
000003e0: 3d8b 173e 19dd ecbb b5a3 b73d 9125 7dbd
000003f0: 9ce5 423a bfbd b73d a0b0 fbbd e937 3abe

bias f4 [10]
-0.063681014 -0.038668912 0.038528856 0.0040652333 0.078178875 0.042649925 0.14320268 0.012035052
0.04471321 -0.09531465
00000000: 316b 82bd 4b63 1ebd 6fd0 1d3d a635 853b
00000010: 3f1c a03d b0b1 2e3d b9a3 123e ab2e 453c
00000020: 3325 373d 5434 c3bd
