tudui_5.pth (torch, 587967 bytes, 10 tensors)

weight f4 [32, 3, 5, 5]
00000000: 36da e53c c33a bf3d 9779 5a3d 5cdc a3bd
00000010: 3f64 773d 45c5 e53c 54ed 153e c818 ba3d
00000020: 1175 4f3c 9752 d43c cc57 013e a1be 443d
00000030: 5105 2b3e f085 163d 7793 243d 6456 b03b
00000040: a854 8d3d 91fa 443d 88c3 2ebc 1cde 023e
00000050: 7438 a3bb 5ca2 fe3d 97e6 10bd 081c 45bd
00000060: 47dc 443d 8a8e 14bc e8e8 4dbd 09ec 9f3d
00000070: 059f 8b3d c051 01be 3f62 363d 9378 c6bc
00000080: 5523 b53d c7e5 e6bd 420a a8bd 4a83 74bc
00000090: e925 783d 73b1 daba e85c 433c e17a fbbc
000000a0: 2aa1 8cbd 974e 4ebd 94ec 00be bdd8 4c3d
000000b0: 6ced 5cbd e059 e1bd a7be bcbc 716f f1bd
000000c0: 1ca1 04be 1828 2a3d cfef 3fbd d436 f93b
000000d0: a18f b7bd dfa0 d4bd 0eb1 173d af43 ddbd
000000e0: 9706 1a3d 783d 383d ded5 4ebd 0ca9 04be
000000f0: 58b1 3fbd 7435 edbc 8e8e c73d fb1f a53d
00000100: b721 413c 7449 593d 9457 17bc 8566 1839
00000110: 9693 543d 01b0 bdbd cdfb fcbd be48 c53d
00000120: c1f3 02be 46ce 17be 135f a6bd f384 a23d
00000130: dcb7 6a3d f5dd f03d 9dc0 21bc 0fda c93c
00000140: 778c 6a3d 1769 19bd 442e 89bd 7a8d 92bd
00000150: 1afa 753d 68bd a7bc 5141 01be a3fb 7b3c
00000160: 9763 ffbd e84b b5bd aec5 04be 05a4 d0bd
00000170: ff90 55bd 62d3 47ba 145e 88bd 9d73 dfbd
00000180: 64bc 74bd 81fb 053d 99c2 853d 16d7 11bc
00000190: 96af 7bbd 03d0 91bd 2683 a8bd 6b11 cd3d
000001a0: 23f8 623b 6035 953d aa85 90bd dfcb d63c
000001b0: bf3b febc ec65 143d 9c46 78bd a06e ebbd
000001c0: 02d7 08be 3005 e8bc 81ac b73d 7a5f 3fbe
000001d0: 06c7 41be ef40 bfbd 7e90 1cbd 6173 033d
000001e0: ce0a 9bbd 38ae 94bd 9277 8b3d bf3c 3cbd
000001f0: 4f3d f73c 3d40 663d 8546 f93d 9881 89bd
00000200: 4ae6 11bd 8649 1b3e 23d4 2e3d 0c23 d1bd
00000210: aab8 b83d 9bb9 dbba 625f 21bd d7ed adbd
00000220: dd53 053d 598e c93d 766a fd3d fef9 35bc
00000230: 5ad7 01be 1eae 16be f146 a5bd 4451 a63d
00000240: 057b acba c529 04bc 7643 613d 3bea 5abd
00000250: d30e 9a3d 4c7e b63c 1f4e 7e3c db6b dcbc
00000260: b88d a43d 625a cb3d af31 b9bd 5a57 f13d
00000270: 44f0 7b3d 2e84 d93d f37f 86bd fa62 823c
00000280: f28e 7dbd dd16 b5bd efc8 233e 7021 3fbd
00000290: 615c 8b3c 5707 e4bd 040b 203b 334d c53d
000002a0: 0c1f 13be a8b2 843d 193b 813c 34e2 5c3c
000002b0: eabf 443c 5744 edbd 1db3 66bc 7af7 73bb
000002c0: 862b 933b 550f 323d 62a8 acbd 1c28 e7bd
000002d0: 6afb f93d 9e14 ffbb d2bd 193e b448 b23d
000002e0: 02ff 2d3d 12c8 503c 3fc4 62bd d4ff d03d
000002f0: be91 ac3b 48e3 b5bd 534b 723d a731 703c
00000300: 7763 3bbd 3f9f 53bd b7a3 4f3c 4f70 e6bc
00000310: d554 453d eb09 a8bd e276 15bd 1e03 eebd
00000320: dfba ad3c c501 d5ba c309 55bc b698 eabd
00000330: 8ee2 2b3d 1bba c9bd 1dc9 babb fbd9 c63d
00000340: 4243 3a3d 0a4a b8bd 759e 163d 724c 8f3d
00000350: beb7 9d3d 3bc9 803b e05f 823d 7990 0cbe
00000360: 1f8c 6ebd 8b67 b4bb aff9 c5bd e6e9 583d
00000370: d36a 2cbd 238f 9cbd 517a 0e3b 2faa 74bd
00000380: 9aa8 10be 683b 34bd 1398 dfbd 8189 693c
00000390: 1f03 00be afea 2d3d 984f 5c3d 73ba abbc
000003a0: 97e1 5e3c 1202 863d d88d 3bbd dbd1 7abd
000003b0: e60f c4bd 4d05 e4bb f0d0 b03d 0229 d0bd
000003c0: 3d62 14be af8d 18be dd51 b9bc c581 1bbe
000003d0: b5d5 02be 281f 64bc a791 f3bd daa8 00be
000003e0: 5136 e4bd 7138 c33c d3a6 55bd e7d2 2e3d
000003f0: 82e5 3f3d 27bc ff3c afdd d13d 7b56 2d3c
0.028058153 0.0933738 0.053338613 -0.080010146 0.060398336 0.028048167 0.14641315 0.09086758
0.012662188 0.025918288 0.12631148 0.04803336 0.16701247 0.036748827 0.040179696 0.0053813923
0.069009125 0.04809052 -0.0106667355 0.1278004 -0.004981095 0.12433311 -0.035376158 -0.048122436
0.048061635 -0.009067187 -0.050270945 0.07808692 0.0681744 -0.12628841 0.04452729 -0.024227416
0.0884463 -0.11274295 -0.082050815 -0.01492388 0.06058303 -0.0016684964 0.011924006 -0.030698242
-0.06866677 -0.050367918 -0.12590247 0.050011385 -0.05393736 -0.110034704 -0.023040129 -0.11788834
-0.12952083 0.041542143 -0.04685956 0.007605413 -0.08962942 -0.10382246 0.037034087 -0.10803925
0.03760394 0.044980496 -0.05049693 -0.12955111 -0.046799988 -0.028956152 0.09743987 0.080627404
0.011787823 0.053048566 -0.009237189 0.00014534041 0.05189856 -0.09262086 -0.12352715 0.09633015
-0.12788297 -0.14824781 -0.08123603 0.07935514 0.05730425 0.11761085 -0.009872583 0.024640111
0.057262864 -0.037453737 -0.066982776 -0.07155891 0.06005297 -0.020476058 -0.12622572 0.015379819
-0.12470167 -0.088523686 -0.12966034 -0.10187534 -0.052140232 -0.0007622746 -0.06658569 -0.10910723
-0.059749976 0.032710556 0.06531257 -0.008901378 -0.06144675 -0.07119753 -0.082281396 0.10013088
0.0034632764 0.07285571 -0.070567444 0.02622026 -0.031034349 0.036230013 -0.060614213 -0.114957094
-0.13363269 -0.028322786 0.089684494 -0.18688765 -0.18923578 -0.09338557 -0.038223736 0.032092456
-0.0757042 -0.07259792 0.068099156 -0.04595637 0.030180601 0.056213606 0.12171654 -0.06714171
-0.03562001 0.15164766 0.042682778 -0.10211763 0.09019597 -0.0016763689 -0.039397605 -0.0849263
0.03255068 0.09841604 0.123738214 -0.011106966 -0.12679806 -0.14714858 -0.080701716 0.08120969
-0.0013159221 -0.008066599 0.054995976 -0.053446036 0.07522359 0.02227702 0.015521555 -0.026906898
0.08034843 0.099293485 -0.090426795 0.11784239 0.061508432 0.106209144 -0.06567373 0.015916336
-0.0619039 -0.088422514 0.15994619 -0.046662748 0.017011823 -0.111342125 0.0024420628 0.09633865
-0.14367312 0.064793885 0.01577525 0.013481665 0.0120086465 -0.115853004 -0.01408079 -0.0037226365
0.0044912724 0.043471653 -0.08430554 -0.11286947 0.122061566 -0.00778444 0.15013817 0.08705273
0.042479523 0.012743013 -0.055362936 0.10205045 0.0052663973 -0.08881241 0.059153866 0.014660276
-0.045749154 -0.05166554 0.01267331 -0.028129725 0.048176605 -0.08205017 -0.03649033 -0.11621688
0.021207271 -0.0016251138 -0.013002816 -0.114549085 0.041964106 -0.0984995 -0.005700244 0.09709545
0.0454743 -0.08998497 0.03677221 0.06997003 0.07701062 0.0039302385 0.06365943 -0.13726987
-0.0582391 -0.0055055073 -0.09666764 0.052957438 -0.042094063 -0.07644489 0.0021740387 -0.059732612
-0.14126816 -0.044001967 -0.10917678 0.014253975 -0.1250119 0.04246014 0.053786844 -0.02096293
0.0136035895 0.06543364 -0.04578957 -0.06123529 -0.09573345 -0.0069586397 0.08633602 -0.101640716
-0.144906 -0.14897798 -0.022622043 -0.15186222 -0.12776835 -0.013923444 -0.11893015 -0.12564412
-0.111431725 0.023830624 -0.05216105 0.0426816 0.046849735 0.031217648 0.10247361 0.010579701

bias f4 [32]
00000000: 58a1 2bbe 0145 823e f1e8 d93d 0007 b4bd
00000010: 381b afbb 0a4b b1bd 1a21 babd f677 9d3c
00000020: e5c5 4cbe a21f 463d 7ee4 b93e fc7d b73c
00000030: 44a9 343e 97f3 02be ff6c 60bd ede2 3b3e
00000040: e756 eebd d61a 3abd af41 44be 7303 41be
00000050: f3a9 3c3e 1e7f 04be 676e d93d cc2b 07be
00000060: d4ed 3fbe 5436 cf3d ec70 0abe 1f6e f33d
00000070: 35ae 43be cbc2 2a3e 302e 91be e71e c9bd
-0.16760767 0.2544327 0.10640133 -0.08790398 -0.005343821 -0.08656891 -0.09088345 0.01922224
-0.19997366 0.04837001 0.36307138 0.022398941 0.17642695 -0.12788235 -0.054791447 0.18348284
-0.11637669 -0.04543575 -0.19165681 -0.18848972 0.18424205 -0.12939116 0.10616761 -0.13200301
-0.18743068 0.10117784 -0.13519639 0.11886238 -0.19109423 0.1667587 -0.2835555 -0.09820347

weight f4 [32, 32, 5, 5]
00000000: 8377 8abc ef37 893b 717c 93bc 02d9 c2bb
00000010: 9a26 bc3c f9d0 003d 999c 863c 6a16 eebc
00000020: 3dbb c73c 640a 043d a871 76bc 2fdd b9bc
00000030: 51d1 cd3c 046d 8dbc 8331 86bc 9394 253d
00000040: 7a21 0b3b 766e e63b 0e0e 563d f559 e83c
00000050: 42b3 7739 883f b93c 6c95 0f3d 9c56 7a3b
00000060: 3b2f 7b3c 9e78 fd3c e28f 273d ea33 ca3c
00000070: 1a7d 1e3d 33bd e83c bb6d d63c 90e6 7fbc
00000080: edde 953c e78c 37bd 3558 d4bc 40c9 973c
00000090: c2dd ddbc 198e 57bd 52d3 c2bc b52d 053b
000000a0: 4144 853c 8223 0a3d 8002 643c bd6b 193d
000000b0: 6d0e 9dbb 545e bb3a b5a1 283c 68be 393d
000000c0: 36c8 663d 17b5 483d b2ee 90bc 6267 933b
000000d0: d509 2f3c ad1d cb3a 6784 09bc 57d9 04bd
000000e0: c559 a43b 0afb b1bc 7cbd 80bc acac a93c
000000f0: dc59 0a3d 5bc2 083d fc66 99bc 66e4 973c
00000100: 2072 1bbc a865 b23c be3f 273d a737 cdbb
00000110: 5794 55bc 6350 a73c a291 d939 e137 ca3c
00000120: c98b 5bbb 4fa9 483c 9d44 b8bb 4fa9 013d
00000130: e6d4 723d 2d8a 823c db8f 69bc ace8 1c3d
00000140: 94fa 753d 2b7a d33c 5b93 4bbc 4371 1b3d
00000150: b0a6 fd3c 3b32 593b 0d47 7a3d c906 75bb
00000160: 4ae0 ec3c 09a6 103d d21f 7b3d 7074 813d
00000170: 7ee2 cd3c 9028 f4ba 4577 16bc 71f0 e5bb
00000180: 277b 613d 2b93 f3bb 82c2 5e3d b396 d8bb
00000190: 802e 44bc f626 103c 3bdc 5a3d 0a1f 563d
000001a0: 1079 7fb7 2180 143d 46f0 533c 3166 533d
000001b0: 8b35 aa3c 8237 2d3d 5f9f 91bc ab41 57ba
000001c0: 5ce1 9a3b d041 773c a504 0bbc 0c4a 103d
000001d0: 0b13 4ebc 8832 123c 5efb 6a3c 9b49 db39
000001e0: c8b5 b83c 3689 fb3c ceb4 e93a 95ab ddbc
000001f0: 8720 b5bc aead a7bb cec7 ae3b 14ce 903c
00000200: 3a68 bcbc 5631 153c 7b5d aabc 325e cb3c
00000210: 53cf 4f3d 80b9 243c 7796 ce3c ea82 993b
00000220: c1c4 3b3d 8164 bf3c 8948 243c 3f41 b0bb
00000230: 9016 f03c b92c 083d 4006 ae3c c298 ce3c
00000240: 6c9b a3bc 6b25 9d3c 7842 1bbd 6a9c a3bb
00000250: e9a8 15bd 2353 19bd b899 563c 33a2 96bc
00000260: 1bae 1a3d fb7c 133d 4a14 e03c 8f7b 75bb
00000270: cadb 273d edd4 033d 576c c93c dcf9 4a3d
00000280: 72d6 303c d15d 203d cf01 753c 1100 433d
00000290: f6fd 1f3d 8b8b fb3b 52a0 ab3c 6fe9 d03b
000002a0: 4c2b 2cbc 60f0 46bc 5a8f 343d 6115 24bb
000002b0: d13a 123d 5675 673c 2638 7d3a 6573 9dbc
000002c0: f6a5 66bc d0c8 16bb 799f 943c bea2 bebc
000002d0: 3809 2f3d 650c b53c 3b3a 84bc 5f34 b2bb
000002e0: 7895 a8bc 6a2f a33c 52cf e73a 92a7 273d
000002f0: 3066 283d 4516 4bba 9850 3b3d 7a26 453d
00000300: 586c b13c cbac f03c 4ca5 72bc 07d0 24bc
00000310: c5d2 3b3d 702e 2c3d f3ec 113d 3607 b23c
00000320: a53f ef3c 93b1 803c 3465 113d 5280 b9bc
00000330: fe4e 8bb9 bd9e 86bc d217 933c 1f9c 073c
00000340: 3690 cf3c 0ad3 4fba 3106 4d3d 4520 d23c
00000350: 37b8 de3c 956f 8d3c bbab a7bc 5929 c1bc
00000360: bfc9 bdbc 6a43 a73c 5196 7eba 1c38 32bc
00000370: c551 033d ed64 253d a61f 183d 1c2d 6ebc
00000380: 8df7 71bc 5ccf 16bb 225b a1ba 88f3 26bc
00000390: 9297 2cbd 507a 30bd 3171 6cbc b795 863b
000003a0: 7ed8 b03b e251 b4bb 913c cfbb 5d0d ffbc
000003b0: 1e80 76bc f77f 1ebc 1d8c 35bc 84cc bdbc
000003c0: 2378 1f3d ae88 883c 0513 7a3c 17ee f83c
000003d0: 6a3d b63c 9a81 d23b 8b78 213d 1d9e 28bc
000003e0: ec6e 95bc a5d8 4f3c b419 a8bc cb32 66bc
000003f0: f93b c2bc e83a 8dbc 394c d6bc 1f9e 87bc
-0.01690269 0.004187576 -0.018003674 -0.0059462795 0.022967625 0.03144929 0.016432093 -0.029063422
0.024381274 0.03223647 -0.015041746 -0.022688476 0.025124224 -0.017263897 -0.01638103 0.040424895
0.002122967 0.007032211 0.052259497 0.028363207 0.00023622534 0.022613302 0.03505461 0.0038198596
0.015331085 0.030941304 0.0409087 0.024682958 0.038693525 0.02841053 0.02617537 -0.015618935
0.018294776 -0.04481211 -0.025920967 0.01852858 -0.027083281 -0.05262575 -0.023782406 0.0020321433
0.016267898 0.03372527 0.013916612 0.037456263 -0.0047929795 0.001429508 0.01029246 0.0453476
0.05634328 0.049000826 -0.017691944 0.004498408 0.0106834965 0.0015496515 -0.008393384 -0.032433834
0.005015584 -0.02172615 -0.015715353 0.02071222 0.033777103 0.033388477 -0.018725865 0.018541526
-0.009487659 0.02177699 0.040832274 -0.006262738 -0.013035855 0.020424074 0.0004149797 0.024684848
-0.0033500066 0.012247398 -0.0056234137 0.031655606 0.059285067 0.015935028 -0.014255489 0.03830783
0.060053423 0.02581509 -0.012425269 0.03794981 0.030963272 0.0033141512 0.061102916 -0.0037388077
0.028915543 0.035314593 0.061309643 0.06321037 0.025132414 -0.0018627811 -0.0091837095 -0.0070171882
0.055049088 -0.0074333153 0.054384716 -0.0066097616 -0.011973977 0.0087983515 0.053432684 0.052275695
-1.52273715e-05 0.036255006 0.012935704 0.05161113 0.020777484 0.042289265 -0.01777619 -0.00082113844
0.004726572 0.0150913745 -0.008484994 0.035226867 -0.012577782 0.00892318 0.014342157 0.00041825775
0.022547618 0.030705076 0.0017830373 -0.027059356 -0.022110237 -0.00511714 0.005333877 0.01767639
-0.022998918 0.009106001 -0.020796528 0.02482519 0.05073483 0.010053992 0.025218232 0.0046847956
0.045841936 0.023363354 0.010027059 -0.0053788717 0.029307634 0.033245776 0.021243215 0.025219325
-0.019971572 0.019182881 -0.037905186 -0.0049930112 -0.03653804 -0.0374328 0.013098173 -0.01838789
0.037763696 0.036007863 0.027353425 -0.003745768 0.04098109 0.032185484 0.024587793 0.04955469
0.010793315 0.03915197 0.0149540445 0.047607485 0.039060555 0.007676547 0.02095047 0.0063754837
-0.01050837 -0.012142271 0.044082023 -0.0025037157 0.035700623 0.014127096 0.0009659551 -0.019220063
-0.014077654 -0.0023007877 0.018142449 -0.02327096 0.0427334 0.022100637 -0.016141048 -0.005438372
-0.020579085 0.01992007 0.0017685688 0.040931292 0.04111308 -0.0007747154 0.045731157 0.048132397
0.021658108 0.02937927 -0.014809918 -0.010059363 0.045855302 0.042036474 0.035626363 0.021731954
0.029205153 0.015709674 0.035496905 -0.022644196 -0.00026571 -0.016433114 0.017955694 0.008276968
0.02533732 -0.00079278706 0.050054733 0.025650153 0.02718745 0.01726512 -0.02046763 -0.023579286
-0.02316749 0.020417888 -0.000971173 -0.010877635 0.032060403 0.040379453 0.037139557 -0.014537122
-0.014768493 -0.002301178 -0.0012310485 -0.010189898 -0.042136736 -0.043085396 -0.014431284 0.004107203
0.0053969016 -0.0055029253 -0.0063243588 -0.031134302 -0.015045194 -0.009674064 -0.011080769 -0.02316881
0.03893293 0.016666736 0.015263324 0.030386968 0.022246081 0.006424141 0.0394216 -0.010291603
-0.018241368 0.012685929 -0.020520069 -0.014050196 -0.023710238 -0.017240003 -0.026159393 -0.01655489

bias f4 [32]
00000000: a175 6bbd 4e11 e63c 665b 883c 7190 88bc
00000010: a07d cebb 1eb9 ddbd db44 55bc 36df 94bd
00000020: 2f2b f4bc 9f6d 0bbd 5e42 0c3d c508 30bd
00000030: ebf6 17bd 68fc ef3c 5ad1 abbd 8c43 373d
00000040: f0e5 a2bb 6b80 d4bd 67ab 80bd 812f a5ba
00000050: 7ac2 d13b 70e6 5b3d e151 063d 7f34 303d
00000060: 6d8d f5bd 42fd 0f3d 9afa 893d dc81 2f3c
00000070: 05b8 86bc b28f 8b3c d04b 44bd 263d febc
-0.057485227 0.028084423 0.016645145 -0.016670438 -0.0063015968 -0.10826324 -0.013016905 -0.072691366
-0.029805748 -0.03404009 0.03424298 -0.042977113 -0.037100714 0.029295161 -0.0838954 0.044742152
-0.0049712583 -0.10376056 -0.062826924 -0.0012602658 0.0064013572 0.05368656 0.03279293 0.043018814
-0.119898655 0.035153635 0.067372516 0.010712113 -0.01644517 0.017036293 -0.047923863 -0.031035017

weight f4 [64, 32, 5, 5]
00000000: cc7c c6ba 30bd df3c da51 83bb e30f 033d
00000010: df54 00bc 2d05 13bd d198 09bd ee88 75bc
00000020: a917 80bc e439 573c de7a 1c3c caaa 20bd
00000030: b15e c23c c355 db3b 8b18 7e3c 8350 0bbd
00000040: 3c86 bf3c 033c 3d3c 17e6 f93c 000e 18bc
00000050: 73d7 5abc 93d4 283c e763 8dbc d3ab 0dbd
00000060: 34a7 963c 1dbb aabc b2d5 763b 4f00 4b3c
00000070: 433c 1a3c da25 64bc 6f9f 47bb ec77 69bc
00000080: 89f4 603c f682 fa3c 4743 b93c ac43 ecbb
00000090: 874b a5bc b4ff 25bc 9b6b 8fbc 04ab 11bc
000000a0: b196 b5ba 1eb1 2bbb 6d78 0ebd d72b c73c
000000b0: 1a27 2fbc c73a 843b a208 90bc 21da 75bc
000000c0: 2269 00bd 29d5 d3bc 7c7f ea3b a704 f4bc
000000d0: c743 053d 2760 b4bc 58ca fd3c 38d1 103d
000000e0: b307 ce3c 3fb6 0cbc bbf0 a23c d44e 253d
000000f0: 7f53 0b3d f43f d03c 9a2b 573d dc85 84bc
00000100: 3d57 bab9 042f 1f3c b0b2 253d caff 2b3b
00000110: a057 2cbb bb17 06bd a810 ba3c a1b9 17bc
00000120: ba0c f83c e5f3 cf3c dec3 263a ba2a 17bc
00000130: 7dc0 85bb cbb7 b13c 7f61 3fbc baa5 1f3d
00000140: a91f 65bb f6cc ac3b 9fed 293c 4447 453c
00000150: fe12 ae3b a597 ff3b 3541 41bc e05e 123d
00000160: efbe 56bc 8c0b 1a3b dc40 de3c 5820 053c
00000170: 1688 023c 8512 56bc 130a a7bc 5d21 a43c
00000180: b15a 323c c9a2 30bc 85f5 d4bc cc97 593b
00000190: a455 733a 2231 8e3b 5314 063c 5e41 d93c
000001a0: 7282 863c 49e5 03bd a71b f43c 8fcf 333c
000001b0: c0db 13bd 93e8 edbc 217b b93c ee5f afbc
000001c0: 3048 8cba 44c8 c2bc 5ade c03c dc52 9dbc
000001d0: c260 e1bc 90ec f6bc a704 2abc e5b4 1dbd
000001e0: fa81 f7bc 421e 9f3c baea c43b 5304 0abb
000001f0: fb3f 4cbc 2a00 a8bc ff89 853c 9e3f f53c
00000200: 8bcf 153c 970e 353d 1c7b 3a3c 5cac aebb
00000210: 71bf d3bc ff37 ebbc d454 d73c 54db 833c
00000220: daf9 963c aace 4a3c 6e1f 4b3d 97ed 853b
00000230: 8597 b83c 0281 213d 61d4 e63c 8868 db3c
00000240: 2cb2 2bbc 3bca abbb 2848 07bd 669d e3bc
00000250: d239 04bd df0a 1dbd e740 04bd 0703 abbc
00000260: ce8d 42bc 1fbd d8bb 8c5b a93c 4f6a 9fbc
00000270: 67c2 a7bc 6e05 9f3c fc22 bb3c f58a 003d
00000280: 95ec a83c 32a2 1e3d 691a be3b b02d 2c3b
00000290: f526 8e3c 6842 a0bc 0d67 6abc a554 5b3c
000002a0: 9594 78bc 61a6 9b3c f43e be3c 75a8 873c
000002b0: f318 23bc 15f0 e03c 4c14 bdbc 4902 873c
000002c0: 21e3 b7bb 4050 163c 2220 19bc 5380 e9bb
000002d0: b07b 8d39 56a8 163d de69 b53a 2340 81bc
000002e0: bfaf 1c3d 7ded ef3b c4d7 bdb9 64a5 04bd
000002f0: 1a9d aa3c d716 27bd 1669 60bc c614 24b8
00000300: 611e 273c 9c5c 733c ffc0 84ba 39af 5b3c
00000310: 7452 35bc d348 5c3c 8c88 15bc ab41 ca3c
00000320: d7be d23c 735d 57bc 81d8 a63c 6db6 ad3b
00000330: 9c32 163d 506f 79bb 57c8 07bb 6db6 b8bc
00000340: 0370 1f3d f42c a5bc a7fe 023d 06de 403c
00000350: c66a 61bb 4b53 5ebb c8ee ce3c 32e7 2c3c
00000360: e808 0f3d dfc4 9ebb 4df5 af3c 370f fcbc
00000370: e83d 58bb 240c 173d efce 0bbd bdf4 d5bc
00000380: 1143 2d3c a9a8 08bd 3a53 8c3c d412 cf3c
00000390: 83a8 c33c c41d 213d 0a2f b83c 2988 18bd
000003a0: f0b2 e93c d6a4 46bc e75e a33c 162f 4a3c
000003b0: b3d8 15bd f610 3d3c a2fb 03bd 9963 1dbc
000003c0: 3dd8 9cbb 4957 b3b9 58dd d93c 7a09 1b3c
000003d0: 6b1f 01bd 6a19 dabb 2546 dbbc 4724 abbc
000003e0: 3d9c d1bb b83c 2dbc 8d95 ff3c 72d8 32bc
000003f0: 6ef8 8dbc b2f7 f43c ab8d e23c 13d0 bf3c
-0.0015143394 0.027311891 -0.00400756 0.031997573 -0.007832735 -0.035893608 -0.033593003 -0.01498626
-0.015636282 0.013136361 0.009550778 -0.039225377 0.023726793 0.006693573 0.015508781 -0.03401233
0.023379438 0.011549952 0.030505223 -0.009280682 -0.013357031 0.010304588 -0.017259551 -0.034587692
0.018390276 -0.020841176 0.0037663993 0.01239021 0.009413782 -0.01392504 -0.003046002 -0.014249783
0.013730177 0.030580025 0.022615088 -0.0072102156 -0.020177616 -0.010131765 -0.017507365 -0.008890871
-0.0013854114 -0.00261981 -0.034782816 0.024312897 -0.010690475 0.004035327 -0.017582241 -0.015005619
-0.031350262 -0.025858479 0.0071563106 -0.029787375 0.03253534 -0.022018505 0.030980274 0.035355777
0.025150156 -0.008588373 0.01989018 0.04035838 0.034015175 0.02542112 0.052531816 -0.01617711
-0.00035541682 0.009715799 0.040453613 0.0026244991 -0.0026297346 -0.032737475 0.02271302 -0.009260566
0.030279506 0.025384853 0.0006361584 -0.009226495 -0.0040817843 0.021694085 -0.01168096 0.03897641
-0.0034961498 0.0052734567 0.010371595 0.012040917 0.0053123226 0.00780006 -0.011795332 0.03573501
-0.013107046 0.0023505418 0.027130537 0.008125387 0.007967016 -0.013065939 -0.020390546 0.02003544
0.01088588 -0.0107809985 -0.02599598 0.003320205 0.0009282476 0.004339353 0.008183557 0.026520427
0.016419623 -0.032201085 0.029798342 0.010974779 -0.03609824 -0.029041564 0.02264172 -0.021408048
-0.0010702666 -0.023777135 0.023543525 -0.01920455 -0.027511958 -0.030142099 -0.010377086 -0.038502593
-0.030213345 0.019423608 0.006009427 -0.0021059706 -0.012466426 -0.02050789 0.016301153 0.029937562
0.00914372 0.044203367 0.011381891 -0.0053306054 -0.025848122 -0.028713224 0.026285566 0.016095795
0.018429685 0.012378374 0.04959052 0.004087161 0.022533188 0.039429672 0.028177442 0.026783243
-0.010479491 -0.0052426136 -0.033027798 -0.027785014 -0.032281704 -0.038340446 -0.03228846 -0.020875467
-0.011874629 -0.006614342 0.020673536 -0.019459872 -0.02047844 0.019411769 0.02284383 0.03138252
0.020620624 0.0387289 0.005801488 0.002627235 0.01735256 -0.019562915 -0.014306796 0.01338688
-0.0151721435 0.019000234 0.023223378 0.016559819 -0.009954679 0.02745823 -0.023080967 0.016480582
-0.0056117927 0.0091744065 -0.00934604 -0.007125893 0.0002698577 0.03678163 0.0013840755 -0.015777653
0.038253542 0.007322012 -0.00036209647 -0.03238429 0.020826865 -0.040793266 -0.013696929 -3.9119994e-05
0.010200114 0.014853623 -0.0010128318 0.013408476 -0.011067022 0.013445097 -0.009126794 0.024689516
0.025725765 -0.013144839 0.020366909 0.005301288 0.03666936 -0.0038060732 -0.0020718777 -0.022547925
0.038925182 -0.020163037 0.031981137 0.0117716845 -0.0034395917 -0.0033924158 0.025260344 0.010553168
0.034920603 -0.004845246 0.021479273 -0.030768974 -0.0032995883 0.036876813 -0.034132894 -0.026117677
0.010575072 -0.03336397 0.01712953 0.025277533 0.023884064 0.039335027 0.022483367 -0.037239227
0.028527707 -0.012124261 0.019942714 0.012340328 -0.036583614 0.011539688 -0.032222398 -0.009606265
-0.00478652 -0.00034206573 0.026594803 0.009462709 -0.031524103 -0.0066558616 -0.026766846 -0.020891322
-0.006396799 -0.0105735585 0.031199241 -0.010915862 -0.017330375 0.029903267 0.027655443 0.023414647

bias f4 [64]
00000000: 0f43 66bc cbf4 a9ba 204f 5ebd 48e7 22bd
00000010: ea33 95bc 223a b53b d13b 0d3d dff7 22bd
00000020: 957e 493d eaaa c13b 1797 35bd 02ac 9abc
00000030: 2026 cbbc f949 913c 0a5c 66bd 458b 75bb
00000040: fdda 683c 0fa4 183d a7cc a6bc ab88 69bc
00000050: f13a 593d 94ad 11bd 6996 36bd 60d5 07bd
00000060: c316 8c3c ed08 7dbd ef04 42bd 06e9 c7bc
00000070: 928d 64bc 6b04 05bc a8d4 11bd babf 013d
00000080: e872 aebd 8e6f 343c 1f31 14bd 353d 40bc
00000090: d09c 583c 5e7c d63c f1d2 333b d669 703a
000000a0: 14b9 a03c 205e 953b 42b2 e7bc 586e 4ebc
000000b0: 9505 773c a9e6 dd3c 3055 6ebd c332 09bd
000000c0: 1690 3bbd f9ae 1d3b 4ce8 73ba 10ce 0ebd
000000d0: 993a 42bd d941 6cbd 3f12 fb3b 3e55 96bb
000000e0: c262 96bb 05fa e7bc 280f b2bc 7286 1abd
000000f0: b2b7 1abc 070d 60bc c327 5b3b 4b03 90bd
-0.014054074 -0.0012966631 -0.05427468 -0.03977135 -0.018213231 0.0055306116 0.034480873 -0.03978717
0.049192984 0.005910267 -0.044333544 -0.018880848 -0.024798453 0.017735468 -0.05624012 -0.0037467044
0.014212367 0.037265833 -0.020361258 -0.014253776 0.053034727 -0.035565928 -0.044577036 -0.033162475
0.017100697 -0.06177609 -0.047367986 -0.024403106 -0.013949769 -0.008118729 -0.035603195 0.031676985
-0.085180104 0.011012925 -0.036179658 -0.011733343 0.013220981 0.02618235 0.0027438963 0.0009171044
0.019619502 0.0045583397 -0.028283242 -0.01259955 0.015077014 0.027087526 -0.05818671 -0.033495676
-0.045791708 0.002406059 -0.0009304329 -0.034864485 -0.047419164 -0.057679985 0.007662087 -0.0045877984
-0.0045894096 -0.02831746 -0.021735743 -0.037725873 -0.00944321 -0.013674981 0.0033440448 -0.07031878

weight f4 [64, 1024]
00000000: 9a94 05bd 825c 5d3c 4d91 cd3c e508 79bc
00000010: d814 71bc f004 c23b 7cdc 04bc 52f7 813c
00000020: 8f4c d53b bb15 c3bc 11d8 f03b a252 023c
00000030: 578d dbbc 6efd 15bd 3624 edbc 6a7f 09bd
00000040: 3b9e 3f3c 7320 b5bb 885e 95bc d938 993c
00000050: a205 553c 3acf ccbb 2fa1 24bc 3941 cf3c
00000060: f910 0dbd 5cde 4abd 0292 fdbc 3db2 43bc
00000070: 95c7 a8bb 4934 b0bc 12ae beb8 0e22 bc3c
00000080: 8301 7d3c c990 ad3c 84ac c73c 713b 2b3b
00000090: 031b 883b 6de8 13bd 1591 aebc a477 abbc
000000a0: 7577 a6bc 5c9d 71bc c65a 25bd ff9f 603c
000000b0: 5a54 98bc ba97 f13a 2eda e9bc c0c1 483c
000000c0: a300 b1bc 7ae3 fabc b7a0 2fbc 2e98 a03c
000000d0: 33b5 3c3c 5c28 a6bc 192c 25bd d562 a03c
000000e0: e915 9b3c f3ee 15bd 599c b0bc 9ab2 d2bc
000000f0: 2948 0dbd 0a75 e5bb 6fef d13c cbef 50bb
00000100: f866 b2bc 3484 013b 360c 093c f59a bc3a
00000110: faa0 cd3c d64b 05bc eebc 9f3c 60f5 38bc
00000120: d29e 1ebd 859e 343c eb07 f2ba 877a 623c
00000130: 0760 16bd b848 403b 6a8d 13bc 34bb b03c
00000140: a179 e33c 89c2 c53c c2f9 d83a 48f5 abbb
00000150: 009a 2abc 5d68 ee3c 333d 96bc 2c15 b9bb
00000160: 4dae a43c 4be2 b43a 4e8f 2fbc ce37 04bc
00000170: 73a1 a23c 0567 03bd 037c 75bc e6c1 ef3c
00000180: d95c c4bc fd6c aebc 7bac 2b3c ee32 6e3c
00000190: 527f e5bb 91b0 3a3c 16f9 68bb 3404 8a3c
000001a0: 5e01 c5bb b116 05bd e2c7 f0bc 603c 803c
000001b0: 9da6 c9bc 2690 b7bc 561e 9a3c dd2f b33c
000001c0: 671e 003d b305 86bb 2142 f93c 9426 9d3b
000001d0: 304d d0ba 21db 053d 7552 1ebd 37ff 4dbb
000001e0: 31d6 eb39 f40e 473b 4404 59bc a4dc 9bbc
000001f0: 9217 d03c a792 7a3c 6508 b2bc c77b 973c
00000200: 56f3 d2bb 6ffc dcbb 96a4 e8bc ff2a debc
00000210: bf1e 273c 867c 013d fdb0 8e3c d820 abbc
00000220: 9ef4 9b3c e611 7b3c 4d4f ad3c 8fe1 dbbb
00000230: 0c13 7abc 2e42 3a3c 9d60 563c 08f0 053b
00000240: c2eb 66bc 6aed 19bb 95c3 a3ba 6f1c 82bb
00000250: 42fd 8fbc b97f 113c a7a4 be3c 2dea ca3c
00000260: c87f f6bb 7bc9 18bc 7a01 2a3c c6f6 02bc
00000270: d4d5 7bbc 0feb ddbc 9a69 e8bc 06b0 863c
00000280: e94a f23c 0a29 ec3c 0015 31bc 16f0 40bc
00000290: c607 3dbc 2b8a 0c3d e2c3 c8bc fef3 f63c
000002a0: f7a5 5fbc 7fd7 4cbc 6fca 78bc 880a 423c
000002b0: bc7b 7abc 6181 403c 58cd 4abc 2213 f9bc
000002c0: 6589 06bc 5c83 80bc 86b6 d5bc 2e66 023d
000002d0: 4118 8ebc 28b0 6abc 04c8 bbbc 65a0 cd3c
000002e0: a4b2 c7bc 8505 20bd 5ca8 bebb cc60 0abc
000002f0: 4c61 09b9 40b7 053c 46e8 fcbc 78dc a0bc
00000300: 1241 f13c 7b58 f2bc 5ed2 eebb 16a9 e53c
00000310: 49c7 763c 1da6 f33c e949 76bc b7a8 0d3d
00000320: 8103 463c 90e8 103c a202 a73c 2356 d23c
00000330: cdc7 003c f495 3cbc 2bf7 6bbc d310 b9bc
00000340: 2404 963c 9291 e83b d3b8 21bc 0dc2 4e3c
00000350: d64a 5ebb 3775 18bc bb75 273d e97e aebb
00000360: b983 d2bb 237f e8bc 5329 b2bc 1325 973c
00000370: 8ac4 453b 9f14 71bc 6956 53bb 2935 c3bc
00000380: d546 d53c 20a0 a6bc c134 0bbd a1e4 a3bb
00000390: 153b 15bd e28e d8bc bca2 db3a 7bc5 d4bc
000003a0: 81a6 adbc b7da 16bc a5cf a63c 0463 f73a
000003b0: 4b39 0bbb bb17 1cbd 35b4 05bd d88a 943c
000003c0: 9c87 3ebb 65f3 5a3c 1675 483c e146 8e3c
000003d0: b16a af3c c85a 82bc 9578 9fbc 8f2d ac3b
000003e0: c5b3 c93b e219 943c fb0e ea3b ccd7 b4b9
000003f0: 62be e93c aade 64bc a097 0bbd edd7 543c
-0.03261242 0.013510825 0.025093699 -0.0151998745 -0.014714442 0.0059209988 -0.008109208 0.015865002
0.0065093706 -0.023814073 0.007349976 0.0079542715 -0.026800795 -0.036618643 -0.02894793 -0.033568777
0.01169544 -0.00552755 -0.018233553 0.018703865 0.013001831 -0.0062502893 -0.010048195 0.025299655
-0.034440015 -0.049528465 -0.030953411 -0.011944351 -0.005150745 -0.021509307 -9.092329e-05 0.022965457
0.015442255 0.021187203 0.024374254 0.002612796 0.0041536107 -0.03611033 -0.021309415 -0.020931073
-0.020320633 -0.01474699 -0.04036977 0.013710021 -0.01859491 0.0018432059 -0.028546419 0.012253225
-0.021606749 -0.030626047 -0.01071947 0.019603815 0.011517811 -0.020282917 -0.040325258 0.019578377
0.018931346 -0.036604833 -0.021558927 -0.02571993 -0.034492645 -0.0070024775 0.025626866 -0.003188121
-0.021777615 0.0019762637 0.008364728 0.0014389443 0.025101174 -0.0081357565 0.019499268 -0.011288971
-0.03872568 0.011024122 -0.0018465495 0.013823158 -0.036712673 0.0029340219 -0.009005884 0.02157364
0.027767958 0.024140613 0.0016553926 -0.0052477457 -0.010412693 0.029102499 -0.018339729 -0.005648276
0.020102644 0.0013800351 -0.010715319 -0.0080699455 0.019852376 -0.03208067 -0.01498318 0.029267263
-0.023970054 -0.021292204 0.010478134 0.01453851 -0.007003703 0.011394636 -0.0035548857 0.016847707
-0.006012126 -0.032492343 -0.029392187 0.015653789 -0.02461558 -0.022407603 0.018813293 0.021873409
0.031278994 -0.004090035 0.03042704 0.0047958586 -0.0015892144 0.03267968 -0.038652856 -0.0031432637
0.00044982278 0.0030373903 -0.013245646 -0.019026108 0.025401864 0.015293754 -0.021732518 0.018491639
-0.0064376993 -0.0067439596 -0.028398793 -0.027120112 0.0102002015 0.031612895 0.017418379 -0.020889685
0.019037541 0.015324092 0.021155978 -0.0067102383 -0.01526333 0.0113683175 0.013084558 0.002043726
-0.014094295 -0.0023487457 -0.0012494201 -0.0039706747 -0.017576817 0.008880549 0.023271872 0.024769867
-0.007522557 -0.00932538 0.010376329 -0.007993406 -0.015370805 -0.027089624 -0.028370667 0.016441356
0.029576736 0.028828163 -0.010808229 -0.011775991 -0.011537498 0.034311455 -0.024507467 0.030145641
-0.013650409 -0.01250255 -0.015184983 0.011843331 -0.01528829 0.011749596 -0.012378059 -0.030404631
-0.008211468 -0.015687637 -0.02608801 0.031835727 -0.01734555 -0.0143242255 -0.022922523 0.025100896
-0.024377175 -0.039067764 -0.00581841 -0.00844593 -0.00013101584 0.008161366 -0.030872475 -0.019636378
0.029449973 -0.029583206 -0.0072882613 0.028034728 0.015062162 0.029742295 -0.01503227 0.034584727
0.012085796 0.00884451 0.020386998 0.025675839 0.007860136 -0.011510361 -0.014402191 -0.02259103
0.018312521 0.0070974315 -0.009870726 0.0126195075 -0.0033919117 -0.00930529 0.04088376 -0.0053251875
-0.006424394 -0.028380936 -0.02174822 0.018450296 0.003017696 -0.014714389 -0.003224755 -0.02382906
0.026034752 -0.020340025 -0.033985857 -0.00500162 -0.0364333 -0.02643532 0.0016756873 -0.025973072
-0.02119756 -0.009207419 0.020362685 0.0018874113 -0.0021243866 -0.03810857 -0.032642562 0.018132612
-0.0029072529 0.013363694 0.012234947 0.017367782 0.02141318 -0.015912428 -0.019466678 0.0052544544
0.0061554634 0.018078748 0.007142899 -0.00034493057 0.028533164 -0.013969103 -0.034080148 0.012990934

bias f4 [64]
00000000: d615 faba f236 12bb bf8d 303c 22c6 2f3d
00000010: 8cd7 ec3c 124b 1b3c 6605 6aba 2cd2 6cbd
00000020: 0684 6abb 51e4 91bc d736 a7bc 4691 813c
00000030: 1dde 793b d786 24bd d22a c4bc d12e 353d
00000040: 00d8 733c 9049 323c fc54 45bc cc17 223c
00000050: 393c e339 ae21 3b3c 7f0e 45bd 272b 4abb
00000060: 989f 8dbc 7952 01ba 3aa0 8b3b 05f3 08bd
00000070: 5813 e3bc fefe 8b3c 624b da3c 0edb f53c
00000080: 387b 413d 542d fc3c b2b9 98bd 90d6 b93c
00000090: 03d8 33bc 76cc 06bc d43e 02bc c8ec 8db8
000000a0: 036d 86bc ff9c 31bc 017c 1c3d f089 103b
000000b0: e237 493c b2f2 af3c 094d 40bd eb7b 6f3c
000000c0: 9c77 12bd 9db3 393d 7d9e 2c3d faaa 7b3c
000000d0: ee0d e43c 7b0f bfbc a416 92bd 994d 963b
000000e0: f813 a1bc be87 b63b 677f f2bc 0394 b03b
000000f0: 601f 51bc c445 283d 1453 10bd 9467 43bd
-0.0019079994 -0.0022310582 0.010775982 0.042913564 0.028911375 0.009478347 -0.0008927196 -0.057817623
-0.0035784259 -0.017809065 -0.020411892 0.015816342 0.0038126775 -0.040167656 -0.0239462 0.0442341
0.014883041 0.0108817965 -0.012044188 0.009893369 0.00043341683 0.011421604 -0.048109528 -0.0030848475
-0.017288014 -0.0004933249 0.004261044 -0.033434886 -0.027719185 0.017089363 0.026647273 0.03001168
0.04723665 0.030783333 -0.074572936 0.02268532 -0.010976794 -0.008227458 -0.00794955 -6.767508e-05
-0.016409403 -0.010840653 0.038204197 0.0022054873 0.01228139 0.02147803 -0.046948466 0.014616947
-0.0357586 0.04533731 0.042143334 0.015360588 0.027838673 -0.023322811 -0.071332246 0.004586887
-0.019662842 0.005570381 -0.029601766 0.005388738 -0.012763828 0.04108216 -0.03523548 -0.0477062

weight f4 [10, 64]
00000000: 7e64 d3bd 2b2c 193d 4bef 233d 10aa 1ebd
00000010: 0347 eabb 2920 d8bd 9161 dabd 6af8 423d
00000020: 535c 4bbe 7d9b d5bd 8c40 ab3d 3542 afbd
00000030: 21de 643d 6840 ca3d 68c2 903d 529b f7bd
00000040: 562a 143e 35a3 dd3d 991b e83d ab45 10bd
00000050: ccab 0b3e 78bb 6dbd 7b3a 113d e421 0e3e
00000060: 94b7 ff3d d0ed 0a3e ac3c 9b3d 6420 d9bc
00000070: 53b0 ce3c 184b cbbd 05ac 18bd 319e cc3d
00000080: 7655 20bd 3259 13be be19 1a3e 24be cbbd
00000090: d5c7 c13d 8c59 0abe ffb2 9c3c 76f1 0dbe
000000a0: 785d 283e d776 f2bd b5f0 29be eaf2 c0bc
000000b0: d415 8b3d 9478 93bd 39c8 1d3e 4790 ef3c
000000c0: 044d c63d 02a9 58bd 64dc 9c3c 6e5e c7bd
000000d0: 7fed 2e3e b3db 5ebd 4efe 223d dec1 8f3d
000000e0: b578 b63d 113f 4bbd 2ccd 8c3d 551a b6bd
000000f0: 1d83 153e 10ed 07bc 3ef5 ac3d a055 393e
00000100: 629e 593c d5f4 c6bd 714f 83bd 4e11 1e3e
00000110: c952 a9bd 80ef 76bc ed98 53be 94af a43a
00000120: d958 44be 3070 97bd 7871 5ebe 4674 0fbe
00000130: b54d ec3d b697 333e 1589 253d 840b ca3d
00000140: 29bd 3c3e 791f 843e 3c52 34bc f6f8 613d
00000150: 7e49 e1bd 09e4 dcbd b631 d7bd fbf7 133e
00000160: deba f13d 0690 0fbc dcbe 47be c4d8 f6bc
00000170: 59c9 523e d07b e6bc c496 b53d 7c04 e0bd
00000180: ca18 73be 2b00 693d 85be 173d d4ee 10be
00000190: a048 0d39 1cf7 983d 06d6 92bc cf8c ae3b
000001a0: 6cff 003e 6401 c53d 2650 6c3e 0488 f8bd
000001b0: e5af 1cbe 4a03 433e 4327 003e 7c35 0abd
000001c0: 3ffb a3bd ff8e f0bd 869a 97bd 2232 3abd
000001d0: 5720 0c3d f87e 09be c384 513e 7d38 4abe
000001e0: 40ec ba3c fb6b dbbd 54ee d3bd 6ebb 023d
000001f0: c645 59be d85e 1abe d40b 143e 6a52 d7bd
00000200: 1995 3bbd 042f 343e 89fa 123d f095 82bd
00000210: f4af db3d 6f1f 003e cbc5 233e 7c62 a83d
00000220: 0bb3 213c d00e 8abd 736a 3cbd 01dd 39bd
00000230: a9f2 a63d 4c0d 69bd fb44 1ebe a6ff b63c
00000240: d656 28be 54ba 16bd 5920 f2bd 83a8 d9bd
00000250: d340 8fbd 184f 523e b2c6 803b 3bbe 1bbe
00000260: 4199 d3bd a43e 0dbe b7c3 303e 0e0b 023e
00000270: 17e9 8d3d 226c 013e 2382 c9bd 926b 1fbd
00000280: bf0b 003e 0967 1bbd b560 c2bd cc21 5dbd
00000290: d9fd 023e 7bcc 85bc a211 1abd 4bae 2bbe
000002a0: b0bc 6c3d f6d5 193d dc5f f0bd 5074 143c
000002b0: 3268 2f3d 807d f73d 008c 0e3e 31c7 fabd
000002c0: 1adf fdbd c2b2 473b 4d39 d63d 01c6 913d
000002d0: 1b69 753d 7f45 16be dd24 003e 41ac 70bd
000002e0: 8822 1e3d 8c4e 1f3e 9b74 043e 4b8e 06bb
000002f0: 3f89 253e a628 af3d 304a c7bc baca 03bd
00000300: 4515 043d 2025 4ebd 0fe8 a43d 3912 0ebe
00000310: afe9 bfbd e690 233d 5ca4 d13d ed37 25bd
00000320: 8b88 173e 627e b83b c66b 62bd 6fa3 903d
00000330: 40d7 813d cdc0 d4bd aa94 5ebd a0e3 2abe
00000340: 8d34 22bd 055e 30be cff6 bb3d 81e0 edbd
00000350: 5b5d b83d 6d4c cc3d eac9 c23d 16ee 0bbe
00000360: 836e ecbd fe38 1cbd 6f6a bc3d b622 b5bc
00000370: b5f4 78bc bc46 163d 986a 35bd de3f dbbd
00000380: e239 ccbd 3fd8 9bbd 8cac 143e 4afa aabd
00000390: a41c 05be 06cf bbbc 617e febd c414 a8bb
000003a0: c61f 24be 9bfa 753d 4d49 993d 1752 1e3e
000003b0: 7ccd c13c 5f93 713d a130 febd 3f25 23bc
000003c0: 66d7 8cbd fbe4 10be 138d 983c 8494 b5bd
000003d0: 0485 d33c aaff a1bd f673 f6bd 916a e4bd
000003e0: 67ba 183e f0e9 3dbc 89be a93d 66f2 8bbd
000003f0: 8200 6b3b 77d6 b43d 00a6 03be 4f23 3abe
-0.10321902 0.037395637 0.04002313 -0.038736403 -0.0071495785 -0.10553009 -0.106631406 0.047600187
-0.19859438 -0.10430048 0.08361921 -0.0855755 0.0558759 0.09875566 0.0706833 -0.12090172
0.14469275 0.10822145 0.11333389 -0.03522269 0.13639754 -0.058040112 0.035456162 0.13880116
0.124861866 0.13567281 0.075799316 -0.026504703 0.025230562 -0.09926432 -0.037273426 0.0999111
-0.039144002 -0.14389494 0.15048882 -0.09948376 0.09461943 -0.13510722 0.01912832 -0.13861641
0.16441905 -0.11839073 -0.16595729 -0.02355333 0.06791273 -0.07200733 0.1540841 0.029243601
0.09682658 -0.052895553 0.01914806 -0.09734808 0.17082785 -0.05440874 0.039793305 0.07019399
0.08909742 -0.04962069 0.06875071 -0.08891741 0.14600797 -0.008296266 0.08445214 0.1809907
0.01328239 -0.09714667 -0.064116366 0.15436289 -0.08267743 -0.01507175 -0.20663805 0.0012564533
-0.19174518 -0.07394445 -0.21722972 -0.14009199 0.11538259 0.17538342 0.040413935 0.09865478
0.18431534 0.25805262 -0.011005934 0.05516907 -0.11000346 -0.10785682 -0.105075285 0.14450066
0.1180322 -0.008762365 -0.19506401 -0.030132659 0.2058462 -0.02813521 0.08866647 -0.10938355
-0.23739925 0.056884926 0.037046928 -0.14153606 0.00013473863 0.074690074 -0.01792432 0.0053268443
0.12597436 0.09619406 0.23077449 -0.12135318 -0.15301473 0.19044223 0.12514977 -0.033742413
-0.08006906 -0.11746024 -0.0740252 -0.045457967 0.03421053 -0.13427341 0.20460801 -0.19748111
0.02281773 -0.10713955 -0.10348192 0.031917028 -0.21218023 -0.15075243 0.14457637 -0.10513766
-0.045796487 0.1759606 0.03588346 -0.063762546 0.1072692 0.12511991 0.15993421 0.082219094
0.009869347 -0.067411065 -0.045999955 -0.04537678 0.081517525 -0.056897447 -0.15456001 0.0223387
-0.16439375 -0.03679879 -0.11822576 -0.10627844 -0.06994786 0.20537984 0.0039299363 -0.15209286
-0.10331965 -0.13793427 0.1726216 0.1269953 0.06929224 0.12638906 -0.09839275 -0.038920946
0.12504481 -0.03794006 -0.09491102 -0.05398731 0.12792148 -0.016332855 -0.037614472 -0.16765706
0.057797134 0.037557565 -0.11737034 0.009060934 0.042823978 0.12084484 0.13920593 -0.12245024
-0.12396069 0.0030471538 0.10460148 0.071178444 0.05991469 -0.14674948 0.12514062 -0.058758024
0.03860715 0.15557307 0.12935106 -0.002053159 0.16165636 0.08552675 -0.024327368 -0.032175757
0.032246847 -0.050328374 0.08052074 -0.13874139 -0.093707435 0.039933108 0.10236427 -0.040336538
0.14798181 0.0056303004 -0.055278562 0.070624225 0.06339884 -0.10388336 -0.054340996 -0.16688395
-0.039600898 -0.17223366 0.091779344 -0.11615086 0.09002181 0.099755146 0.09511168 -0.13665041
-0.11544516 -0.03814029 0.09199988 -0.022111278 -0.015195061 0.03668855 -0.04429111 -0.10705541
-0.09971978 -0.07609605 0.14518946 -0.0834852 -0.12999207 -0.022925865 -0.124264486 -0.0051294286
-0.16027746 0.06005345 0.07484684 0.15461002 0.023657553 0.058978435 -0.12411619 -0.009957611
-0.068770215 -0.14149849 0.018621957 -0.08866218 0.025820263 -0.07910092 -0.120338365 -0.111531384
0.14914857 -0.01159142 0.08288295 -0.06833343 0.0035858457 0.088299684 -0.12856293 -0.18177532

bias f4 [10]
00000000: 92c4 aabd 34a1 41bd 6e6c 803c 12ad 2c3c
00000010: acd9 da3d 5826 1a3d 2b83 1e3e eab3 403c
00000020: 4cc9 6c3d 762a cabd
-0.08338274 -0.047272876 0.015676703 0.01053931 0.10686049 0.037634224 0.15479724 0.011761645
0.05780916 -0.0987138
